train/init/384/128.pth (torch, 268819 bytes, 6 tensors)

i_classifier.fc.0.weight f4 [1, 384]
0.03319926 -0.0770002 0.0479012 -0.008967601 0.06963385 0.01817454 0.033350505 -0.019402055
-0.063731566 0.02800399 0.014124761 0.034478866 0.032791648 0.016727725 0.012612491 0.01706044
0.060769457 0.041089877 0.037069604 -0.016021058 0.004749582 -0.036647268 0.03231295 0.024448238
0.018826382 -0.004249381 -0.007129411 -0.04436444 0.013183966 -0.016584624 0.04397894 0.0016824516
0.05159076 -0.010887552 0.024439884 -0.011358363 -0.033277832 0.04184159 0.0059709 -0.027829124
0.0022535934 0.04482686 0.03473616 0.010795405 -0.042540945 0.0047896714 -0.017852169 0.035965487
-0.035087198 -0.055857774 0.072138295 0.0061295982 0.019461216 0.045424502 0.00086348195 -0.038856663
0.023845986 0.013092169 -0.03260876 0.028217813 0.006555756 0.026725315 -0.0073923897 0.06383947
0.033984076 -0.0109729 -0.013936863 0.012989342 -0.00816187 0.012650252 -0.036269106 -0.009401526
0.02300612 -0.02781405 -0.019500053 0.0018364278 0.016428133 -0.008829175 0.049994957 0.00026276722
0.0060103564 -0.019637384 0.028928705 -0.044340022 0.042807914 0.0121841505 0.0149511965 0.012535519
0.078747794 -0.028779441 -0.016472235 0.0006367008 -0.01459522 0.02223269 0.032914404 0.05245871
-0.0238386 0.029625803 -0.047896516 -0.060220502 -0.011900191 -0.051219646 -0.0072708973 -0.00049685367
0.06806879 -0.011696366 0.027875649 0.0044477996 0.009543034 0.017852616 0.03836082 0.047847383
-0.026370768 -0.002043147 -0.005645994 0.067415014 0.04764143 0.01665422 -0.00093467237 0.044226438
0.052138146 0.053338002 0.056481313 -0.016002145 0.045997832 0.03288328 -0.08034698 0.06467656
0.050709568 0.044172768 -0.04492893 -0.04586037 0.010234091 -0.0032643718 0.014042664 0.03406631
-0.040253777 0.04678089 0.061008263 0.009559643 -0.019853642 -0.023576392 -0.01249521 0.0077346303
0.013213399 -0.063422374 -0.041939527 0.03047117 0.00019715315 -0.018269783 -0.059745442 -0.011971303
0.042499214 -0.025796367 -0.04413955 -0.024273522 0.007348247 -0.025762534 -0.005871506 -0.04593574
0.075445086 0.06251223 -0.011555383 0.012491998 0.006792981 -0.02034013 -0.0124571845 -0.013512794
0.010848419 0.013997229 -0.014569889 -0.004657801 -0.044639178 0.01318121 0.0005043073 0.029965082
0.012887618 0.009791434 0.010323317 0.04665904 -0.0011393474 0.0057683545 0.0035819188 -0.012382083
-0.01237269 0.02116702 0.039088186 0.00066225615 -0.009855098 0.003643563 0.029265365 0.0044057816
-0.067124315 0.03875568 0.028132519 0.051332213 0.0017886086 0.05412149 -0.011458057 0.033752926
0.03314857 0.009061858 0.037836917 0.03442548 0.0040605855 0.06383685 0.021642083 -0.0031472817
0.012471149 0.061286736 0.05616545 -0.028973928 0.021195339 -0.038715553 0.022621762 -0.012714028
0.0536464 0.011318382 -0.031863827 0.006336148 -0.0058713565 -0.031768866 -0.01565865 -0.07040059
-0.030387076 -0.026904525 0.028935902 0.03591485 -0.00034207385 0.0015097869 0.0026357397 0.001031459
0.043898575 -0.02136302 0.046736393 -0.008200595 5.518286e-07 0.0011547199 -0.040187106 0.032696586
0.031252805 0.046876747 -0.037128095 0.04059246 -0.021728218 -0.048960086 -0.029714735 -0.0227971
-0.04908507 -0.020786708 -0.043671604 -0.0031541337 0.011927902 0.031833366 0.03619353 -0.035589375
00000000: f2fb 073d 48b2 9dbd 0c34 443d d8ec 12bc
00000010: 319c 8e3d c6e2 943c 8a9a 083d 0ff1 9ebc
00000020: b285 82bd a068 e53c 8b6b 673c b639 0d3d
00000030: 8950 063d 9508 893c 9fa4 4e3c 56c2 8b3c
00000040: 65e9 783d dc4d 283d 4cd6 173d 983e 83bc
00000050: 62a2 9b3b 721b 16bd 955a 043d ac47 c83c
00000060: c939 9a3c 643e 8bbb d69d e9bb 7db7 35bd
00000070: 9001 583c 7adc 87bc 4323 343d b585 dc3a
00000080: d550 533d b461 32bc 2736 c83c 6d18 3abc
00000090: 564e 08bd 1662 2b3d 8aa7 c33b e7f9 e3bc
000000a0: 06b1 133b 5f9c 373d 8147 0e3d 36df 303c
000000b0: 6a3f 2ebd adf2 9c3b b63e 92bc 8c50 133d
000000c0: 98b7 0fbd 1fcb 64bd 3ebd 933d ccda c83b
000000d0: 216d 9f3c 0b0f 3a3d 4b5b 623a 2a28 1fbd
000000e0: a858 c33c 8980 563c c390 05bd 0b29 e73c
000000f0: abd1 d63b 0cef da3c dc3b f2bb 45be 823d
00000100: e332 0b3d aec7 33bc 7157 64bc 40d1 543c
00000110: 5db9 05bc 0143 4f3c ea8e 14bd dc08 1abc
00000120: 5577 bc3c 4ada e3bc 93be 9fbc 4bb4 f03a
00000130: 4b94 863c 3ea8 10bc 83c7 4c3d 05c4 8939
00000140: 86f2 c43b 94de a0bc e4fb ec3c e29d 35bd
00000150: 5a57 2f3d 08a0 473c ddf5 743c c761 4d3c
00000160: 8646 a13d ddc2 ebbc c8f0 86bc 44e8 263a
00000170: ca20 6fbc 5521 b63c 41d1 063d f2de 563d
00000180: 2b49 c3bc d0b1 f23c 232f 44bd c6a9 76bd
00000190: 05f9 42bc b1cb 51bd b540 eebb 493f 02ba
000001a0: a667 8b3d 1da2 3fbc 795b e43c d9be 913b
000001b0: 635a 1c3c a63f 923c 3c20 1d3d 9efb 433d
000001c0: 8207 d8bc 52e6 05bb 0802 b9bb e210 8a3d
000001d0: a923 433d 6e6e 883c cd04 75ba c826 353d
000001e0: cf8e 553d f378 5a3d f358 673d ee16 83bc
000001f0: 3968 3c3d 9eb0 063d f58c a4bd 2575 843d
00000200: d6b4 4f3d 81ee 343d 6607 38bd 15d8 3bbd
00000210: e4ac 273c 12ef 55bb 3413 663c 1d89 0b3d
00000220: 25e1 24bd 529d 3f3d cde3 793d 0da0 1c3c
00000230: 1ba4 a2bc 4723 c1bc b6b8 4cbc c872 fd3b
00000240: 037d 583c 97e3 81bd c8c8 2bbd ad9e f93c
00000250: e5ba 4e39 83aa 95bc a3b7 74bd 4923 44bc
00000260: a813 2e3d e752 d3bc accb 34bd 44d9 c6bc
00000270: 90c9 f03b f30b d3bc c365 c0bb 1d27 3cbd
00000280: f482 9a3d 6906 803d ca52 3dbc 3dab 4c3c
00000290: a897 de3b 58a0 a6bc 3819 4cbc c464 5dbc
000002a0: 91bd 313c a254 653c 8bb6 6ebc 77a0 98bb
000002b0: 92d7 36bd 00f6 573c 7d33 043a 5579 f53c
000002c0: 9626 533c 406c 203c 2123 293c 8d1d 3f3d
000002d0: 2856 95ba 7704 bd3b a0be 6a3b 38de 4abc
000002e0: d3b6 4abc 7566 ad3c ef1a 203d 429b 2d3a
000002f0: 4777 21bc d8c8 6e3b ebbd ef3c 605e 903b
00000300: 7978 89bd 47be 1e3d 2b76 e63c ba41 523d
00000310: bf6f ea3a 7fae 5d3d 93ba 3bbc 8240 0a3d
00000320: ccc6 073d 3078 143c e2fa 1a3d bb01 0d3d
00000330: a90e 853b e5bc 823d bd4a b13c a042 4ebb
00000340: ca53 4c3c cd07 7b3d be0d 663d bb5a edbc
00000350: d9a1 ad3c 3394 1ebd 4651 b93c 804e 50bc
00000360: 54bc 5b3d bc70 393c a583 02bd 769f cf3b
00000370: 8264 c0bb 1220 02bd 9246 80bc 2f2e 90bd
00000380: 51ee f8bc e166 dcbc fc0a ed3c 731b 133d
00000390: 6058 b3b9 0be4 c53a 60bc 2c3b 0532 873a
000003a0: fece 333d 8001 afbc a96e 3f3d ca5b 06bc
000003b0: 5f21 1435 f859 973a 3c9b 24bd dbec 053d
000003c0: f102 003d d501 403d a113 18bd 4844 263d
000003d0: 60ff b1bc 5f8a 48bd 516c f3bc fcc0 babc
000003e0: 6d0d 49bd e348 aabc ffe0 32bd 95b5 4ebb
000003f0: 3f6d 433c b463 023d ab3f 143d 2ac6 11bd

b_classifier.q.0.weight f4 [128, 384]
-0.012184592 0.06009696 -0.024341993 0.051977474 0.036273126 -0.0135268485 0.037297588 0.022952346
-0.024040382 0.009930429 -0.01053097 -0.020150958 -0.054854058 -0.032153454 0.020838879 0.024540754
0.05286976 0.0010667916 -0.0082871225 -0.04657457 0.042844873 -0.001664465 -0.020990752 -0.012648125
0.049978618 0.03238669 -0.024437618 -0.002189301 -0.00020065779 0.027345134 -0.039093986 0.06179034
0.03685908 -0.0493717 -0.031534657 -0.053068552 0.04416823 0.0060604387 -0.049682118 0.02836141
-0.06902344 -0.0040415213 -0.0073602996 0.045863055 -0.0055142646 -0.0036368293 0.021841273 -0.04937339
-0.023346378 0.026053188 -0.04986702 0.014695221 0.014867371 0.024653655 -0.02457631 -0.06371338
-0.0058984896 -0.034835596 0.009670733 0.049209993 -0.04934554 -0.037568156 0.033244263 -0.021887152
0.051448308 -0.040994704 -0.003180141 -0.0127962455 -0.013129457 0.039114136 0.03751742 0.0005301193
-0.03011615 0.002411912 -0.011472961 0.0017891047 0.019527435 0.0179237 -0.052873813 -0.036635984
0.009547743 -0.026121674 0.025136055 0.025320843 -0.0026235238 -0.009333903 0.0014669112 -0.043301705
-0.02625077 0.017527526 -0.050143827 -0.010272066 -0.012926002 -1.3033954e-05 -0.015729407 0.026145717
-0.0052635698 0.021666408 0.04185032 0.022736136 0.04155801 -0.032471023 0.023321362 -0.009531708
-0.020136869 -0.013810174 -0.05885472 -0.018955357 -0.0029973711 0.035953313 -0.053186335 -0.05901237
0.0065623545 0.026086193 -0.055646874 0.0068856007 0.034065068 0.0074375174 -0.035023026 0.031353135
-0.04226951 -0.025197601 -0.01863824 0.008959271 -0.061695058 0.031443197 -0.015774213 -0.04583499
-0.047436703 -0.040482227 0.061385065 -0.0121797975 -0.043008678 -0.006085135 -0.046797983 -0.056633923
0.045905564 0.0004098416 -0.023261545 -0.049352992 0.010580164 -0.040264543 0.050569594 0.018205801
-0.045122724 0.00901832 -0.007755416 -0.037473552 0.0038559583 -0.052450363 -0.04345886 -0.009078323
0.006827625 -0.009879034 -0.0054109157 -0.05169275 0.028205017 0.041336957 0.011281797 -0.039996587
0.025892429 0.008842793 0.030380033 0.034942426 0.04607608 -0.055769254 -0.030029347 0.037509833
0.03113335 0.029310519 -0.02400571 0.025797429 -0.027722005 -0.013055723 -0.007908364 -0.034112606
-0.026748087 -0.012580093 0.032435507 -0.008035788 0.007805625 -0.049012814 -0.017526587 0.024077935
0.022696963 0.011497326 0.0038362206 0.032228306 0.028862542 -0.04744308 -0.034492977 -0.04049788
0.0335629 0.022799458 -0.013411605 0.036534633 -0.0066267014 -0.03785062 -0.007482599 0.015239794
-0.010032752 -0.023422118 -0.017490411 -0.05981348 -0.026020382 -0.041893546 0.0075575006 -0.028013803
0.055928547 -0.010974908 0.010691498 0.05378004 -0.0010101444 -0.046061326 -0.05757868 0.021473637
0.014771428 0.051203992 0.05917349 0.0077465535 -0.029917931 0.04615885 0.02713038 -0.01743999
0.0063845096 0.05295978 0.00666906 -0.0318354 0.04955627 -0.0310581 -0.015288124 0.018320942
0.043189134 -0.016904723 -0.04386247 0.034808766 -0.03537684 0.052998085 -0.04893534 -0.013534552
-0.044145104 -0.057324756 0.0054798387 -0.010586012 0.01568974 -0.010873496 0.0069218827 -0.018436993
0.016886862 0.014989019 -0.041380778 0.024637105 0.044223282 -0.0037989437 0.04593393 0.00085368153
00000000: e2a1 47bc 3b28 763d dc68 c7bc 55e6 543d
00000010: 2193 143d b79f 5dbc 5bc5 183d 8f06 bc3c
00000020: 56f0 c4bc 3db3 223c 178a 2cbc 9f13 a5bc
00000030: a6ae 60bd 57b3 03bd 4cb6 aa3c b109 c93c
00000040: f68d 583d 96d3 8b3a b6c6 07bc fac4 3ebd
00000050: 1b7e 2f3d 2d2a daba ccf4 abbc 153a 4fbc
00000060: 61b6 4c3d e8a7 043d 6631 c8bc 607a 0fbb
00000070: aa67 52b9 e702 e03c 0421 20bd de17 7d3d
00000080: 8cf9 163d fb39 4abd 7c2a 01bd 695e 59bd
00000090: bfe9 343d a596 c63b 7a7f 4bbd 3056 e83c
000000a0: 295c 8dbd bd6e 84bb ab2e f1bb e6da 3b3d
000000b0: 01b1 b4bb df57 6ebb 78ec b23c c03b 4abd
000000c0: e740 bfbc 7f6d d53c 5c41 4cbd 39c4 703c
000000d0: 4696 733c 76f6 c93c 4254 c9bc 297c 82bd
000000e0: 1e48 c1bb c5af 0ebd fe71 1e3c 6b90 493d
000000f0: 8d1e 4abd 11e1 19bd 232b 083d af4c b3bc
00000100: 76bb 523d 10ea 27bd ea69 50bb 58a7 51bc
00000110: ef1c 57bc 2536 203d deab 193d b4f7 0a3a
00000120: 25b6 f6bc 2b11 1e3b 16f9 3bbc 6480 ea3a
00000130: 00f8 9f3c b9d4 923c 3692 58bd 9d0f 16bd
00000140: 236e 1c3c 1ffd d5bc 21ea cd3c a86d cf3c
00000150: 6def 2bbb 3aed 18bc 5f45 c03a 215d 31bd
00000160: db0b d7bc e395 8f3c 9d63 4dbd 2b4c 28bc
00000170: 95c7 53bc 68ac 5ab7 f5da 80bc 8b2f d63c
00000180: 067a acbb c07d b13c 3e6b 2b3d 2241 ba3c
00000190: bb38 2a3d 5600 05bd 710c bf3c e22a 1cbc
000001a0: 13f6 a4bc 1144 62bc a611 71bd 4448 9bbc
000001b0: 8b6f 44bb c843 133d ead9 59bd f4b6 71bd
000001c0: 0509 d73b b6b2 d53c faed 63bd 9ba0 e13b
000001d0: d087 0b3d 6bb6 f33b 4e74 0fbd 256c 003d
000001e0: cb22 2dbd 336b cebc 39af 98bc e8c9 123c
000001f0: f5b3 7cbd 95ca 003d ec38 81bc 78bd 3bbd
00000200: fd4c 42bd b1d0 25bd e86e 7b3d c68d 47bc
00000210: de29 30bd d065 c7bb 3eaf 3fbd f9f8 67bd
00000220: 7907 3c3d 02e0 d639 ff8e bebc 5d26 4abd
00000230: 6d58 2d3c 6fec 24bd 1022 4f3d 5524 953c
00000240: 9bd2 38bd 93c1 133c 2521 febb de7d 19bd
00000250: 3fb4 7c3b 31d6 56bd eb01 32bd 3fbd 14bc
00000260: 45ba df3b acdb 21bc 0d4e b1bb c7bb 53bd
00000270: 350e e73c f150 293d 49d7 383c 76d3 23bd
00000280: 5c1c d43c 5de1 103c 8cdf f83c ca1f 0f3d
00000290: 46ba 3c3d 4d6e 64bd 1b00 f6bc e9a3 193d
000002a0: 5e0b ff3c 9d1c f03c 9fa7 c4bc 2155 d33c
000002b0: 4219 e3bc ace7 55bc 1592 01bc a9b9 0bbd
000002c0: ce1e dbbc bc1c 4ebc 18db 043d 8aa8 03bc
000002d0: 54c6 ff3b a9c1 48bd eb93 8fbc 173f c53c
000002e0: fbee b93c 485f 3c3c 1a69 7b3b d401 043d
000002f0: 2371 ec3c ad53 42bd 8248 0dbd 1be1 25bd
00000300: 4079 093d eec5 ba3c 59bc 5bbc 57a5 153d
00000310: cd24 d9bb 4009 1bbd 9730 f5bb 54b0 793c
00000320: 6960 24bc bedf bfbc 0d48 8fbc fbfe 74bd
00000330: b228 d5bc 9198 2bbd e9a4 f73b 347d e5bc
00000340: 5515 653d 1ad0 33bc 652b 2f3c 7648 5c3d
00000350: d266 84ba cdaa 3cbd 9fd7 6bbd 7be9 af3c
00000360: dc03 723c 47bb 513d e75f 723d cdd6 fd3b
00000370: 7316 f5bc 1011 3d3d 8840 de3c 4fde 8ebc
00000380: 2635 d13b 5bec 583d 2188 da3b d665 02bd
00000390: 84fb 4a3d 8e6d febc 0a7b 7abc cd15 963c
000003a0: 17e7 303d c67b 8abc 22a9 33bd a393 0e3d
000003b0: 4ee7 10bd 8514 593d 6c70 48bd 07c0 5dbc
000003c0: 7fd1 34bd 5dcd 6abd 3890 b33b f470 2dbc
000003d0: c587 803c bf26 32bc f6d0 e23b 2d09 97bc
000003e0: 5156 8a3c 8194 753c e47e 29bd c1d3 c93c
000003f0: 7923 353d b3f7 78bb 3725 3c3d 99c9 5f3a

b_classifier.q.0.bias f4 [128]
0.008585765 0.04392544 -0.034245208 0.047209237 0.03005275 -0.010295095 0.041487433 -0.00304378
-0.04481153 -0.0352686 -0.026064169 -0.04002208 -0.027527504 0.03373176 -0.022663118 0.034794588
-0.012361422 -0.0004484707 0.019547697 -0.028429944 0.0024686847 0.039121695 0.012662985 0.002347901
0.0018812919 -0.0030371815 0.015146365 0.041538246 0.023385428 -0.030242754 0.033133302 0.04512175
-0.0057153525 0.021866074 0.043391988 0.04672408 0.039546788 0.021200377 -0.03525101 -0.006773317
-0.0396557 0.012874739 0.05400369 0.056680012 -0.012182563 0.061302774 0.010959101 0.041786898
-0.051138043 0.014764215 -0.027381971 0.042310636 -0.03628163 -0.021090316 0.025019702 -0.004446865
-0.04939059 0.051370297 0.027567454 0.051093128 -0.013753104 -0.046181258 -0.029664313 -0.0024254776
-0.018898595 0.0048616985 0.054005187 -0.014453954 -0.018511577 0.011601209 -0.02890346 -0.038587812
0.029144175 0.03527082 -0.035757158 0.050643977 -0.011992126 -0.021570232 0.042223077 0.057421897
0.024772754 -0.031990558 -0.009295532 0.03678165 -0.036083587 -0.025128376 -0.023901725 0.008929035
-0.025866024 0.046191882 0.043564204 0.061540622 0.04082942 0.013184587 0.005900938 0.0153317
-0.004182396 -0.0035577384 0.047740526 0.048776653 -0.030961024 0.017559607 0.020971393 -0.021394534
-0.010862307 0.028243456 -0.032462854 0.009773517 -0.00458923 -0.0221279 -0.010599007 0.024079222
-0.026263883 0.02895397 -0.034945205 -0.032183122 0.047411885 -0.01223516 -0.031705428 0.027122412
-0.012368352 -0.013292575 0.021004232 -0.007461173 -0.0066682957 0.06390841 -0.030476525 0.010402782
00000000: 4fab 0c3c 2aeb 333d b444 0cbd 795e 413d
00000010: 2f31 f63c c2ac 28bc baee 293d 287a 47bb
00000020: 4b8c 37bd cf75 10bd 8684 d5bc 31ee 23bd
00000030: 5c81 e1bc 502a 0a3d 01a8 b9bc c584 0e3d
00000040: 9087 4abc b820 ebb9 7e22 a03c eae5 e8bc
00000050: a8c9 213b 123e 203d 6978 4f3c 3edf 193b
00000060: ae95 f63a 730b 47bb 7628 783c 0224 2a3d
00000070: cc92 bf3c a7bf f7bc c9b6 073d 96d1 383d
00000080: da47 bbbb 7b20 b33c ccbb 313d c061 3f3d
00000090: d0fb 213d 6aac ad3c 5d63 10bd b4f2 ddbb
000000a0: 046e 22bd 92f0 523c f932 5d3d 4d29 683d
000000b0: 5f99 47bc 9e18 7b3d cd8d 333c bd28 2b3d
000000c0: 2076 51bd 9be5 713c 2850 e0bc eb4d 2d3d
000000d0: 0c9c 14bd 99c5 acbc 1ef6 cc3c 02b7 91bb
000000e0: ca4d 4abd a969 523d 24d5 e13c 0747 513d
000000f0: b354 61bc 8f28 3dbd 9302 f3bc c3f4 1ebb
00000100: 3ad1 9abc e24e 9f3b 8b34 5d3d 47d0 6cbc
00000110: 97a5 97bc ff12 3e3c f3c6 ecbc 410e 1ebd
00000120: c4bf ee3c 2378 103d 1976 12bd 0f70 4f3d
00000130: 9f7a 44bc 0eb4 b0bc 1bf2 2c3d 3933 6b3d
00000140: 3bf0 ca3c 8808 03bd 494c 18bc 5ba8 163d
00000150: 62cc 13bd 06da cdbc 8dcd c3bc 164b 123c
00000160: fce4 d3bc b333 3d3d 6170 323d 0512 7c3d
00000170: c03c 273d 2a04 583c a85c c13b d031 7b3c
00000180: 7b0c 89bb f228 69bb 928b 433d 07ca 473d
00000190: f9a1 fdbc 2ad9 8f3c 33cc ab3c 9743 afbc
000001a0: d1f7 31bc d25e e73c c5f7 04bd 1a21 203c
000001b0: 4061 96bb 9245 b5bc 75a7 2dbc ca41 c53c
000001c0: 5b27 d7bc e030 ed3c b422 0fbd 73d2 03bd
000001d0: f732 423d fb75 48bc 8ddd 01bd d22f de3c
000001e0: a1a4 4abc 1ac9 59bc 1111 ac3c db7c f4bb
000001f0: b881 dabb 6ae2 823d e8a9 f9bc 6e70 2a3c

b_classifier.q.2.weight f4 [128, 128]
-0.10323046 0.06981909 -0.10433144 0.06909417 -0.08808 0.083592616 -0.043606263 0.012701694
0.075859606 0.040786803 0.014542494 0.06597881 0.0072205616 -0.0977267 -0.05840085 0.048577923
-0.08957068 -0.019545985 0.05053701 0.0013867675 -0.020986903 0.0013268433 0.06432118 0.031145027
-0.054039076 0.06158388 0.03358755 0.016726816 0.055902302 -0.016961882 -0.017789317 0.052347485
-0.0020541928 0.021949604 -0.07755219 0.053291693 -0.041087456 -0.026663726 0.065436795 -0.061141964
0.005230461 -0.019115608 -0.034210395 0.052715544 0.010102987 -0.10247039 0.021798301 -0.07210744
-0.062390428 -0.07259245 0.057847455 -0.015242462 -0.00065249694 0.049384065 -0.05073766 -0.030629212
0.037616245 0.04084947 -0.03539642 -0.073892705 0.08695816 0.066228114 -0.048005026 0.013785028
-0.062136 -0.02987926 -0.016636627 -0.040101495 0.02024972 -0.049379215 -0.09295111 -0.040279277
-0.022726173 -0.09247493 0.05299649 -0.029366184 -0.06458901 0.010964101 -0.038915344 -0.052317582
0.0018407715 0.007872348 0.0640392 -0.029063592 -0.07112426 0.06578159 0.0813623 -0.005572105
0.024066105 0.07094083 -0.07479795 0.06490662 -0.06295669 0.04051006 -0.096895754 0.042291746
-0.07180022 0.04013748 -0.058251914 0.025175339 -0.08110684 -0.017353777 0.04630411 -0.024084961
-0.047532678 -0.022627402 -0.017901681 0.034660764 0.06162935 -0.037183076 -0.005687986 -0.06939777
0.016247688 -0.012017585 -0.031701934 -0.07878683 0.045651913 0.016837765 0.011639989 -0.02138278
0.00031465053 -0.09735193 0.066039786 0.0634344 0.0073593636 -0.10084109 0.050410092 -0.030144766
-0.05514186 -0.02463877 0.002995835 -0.024755307 -0.0049086735 -0.003820287 -0.040944926 -0.09874894
0.047315795 -0.010511818 -0.024251066 -0.0442922 0.017179731 -0.016578015 0.05370668 0.058661606
-0.00546105 -0.013348762 -0.011345868 0.015186641 -0.04975301 -0.0087563945 -0.054085877 -0.030686537
0.04784691 -0.008554127 0.0345839 -0.017141482 -0.026666153 0.007343868 0.07344713 0.039558135
-0.0310708 -0.066034794 -0.020003453 -0.03186081 -0.05083493 -0.02784884 0.023253089 0.0046722065
0.052461907 0.041204717 -0.030030973 0.022509465 -0.09700902 0.042763803 0.019893698 0.044171974
-0.058444392 -0.049326383 -0.081778385 -0.01729568 -0.02459869 -0.0386428 -0.010171534 -0.0039491393
-0.032339003 -0.08193733 -0.06530488 -0.04488749 0.019068375 -0.06579012 0.0660742 0.041224156
-0.06935707 0.011905976 -0.0034320103 -0.079680905 0.042903263 0.05951396 -0.022740278 0.026718296
0.03866999 0.057814766 0.035024878 0.030314758 0.013581684 -0.07764422 0.059946816 -0.03255663
-0.014068244 -0.012632756 -0.0028407227 0.057330377 0.06975286 0.0047460264 0.066680625 0.020924462
-0.057713233 0.07054335 -0.08181839 0.021361006 -0.050768077 -0.06755085 -0.057327516 0.02234605
0.022624472 -0.093076356 -0.051335514 0.050535206 0.017146194 -0.101181805 0.06780768 -0.05032989
-0.022957565 0.044831455 0.07322525 -0.09056139 0.06311345 -0.024977274 -0.020709518 -0.023520326
-0.015050192 -0.0621171 0.000818455 0.00108855 0.034544967 0.0065705967 -0.07201252 0.0042076604
-0.0626635 0.06678402 -0.05330984 0.04411283 -0.06020831 -0.10786708 -0.00553867 0.057473704
00000000: 7e6a d3bd 50fd 8e3d b9ab d5bd 3f81 8d3d
00000010: 4963 b4bd 9b32 ab3d 7b9c 32bd c41a 503c
00000020: 485c 9b3d 1010 273d a443 6e3c e61f 873d
00000030: 769a ec3b f024 c8bd bb35 6fbd a5f9 463d
00000040: d570 b7bd e71e a0bc e5ff 4e3d 32c4 b53a
00000050: baec abbc 79e9 ad3a d3ba 833d db23 ff3c
00000060: 1458 5dbd 613f 7c3d 1993 093d ad06 893c
00000070: d0f9 643d a5f3 8abc e7ba 91bc 516a 563d
00000080: a39f 06bb a8cf b33c afd3 9ebd 6448 5a3d
00000090: 524b 28bd e36d dabc ba03 863d ff6f 7abd
000000a0: 4964 ab3b 5698 9cbc 3320 0cbd 41ec 573d
000000b0: 0087 253c ffdb d1bd 5a92 b23c 11ad 93bd
000000c0: 1b8d 7fbd 5aab 94bd 74f1 6c3d 85bb 79bc
000000d0: 540c 2bba f246 4a3d 4bd2 4fbd 1dea fabc
000000e0: 7e13 1a3d c651 273d d6fb 10bd 0f55 97bd
000000f0: 1f17 b23d 9ba2 873d eba0 44bd 99da 613c
00000100: 5182 7ebd 5ac5 f4bc 8949 88bc 7741 24bd
00000110: bee2 a53c dc41 4abd 275d bebd e2fb 24bd
00000120: 3d2c babc 7f63 bdbd d912 593d 5a91 f0bc
00000130: 3e47 84bd c6a2 333c b265 1fbd f64a 56bd
00000140: 0b46 f13a 05fb 003c fc26 833d c516 eebc
00000150: 99a9 91bd 80b8 863d 47a1 a63d 3496 b6bb
00000160: 4826 c53c 6d49 913d ab2f 99bd c3ed 843d
00000170: 70ef 80bd e0ed 253d 4871 c6bd 1c3a 2d3d
00000180: fe0b 93bd 3367 243d 8f99 6ebd 833c ce3c
00000190: 581b a6bd 8229 8ebc 61a9 3d3d d34d c5bc
000001a0: a0b1 42bd 1a5d b9bc 8ca6 92bc 72f8 0d3d
000001b0: 0f6f 7c3d 484d 18bd 4962 babb 6b20 8ebd
000001c0: df19 853c 68e5 44bc e3d9 01bd fd5a a1bd
000001d0: 80fd 3a3d 5aef 893c a7b5 3e3c f12a afbc
000001e0: aef7 a439 7360 c7bd de3f 873d e5e9 813d
000001f0: d126 f13b c685 cebd d07a 4e3d 28f2 f6bc
00000200: 6edc 61bd 3fd7 c9bc c555 443b a4cb cabc
00000210: f0d8 a0bb c85d 7abb deb5 27bd e23c cabd
00000220: 35ce 413d c339 2cbc 2caa c6bc bd6b 35bd
00000230: 82bc 8c3c 9ece 87bc 89fb 5b3d 2747 703d
00000240: 9cf2 b2bb c4b4 5abc 05e4 39bc 64d1 783c
00000250: d0c9 4bbd fb76 0fbc 2789 5dbd 5562 fbbc
00000260: 1ffb 433d 9c26 0cbc d9a7 0d3d 4b6c 8cbc
00000270: fa72 dabc d4a4 f03b 736b 963d b607 223d
00000280: 3188 febc 403d 87bd 48de a3bc 7b80 02bd
00000290: 4a38 50bd 4023 e4bc 437d be3c 4f19 993b
000002a0: 4ce2 563d 47c6 283d 8403 f6bc c565 b83c
000002b0: aaac c6bd 1929 2f3d 1cf8 a23c aced 343d
000002c0: 6363 6fbd 760a 4abd 6d7b a7bd abaf 8dbc
000002d0: 3183 c9bc ea47 1ebd 81a6 26bc c867 81bb
000002e0: e775 04bd c2ce a7bd 91be 85bd f2db 37bd
000002f0: 4835 9c3c f8bc 86bd e951 873d a9da 283d
00000300: 140b 8ebd 4811 433c 94eb 60bb be2f a3bd
00000310: 55bb 2f3d e9c4 733d d249 babc 54e0 da3c
00000320: 6c64 1e3d 2dcf 6c3d 3f76 0f3d a856 f83c
00000330: b685 5e3c ef03 9fbd cb8a 753d 1a5a 05bd
00000340: 7e7e 66bc 9ef9 4ebc 6b2b 3abb 42d3 6a3d
00000350: 96da 8e3d 8e84 9b3b da8f 883d c769 ab3c
00000360: b664 6cbd 0879 903d 6690 a7bd 47fd ae3c
00000370: 30f2 4fbd 1a58 8abd 42d0 6abd 100f b73c
00000380: f556 b93c d19e bebd 3045 52bd 01fe 4e3d
00000390: 2d76 8c3c 6838 cfbd c1de 8a3d b726 4ebd
000003a0: 8111 bcbc 30a1 373d 1ff7 953d 4078 b9bd
000003b0: a041 813d 249d ccbc 02a7 a9bc b3ad c0bc
000003c0: 1595 76bc 806e 7ebd 968d 563a adad 8e3a
000003d0: 067f 0d3d 294e d73b 4d7b 93bd 6ae0 893b
000003e0: b955 80bd 0fc6 883d 6b5b 5abd a8af 343d
000003f0: fd9c 76bd 6ae9 dcbd bb7d b5bb 8c69 6b3d

b_classifier.q.2.bias f4 [128]
0.04004563 -0.023905557 0.066923045 -0.022526935 0.0072453595 0.051804695 -0.029838746 -0.043931667
-0.07364281 0.07274015 -0.07277162 0.07059225 -0.05274472 -0.013405092 -0.09255081 -0.070086405
-0.033025555 -0.0053352765 -0.035045817 0.08730755 0.050087634 -0.030822566 -0.016227255 0.09526319
0.003168647 -0.022920245 0.020079864 -0.030885799 0.013739912 -0.056261197 0.027258862 0.07606632
-0.04573563 -0.029488783 -0.029165141 0.0020851644 0.021115143 0.075999476 -0.0103304405 -0.071369834
0.04438499 0.027001064 0.06878191 0.07026614 0.0859064 0.076284155 -0.001887739 0.05277695
0.033341628 0.019145023 0.091696195 0.06100814 0.08640154 0.0695399 0.045434408 -0.07279388
0.088228054 -0.09911366 0.0025280276 0.04595217 0.037229385 0.00083676295 0.062492963 0.02522898
0.079580754 0.023186935 0.07848549 0.09761851 -0.08152214 -0.08224192 -0.06634196 0.09560537
0.047748644 -0.00294455 0.07814504 -0.0026681963 0.021519218 -0.08731118 0.034067143 -0.06524658
-0.004519711 0.010030636 0.050350193 -0.052994654 -0.02169188 -0.048592318 -0.037756175 -0.079840556
-0.08336071 -0.019057637 0.04030047 0.07694454 0.059411135 0.005704834 0.056526728 0.013631803
0.04358166 0.08827074 0.02226286 0.07515698 -0.04895053 -0.06981612 -0.07084881 -0.0012320589
0.045159865 -0.06360869 0.032205835 0.028133512 0.06656118 0.10233245 -0.025409466 -0.09085953
-0.054288648 -0.0933096 -0.011720673 -0.015077882 -0.07404949 0.045802828 -0.05473542 0.036295626
-0.07419028 0.0953072 0.046633475 0.036085416 0.050926533 0.008277027 0.03327996 0.09941669
00000000: e306 243d 96d5 c3bc f30e 893d 688a b8bc
00000010: 7b6a ed3b 2931 543d 6370 f4bc b1f1 33bd
00000020: 0bd2 96bd caf8 943d 4909 95bd ab92 903d
00000030: d90a 58bd 08a1 5bbc 478b bdbd 7689 8fbd
00000040: ce45 07bd 8bd3 aebb 348c 0fbd 4dce b23d
00000050: b128 4d3d 9b7f fcbc 05ef 84bc 5919 c33d
00000060: 13a9 4f3b 3dc3 bbbc 877e a43c 3704 fdbc
00000070: 5e1d 613c 2472 66bd fa4d df3c a9c8 9b3d
00000080: 4955 3bbd 7692 f1bc bceb eebc 41a7 083b
00000090: aaf9 ac3c 9da5 9b3d 0241 29bc 592a 92bd
000000a0: 09cd 353d 5631 dd3c 88dd 8c3d b2e7 8f3d
000000b0: b2ef af3d de3a 9c3d 036e f7ba a52c 583d
000000c0: 3b91 083d 06d6 9c3c 37cb bb3d ace3 793d
000000d0: 4af3 b03d ef6a 8e3d 6e19 3a3d f514 95bd
000000e0: e9b0 b43d 1afc cabd 44ad 253b 5838 3c3d
000000f0: d77d 183d 365a 5b3a 9ff8 7f3d 02ad ce3c
00000100: 3cfb a23d 87f2 bd3c 00bd a03d 37ec c73d
00000110: 14f5 a6bd 746e a8bd 4bde 87bd c0cc c33d
00000120: 1594 433d 5af9 40bb 820a a03d e8dc 2ebb
00000130: 1249 b03c 34d0 b2bd fd89 0b3d 00a0 85bd
00000140: 151a 94bb 8957 243c 013c 4e3d ec10 59bd
00000150: 2bb3 b1bc bd08 47bd 38a6 1abd 7283 a3bd
00000160: 05b9 aabd c31e 9cbc 1b12 253d 1995 9d3d
00000170: 1759 733d 9eef ba3b 9288 673d ed57 5f3c
00000180: af82 323d 4ac7 b43d 9a60 b63c e7eb 993d
00000190: 5a80 48bd c1fb 8ebd 2e19 91bd 097d a1ba
000001a0: 8df9 383d 4645 82bd 44ea 033d 4078 e63c
000001b0: 3a51 883d ad93 d13d 8327 d0bc 9014 babd
000001c0: c65d 5ebd 1b19 bfbd 1108 40bc 3909 77bc
000001d0: 42a7 97bd bf9b 3b3d 3f32 60bd b9aa 143d
000001e0: 13f1 97bd 6c30 c33d be02 3f3d 4dce 133d
000001f0: 5798 503d 5e9c 073c 9150 083d fa9a cb3d

b_classifier.fcc.weight f4 [1, 1, 384]
0.037225198 -0.0005270795 0.05272218 0.041644413 0.027065475 -0.053459793 -0.046630107 0.04165731
-0.01951706 -0.013651231 0.032261744 0.04506443 -0.016645165 -0.0036232192 -0.06679563 0.0694647
0.0025764997 0.033133682 0.011130017 0.041434865 0.074542746 -0.019215025 0.02693844 -0.03626918
-0.06740527 -0.06317932 0.024305182 -0.017980915 -0.0150495265 -0.041748624 0.010025131 -0.021936785
-0.031185256 -0.024705809 -0.0372471 0.03988828 0.024841351 0.030611081 0.029427988 0.031979717
0.0071165627 0.025783366 0.040780794 0.0642076 -0.018617436 -0.016576508 0.011409254 -0.025673207
-0.072546236 -0.054927286 0.060273625 0.030223724 0.00051298796 0.013314254 0.039289977 0.037121676
0.023218736 -0.020368496 0.006027151 0.0007180829 0.05182514 0.031215115 0.023692114 0.034160417
0.020448057 0.020087216 0.017072886 -0.04977026 -0.032528896 -0.015686672 -0.035764333 0.05685528
0.058477174 0.021849725 -0.017727911 -0.02901731 -0.0649403 -0.012201646 0.035958186 -0.019437522
0.0017360883 -0.04844874 -0.00781612 -0.047719784 0.008277508 0.009433417 0.011489873 0.024215434
0.047545377 -0.005716023 0.04135823 -0.0323426 -0.023795769 -0.018298198 -0.044206835 0.0016124676
-0.030948851 0.013005366 -0.010913045 -0.015114901 -0.031802565 -0.054150894 -0.05526781 -0.031985566
0.02229696 0.0665039 0.011021412 0.031813625 -0.06839245 -0.015665859 0.07431072 -0.029684147
-0.0058861817 0.026061263 -0.011654342 -0.007930647 0.02951924 -0.011853443 0.014404954 0.02442634
0.02253056 -0.024862075 0.019654239 0.020904912 0.025483314 0.028856803 0.0274194 -0.029398637
0.040878695 0.04386763 -0.028678432 0.0036337574 0.0015853255 0.0617612 -0.0616594 0.06479884
-0.05023565 -0.025413336 0.039635725 0.038496375 -0.031366047 -0.009086701 -0.022606354 0.026791204
0.02105941 0.013717101 0.015587351 0.00054900843 -0.028517826 -0.025140923 -0.062139302 0.04230345
0.013670764 0.05040675 -0.026945157 -0.035610557 0.0053786994 -0.033326652 0.016227536 -0.052151244
0.054898385 0.066709116 -0.053103637 -0.008165588 -0.026044443 0.059087474 0.06162907 -0.07338847
0.032538816 -0.041838657 -0.008001205 0.0075870273 0.011651943 0.01857023 0.05442597 -0.030686378
-0.032276116 0.0066921725 -0.028616374 0.053304926 -0.0038083275 -0.0626411 -0.04580462 -0.014177501
-0.0006581935 0.04897367 0.007952195 -0.06224581 0.03565203 0.05714091 -0.047226354 0.03164291
-0.037942853 -0.014492827 0.02827371 0.04046549 0.013411854 0.046614427 0.009706933 -0.01115174
0.008572517 0.034111205 0.07024233 0.007992793 -0.06023988 0.073018685 0.040516384 -0.0597726
0.04140509 -0.022826312 0.05631622 0.0070629707 0.022654848 0.0018438697 0.021455914 -0.049130324
0.052302714 -0.01563047 -0.033197775 -0.01960939 0.04063676 0.013082828 -0.055306856 -0.06526487
-0.0060586734 -0.07217258 -0.019860182 0.0023689303 -0.002129644 0.009724648 0.0013026965 -0.02760733
-0.010777121 -0.028207876 -0.027281726 0.02111964 -0.020791978 -0.06135934 0.032414123 -0.009276441
0.0663112 0.018041542 0.040194232 0.026315639 -0.02248865 -0.042810854 0.00802498 -0.001087688
-0.07266879 0.04156277 -0.07172267 -0.03738023 -0.01685249 -0.022577034 -0.059030037 0.041382648
00000000: 7379 183d b52b 0aba 36f3 573d 5593 2a3d
00000010: 6ab8 dd3c a8f8 5abd 36ff 3ebd dba0 2a3d
00000020: 3ee2 9fbc 6aa9 5fbc e424 043d 7b95 383d
00000030: 715b 88bc 8873 6dbb 26cc 88bd 8243 8e3d
00000040: 7eda 283b 2fb7 073d ad5a 363c 9bb7 293d
00000050: dea9 983d d468 9dbc 01ae dc3c fe8e 14bd
00000060: c60b 8abd 2964 81bd a91b c73c b64c 93bc
00000070: 4a92 76bc 9b00 2bbd 7240 243c c6b4 b3bc
00000080: 3978 ffbc d663 cabc 6a90 18bd e561 233d
00000090: 1780 cb3c 17c4 fa3c f712 f13c 2afd 023d
000000a0: 0e32 e93b a337 d33c c309 273d 467f 833d
000000b0: 9883 98bc 75cb 87bc e1ed 3a3c 9e50 d2bc
000000c0: 1f93 94bd 6ffb 60bd 7ae1 763d be97 f73c
000000d0: 0a7a 063a 0724 5a3c 87ee 203d e60c 183d
000000e0: 3835 be3c d5db a6bc 687f c53b ba3d 3c3a
000000f0: 9946 543d d7b6 ff3c f715 c23c cbeb 0b3d
00000100: af82 a73c f28d a43c 70dc 8b3c e6db 4bbd
00000110: 053d 05bd 5681 80bc 9f7d 12bd 15e1 683d
00000120: c385 6f3d 32fe b23c 203a 91bc b6b5 edbc
00000130: 6cff 84bd 6ae9 47bc e448 133d 703b 9fbc
00000140: 758d e33a 3072 46bd 2f0f 00bc d275 43bd
00000150: 639e 073c 9e8e 1a3c 0540 3c3c 725f c63c
00000160: f1be 423d 7a4d bbbb 3f67 293d ad79 04bd
00000170: 58ef c2bc 1ae6 95bc 3a12 35bd 6f59 d33a
00000180: 7288 fdbc 7514 553c a1cc 32bc 7da4 77bc
00000190: 6843 02bd 54cd 5dbd 8060 62bd 4c03 03bd
000001a0: 1da8 b63c 3233 883d 2793 343c 014f 023d
000001b0: 5711 8cbd b055 80bc 3830 983d 2b2c f3bc
000001c0: dfe0 c0bb 6e7e d53c daf1 3ebc 8bef 01bc
000001d0: 55d2 f13c f234 42bc c202 6c3c bf19 c83c
000001e0: 0292 b83c 8dab cbbc ed01 a13c c740 ab3c
000001f0: 62c2 d03c 1a65 ec3c a69e e03c 69d5 f0bc
00000200: 6b70 273d 8bae 333d 08ef eabc 5524 6e3b
00000210: b2ca cf3a 50f9 7c3d 918e 7cbd 41b5 843d
00000220: e6c3 4dbd a12f d0bc 1259 223d 60ae 1d3d
00000230: af79 00bd 63e0 14bc f630 b9bc 3a79 db3c
00000240: c984 ac3c b1bd 603c 1762 7f3c 55eb 0f3a
00000250: 379e e9bc 56f4 cdbc c885 7ebd 6246 2d3d
00000260: 57fb 5f3c 4f77 4e3d 17bc dcbc 60dc 11bd
00000270: cd3f b03b 8781 08bd 9cef 843c 8b9c 55bd
00000280: 21dd 603d ca9e 883d 3383 59bd f5c8 05bc
00000290: 285b d5bc b505 723d c46e 7c3d b24c 96bd
000002a0: 6c47 053d 035f 2bbd 7c17 03bc 999c f83b
000002b0: cbe7 3e3c 9820 983c c4ed 5e3d 0062 fbbc
000002c0: f633 04bd 034a db3b e36c eabc 4456 5a3d
000002d0: 2295 79bb fa49 80bd a09d 3bbd c048 68bc
000002e0: 9e8a 2cba 9d98 483d ec49 023c 76f5 7ebd
000002f0: dd07 123d 960c 6a3d 6c70 41bd ff9b 013d
00000300: f769 1bbd 5273 6dbc 449e e73c 24bf 253d
00000310: 65bd 5b3c c5ee 3e3d d409 1f3c cab5 36bc
00000320: be73 0c3c 31b8 0b3d 36db 8f3d 34f4 023c
00000330: 18be 76bd d28a 953d 82f4 253d 1dd4 74bd
00000340: 6298 293d 3ffe babc d6ab 663d 7e70 e73b
00000350: a996 b93c 00ae f13a 50c4 af3c e13c 49bd
00000360: 5f3b 563d 790b 80bc 64fa 07bd dfa3 a0bc
00000370: bb72 263d 5c59 563c 7189 62bd 97a9 85bd
00000380: d687 c6bb 38cf 93bd d2b1 a2bc 0e40 1b3b
00000390: 7f91 0bbb 2154 1f3c 3ebf aa3a c428 e2bc
000003a0: 8692 30bc 3414 e7bc ed7d dfbc 1803 ad3c
000003b0: f053 aabc ee53 7bbd acc4 043d 37fc 17bc
000003c0: 2bce 873d dbcb 933c b5a2 243d e593 d73c
000003d0: 1e3a b8bc 6f5a 2fbd 357b 033c c190 8eba
000003e0: 60d3 94bd b93d 2a3d 56e3 92bd 031c 19bd
000003f0: 3c0e 8abc 79f3 b8bc 7bc9 71bd da80 293d
