train/init/384/32.pth (torch, 651007 bytes, 8 tensors)

i_classifier.fc.0.weight f4 [1, 384]
000000 04 1d 60 3d 8a 1f cf bd 9e c3 50 3d b0 0c 80 bc
       0.05471517 -0.101134375 0.050967805 -0.01563105
000010 5b d8 a4 3d 64 29 b9 3c 50 c1 c7 3c 63 88 c8 ba
       0.08049079 0.022602744 0.02438417 -0.0015299435
000020 0e 41 a0 bd 5a da 52 3d 08 3f 29 3d bf ab 2c 3d
       -0.07824908 0.051477768 0.041319877 0.042155977
000030 77 27 01 3d c6 35 98 3a 43 48 a3 bb 00 15 96 3b
       0.031531777 0.0011612705 -0.0049829795 0.00458014
000040 2a d5 84 3d f9 c3 5c 3d 32 8f 68 3d e4 61 bb 3b
       0.0648597 0.05389783 0.056777187 0.0057184566
000050 4f b4 8a 3c a1 4c 11 bd 5a 6e 08 3d 8b 7b 8a 3c
       0.016931681 -0.03547347 0.033308364 0.016904613
000060 c6 93 c7 bb de 7d 5a bc 39 76 58 bc 92 ed 33 bd
       -0.006090614 -0.013335673 -0.01321178 -0.043927737
000070 c1 f9 bc 3c fd ba bb bc 50 1b 5d 3d 8a 56 74 bc
       0.02306831 -0.022916311 0.053981125 -0.014913211
000080 ee 98 6e 3d 30 17 df ba 44 42 07 3d bf bf 5c bc
       0.058251314 -0.001702046 0.03302218 -0.01347345
000090 d6 60 b2 bc 3e 90 6a 3d 18 0d eb 3b f8 c2 d7 bc
       -0.02177469 0.057266466 0.0071731918 -0.026338086
0000a0 24 76 01 3c 5e 7e 6b 3d ff 40 56 3d 3b 70 76 3c
       0.007901702 0.05749356 0.05230808 0.015041406
0000b0 4e 09 38 bd c7 4d 02 bc f5 fb 0d bc 1d be 68 3d
       -0.04493075 -0.007953114 -0.008666028 0.05682193
0000c0 df 7c 45 bd b2 57 a0 bd 4a ff c6 3d 8a 90 a8 3b
       -0.04821479 -0.078292266 0.09716661 0.0051441835
0000d0 a0 8b 32 3d 86 e2 2e 3d 35 ab 48 3c e7 dd 3d bd
       0.043590188 0.0426965 0.01224785 -0.0463542
0000e0 0a 6b fd 3c 20 92 c2 3b 61 65 7f bc 65 79 d2 3c
       0.03093483 0.0059378296 -0.015588135 0.025692651
0000f0 d2 f7 13 3d f8 26 c2 3c d7 23 ba bb fb 65 91 3d
       0.03612501 0.023700222 -0.005680542 0.07099529
000100 cb 0a 1d 3d 9d e8 c7 bc 42 ea 70 bc 6f 89 bf bb
       0.03834037 -0.02440291 -0.014704289 -0.005845241
000110 2b 07 9d bc 6c 15 93 3c 06 ea 4a bd e2 ac 89 3b
       -0.019168457 0.01795455 -0.04953959 0.0042015174
000120 c1 9b 37 3d 6a d4 0a bd 93 4a a4 bc ef db 58 b7
       0.044826273 -0.03389398 -0.020055091 -1.2925811e-05
000130 78 97 d8 3b df 57 e2 3a a3 33 82 3d 49 06 e7 3b
       0.0066098534 0.0017268619 0.06357505 0.00705031
000140 e6 54 ac ba 82 b0 29 bc 91 87 06 3d 81 c0 5b bd
       -0.001314786 -0.010357024 0.03284413 -0.053650383
000150 31 fc 46 3d ad 23 10 bb 91 71 c4 3c c3 4c 60 3c
       0.048580352 -0.002199392 0.023979934 0.013690176
000160 44 bf c6 3d f9 e9 38 bc 46 6e 43 bb 36 4d 3c ba
       0.0970445 -0.011286252 -0.0029820367 -0.0007183136
000170 85 2e 15 bd 12 e7 0d 3d 70 c8 21 3d 41 9e 75 3d
       -0.036421318 0.034644194 0.039497793 0.059965376
000180 6a f7 0f bd 79 0c 80 3c d7 c0 63 bd 0f f1 8c bd
       -0.03514806 0.015630947 -0.05560383 -0.06881916
000190 67 21 62 bc 68 39 83 bd a4 d1 f4 bc 95 86 58 bc
       -0.013801909 -0.06407434 -0.02988512 -0.013215681
0001a0 c2 25 a1 3d aa 34 9d 3c 99 aa 24 3d 1a f8 02 3c
       0.0786853 0.019190151 0.040201757 0.007993722
0001b0 9f 40 8c bc 4b 76 ba 3c 46 27 5a 3d dc 87 8c 3d
       -0.017120657 0.022761485 0.05326011 0.068618506
0001c0 6d d0 27 bd c4 59 5c bb ff cb d0 39 31 06 c5 3d
       -0.040970255 -0.003362284 0.0003982484 0.096203215
0001d0 ab 27 81 3d d3 b5 95 3a a4 b3 38 bb 02 5b 63 3d
       0.06306394 0.0011421986 -0.0028183246 0.055506714
0001e0 8a 73 83 3d 82 60 8d 3d 15 33 77 3d c5 42 71 bb
       0.06418522 0.06903173 0.06035145 -0.003681348
0001f0 b5 7d 70 3d 4e 1d 18 3d 9c a5 b8 bd a2 66 85 3d
       0.058713634 0.037137322 -0.090159625 0.06513716
000200 65 0e 72 3d 52 73 83 3d 61 ca 58 bd a2 69 6c bd
       0.05909576 0.0641848 -0.05292738 -0.057717927
000210 95 59 bb 3b 6d 22 1d 3c c9 19 b0 3a d1 55 5c 3d
       0.005717466 0.009590727 0.0013435419 0.05379278
000220 aa a2 69 bd 3e 80 81 3d ff 95 9a 3d 97 e0 62 3c
       -0.057039894 0.063232884 0.07548141 0.013847492
000230 e1 ab 08 bd ee 24 ae bc c6 9d 20 bd 50 dd 98 3c
       -0.03336704 -0.021257844 -0.039212964 0.018660218
000240 ed c3 27 3c 00 b9 ab bd 91 e3 70 bd ff 4d 1b 3d
       0.010239583 -0.08384895 -0.058810774 0.03791618
000250 d7 53 41 3c ef 38 29 bc 9b c5 a6 bd 73 a0 9f 3b
       0.011799774 -0.010328515 -0.08143159 0.004871422
000260 1c 12 3e 3d f7 1b d6 bc 21 dd 81 bd 29 dd 37 bc
       0.04640399 -0.026136382 -0.06341005 -0.011222162
000270 33 3e c6 bc f3 4d 40 bb b7 24 6b bc 50 4a 38 bd
       -0.02419958 -0.0029343336 -0.014352015 -0.044992745
000280 6c 43 b8 3d ea 2d 8f 3d dd 49 35 bc a4 8c 21 3d
       0.08997235 0.06991179 -0.011064974 0.039440766
000290 c4 56 08 bb 44 90 a9 bc 4d 6c 8b bc 02 74 9b bc
       -0.002080367 -0.020698674 -0.017019415 -0.018976215
0002a0 23 25 d2 3c 7c 4a b2 bb 7a 1d 2c 3a 33 fa 0b b9
       0.025652474 -0.005441008 0.00065656716 -0.0001334928
0002b0 02 36 41 bd fd e9 ab 3c ac 75 a6 3c 7b ec b3 3c
       -0.047170646 0.020985598 0.020319782 0.021963349
0002c0 ac 1b 9a 3b 0f 91 10 bc 0b d8 0a 3b bb 46 7d 3d
       0.004703006 -0.008823647 0.00211859 0.061835032
0002d0 d4 62 1f 3c c0 4e d3 3b 34 be 02 b9 af e9 a5 bc
       0.009728152 0.0064485967 -0.00012468622 -0.02025303
0002e0 55 8a 16 bb 4a 3b 04 3d ba c1 1a 3d e8 38 3b bc
       -0.0022970636 0.032283105 0.03778241 -0.011427142
0002f0 28 5a fe bb fe 21 89 3b 7f 9b 9f 3c 3b 67 c2 3c
       -0.0077622123 0.0041849604 0.019483326 0.023730865
000300 c8 7e b3 bd 68 0a 3f 3d dd 37 3d 3d d7 c1 4b 3d
       -0.08764416 0.046640784 0.046195854 0.049745407
000310 6e 79 85 b9 7b 5a 80 3d 1b 45 2d 3b 3a c4 01 3d
       -0.0002545821 0.06267258 0.0026438895 0.031681277
000320 54 79 1d 3d b7 2f 81 3c 05 10 70 3d 3a bb 44 3d
       0.038445786 0.015769823 0.058609027 0.048030116
000330 11 a9 11 3b 05 d6 ac 3d 43 0c c0 3c 0f 67 c8 bc
       0.0022226016 0.084392585 0.023443347 -0.024463205
000340 c3 ad 77 3c 30 66 92 3d dc ae 90 3d 26 8b df bc
       0.015117112 0.07148397 0.07064602 -0.02728803
000350 bf d9 d9 3c 9a d0 13 bd b4 6a 02 3d 3c 9c 7e bc
       0.026593087 -0.03608761 0.03184004 -0.015540179
000360 7a e6 8c 3d 8a ae a0 3c 11 fa 39 bd 44 05 7d bb
       0.068798974 0.019614477 -0.045404498 -0.0038607875
000370 ef df c4 bb 0f 34 3f bd 4a 95 e8 bc a4 95 93 bd
       -0.0060081403 -0.046680506 -0.0283915 -0.07206276
000380 13 ee 7a bc ed 26 29 bd 3f 65 94 3c 87 fb 30 3d
       -0.01531555 -0.04129689 0.018114684 0.043208625
000390 a1 6e 52 3b 32 a7 4f bb 11 11 b3 3c 3f 34 6d bc
       0.0032109397 -0.003168535 0.021858724 -0.0144777885
0003a0 73 af 3e 3d 0f c7 54 bc f4 11 7c 3d ad 5c 4a 3b
       0.04655404 -0.012986912 0.06154056 0.0030877993
0003b0 52 fb c2 bb fd 4e b7 bb 7b 57 6c bd 27 d5 1b 3d
       -0.00595037 -0.005594133 -0.057700615 0.038045075
0003c0 b0 26 42 3d 8b ff 63 3d 8b a3 14 bd af c8 41 3d
       0.047400177 0.055663627 -0.03628878 0.047310527
0003d0 be 0d e1 bc 6d f0 91 bd 34 bf 5c bc 8c c6 d8 bc
       -0.027472373 -0.07125936 -0.013473321 -0.026461862
0003e0 8e 8e 93 bd 6b 5f ac bc b2 08 5c bd b7 0d 94 3b
       -0.072049245 -0.021041593 -0.05371923 0.0045182365
0003f0 7b 22 a5 3c ef 52 17 3d 5b 48 ff 3c d5 5e ed bc
       0.020158043 0.036944326 0.031162431 -0.028975883

b_classifier.q.0.weight f4 [32, 384]
000000 f1 b9 1b 3d c3 57 3d bd 58 51 4a 3d e1 0a 67 3a
       0.038019124 -0.046226274 0.04939398 0.0008813572
000010 24 d8 f0 bc 05 3f 3b bd 24 08 be bc 6c 71 82 3c
       -0.029399939 -0.045714397 -0.023197241 0.015923224
000020 46 5d 0d 3c d1 4f 0e 3d d6 8a 39 3d 0a 4e a5 bc
       0.008628195 0.034744088 0.04529842 -0.020178813
000030 b3 eb 49 bd d4 55 a5 3c f8 99 a6 ba b3 e6 66 3c
       -0.049297046 0.020182528 -0.0012710681 0.014093089
000040 a4 c8 1b 3d 0c 40 89 b9 44 00 51 3d 90 4f ec 3c
       0.038033143 -0.00026178395 0.051025644 0.028846532
000050 72 e8 47 3d 86 73 94 bc 96 2d eb bb d5 49 20 bd
       0.04880566 -0.018121492 -0.007177065 -0.03913291
000060 95 dc 0b bd 50 88 ea bc b2 f6 aa bc de 52 ef bc
       -0.03414591 -0.028629452 -0.020869587 -0.029214319
000070 1a c9 0b 3c cd cf 2c bb b9 53 d1 3c 27 08 43 bc
       0.008531833 -0.0026368976 0.025552617 -0.011903799
000080 ac 9a 69 bc 36 bd 00 bd 7a bc f3 3c ed aa 4f bc
       -0.014258068 -0.031430446 0.029752959 -0.012675029
000090 60 a1 f2 bc c0 26 2c 3c b8 e3 05 3d 61 8c 15 bb
       -0.029617965 0.010507286 0.032687873 -0.0022819268
0000a0 52 e9 61 3c b9 32 32 3d 6a d1 1c bb 53 90 2d 3d
       0.013788538 0.043505404 -0.0023928531 0.042373966
0000b0 d1 27 0d bb 9f 00 b3 3c f5 54 28 3d c8 c5 62 3c
       -0.0021538625 0.021850882 0.041096646 0.0138411
0000c0 39 57 0c bc 2c f0 7a bc 73 49 77 3c 39 af 18 3d
       -0.008565717 -0.0153160505 0.015093195 0.03727648
0000d0 5f 4a 17 3d d7 5f a1 bc ee 41 a6 bc 2b 24 e4 bc
       0.03693616 -0.01969902 -0.02029511 -0.027849277
0000e0 ba f9 11 bd be 91 3d 3d 3a 58 cf 3c 20 cd ed bb
       -0.03563855 0.04628157 0.025310624 -0.007257119
0000f0 ef 5a 1a bc f7 b2 64 3c 86 89 21 bc 11 0d ae 3c
       -0.009421094 0.013958684 -0.009859448 0.021246465
000100 6f ff cf ba d2 a3 b3 3b b4 1d a8 3c 63 f2 15 3d
       -0.0015868972 0.0054821754 0.020521976 0.03660811
000110 b1 c1 46 3d 88 64 a1 bc 98 a7 07 bd d6 05 21 3c
       0.048524562 -0.019701257 -0.033118814 0.009828052
000120 9a 59 07 3d 3d f1 3a 3d 95 f2 b1 bc 6a 73 df 3c
       0.033044435 0.04564022 -0.021722117 0.027276713
000130 be 58 03 3c b4 c0 ac ba 69 69 0a bd 6a 37 96 bc
       0.008016763 -0.0013179989 -0.033791933 -0.01833697
000140 e3 b6 22 bc fd e7 f9 3c 18 b2 38 bd ae e1 82 bb
       -0.009931299 0.030506128 -0.04509172 -0.0039941883
000150 14 6d 0f 3d e9 f9 84 bc fd e2 95 bc 1a cf 50 bd
       0.035016134 -0.016232448 -0.018296713 -0.050978757
000160 64 d3 0e 3d 4a 01 59 bc e0 84 ac 3c c8 83 1d bc
       0.034869567 -0.013244936 0.021059453 -0.009613939
000170 9e 0d 8e bb 98 2b 2b bd de cd aa 3c 18 ce f5 3c
       -0.0043351194 -0.04178962 0.020850118 0.0300055
000180 88 a3 a7 bc 18 d7 b8 3c 7c 67 94 bc c9 20 62 3c
       -0.02046372 0.022563502 -0.018115751 0.013801762
000190 f6 4b 0f 3d d7 9b 77 3c d3 6a 99 3b 34 92 c5 3c
       0.03498455 0.015112839 0.004681924 0.024117567
0001a0 c7 1c 40 bd 4e d9 10 3d f5 ca 8d 3c 4f 85 fc bc
       -0.046902444 0.035363488 0.017308692 -0.030825285
0001b0 5b 71 c5 bc 0d f6 07 3d f9 1b 14 3c 24 69 a5 3b
       -0.024101904 0.033193637 0.009039872 0.005047934
0001c0 c6 74 2e bd fa d3 59 bc e5 63 5e bb 00 d9 be 3b
       -0.042591833 -0.013295168 -0.0033934053 0.0058242083
0001d0 ac 2d 1c 3d e9 d4 28 3d 4e ff de bb d2 be fb 3c
       0.038129494 0.041218672 -0.006805337 0.030730639
0001e0 67 9e 6e bc 36 9e 2f bd 77 14 7c 3c f7 7b 32 bd
       -0.014564133 -0.04287549 0.015385739 -0.043575253
0001f0 1b b5 ec 3c 41 08 27 3d bf 3d 03 bd 23 36 2d bd
       0.028894952 0.040779356 -0.032041308 -0.042287957
000200 ea da da 3c be f7 a9 3c 95 b8 45 bd a3 7f 19 3c
       0.026715714 0.020748015 -0.048271734 0.00936881
000210 c8 a9 57 3b b6 70 54 3b 77 b8 50 bc 3c 3a 87 3c
       0.0032907594 0.0032415814 -0.012739292 0.01650726
000220 36 03 02 bd 08 ce 8b 3a 17 61 f9 bb ee 24 15 bb
       -0.031741343 0.001066626 -0.007610451 -0.0022757608
000230 b5 11 2e 3d 26 58 97 3c b7 12 07 bd 78 c4 21 bd
       0.042497355 0.01847465 -0.032976832 -0.039494008
000240 4a b4 33 bd de 0e 3c bd 0d 2d c8 bc 38 a5 8f bb
       -0.04387311 -0.045912616 -0.024435544 -0.0043837093
000250 fb 1c 1a 3d e5 ba 17 bd c0 95 01 3d 02 b4 d1 3c
       0.037625294 -0.03704347 0.031636953 0.02559853
000260 9c 1e a5 bb b7 bf 02 3c 0c fa 3b 3d 8a 47 08 bc
       -0.0050390493 0.007980279 0.04589276 -0.0083178375
000270 dd e6 25 bc d6 76 23 bc b6 a5 bc 3b 93 38 66 3c
       -0.010125843 -0.009977063 0.005757059 0.014051574
000280 e8 10 e1 bb 90 30 2e bb cb 16 67 3a 3f 77 72 3b
       -0.0068684705 -0.0026579238 0.0008815347 0.0036997346
000290 52 be a9 bb 48 2a 41 bd 6c a1 56 3d cb 8c 55 bc
       -0.0051801587 -0.047159463 0.052400038 -0.013034056
0002a0 62 9c 24 3d d4 5f 54 bd 8f 57 17 bd 24 43 fc bc
       0.0401882 -0.0518492 -0.036948737 -0.030793734
0002b0 ec 89 39 bd 46 ca fc 3c f7 5e 90 3c 68 e0 f3 b9
       -0.04529755 0.03085817 0.017623408 -0.00046515767
0002c0 b5 3c c0 3b cf 63 98 bc fe b1 4d bd b6 6b 26 bc
       0.005866612 -0.01860228 -0.050218575 -0.010157516
0002d0 4e 98 08 bb 45 1b 20 3d fe 0f cc bb 94 7d 27 3d
       -0.0020842734 0.039088506 -0.0062274924 0.040891245
0002e0 12 df df 3c 23 1d 51 3d 3c ea 60 bc 91 fe 24 3d
       0.027328048 0.051053178 -0.013727721 0.040281836
0002f0 f0 82 11 bd ca 15 1a bd 44 34 cb bc 86 0c d3 bb
       -0.035525262 -0.037618436 -0.024805196 -0.006440702
000300 5f 76 31 bc a4 87 d2 bc b2 aa 10 bd b4 c0 16 3d
       -0.0108314445 -0.025699444 -0.035319038 0.03680487
000310 9b 39 93 bc 97 da c6 bc c9 65 8e 3a ed d3 6c bb
       -0.017971804 -0.024274154 0.0010864075 -0.003613706
000320 0f a3 c2 3b 3c 3d 2e 3d af 57 9a bc 36 c2 f1 3c
       0.0059398483 0.042538866 -0.018840639 0.029511552
000330 0f 81 43 bd 93 e2 81 bc 3a 4b 17 bc 64 e2 96 3c
       -0.0477305 -0.01585511 -0.009234244 0.018418498
000340 34 66 17 3d c1 63 cf bc b8 c7 1f bd c5 0a 3b bc
       0.036962703 -0.025316121 -0.039008826 -0.011416142
000350 d2 40 34 bd 3f 63 ad bc bc 19 5f bc 4d 07 7e bb
       -0.04400713 -0.021165488 -0.013616975 -0.0038761676
000360 68 94 30 bd 1e 95 10 bd 69 09 6a bc 24 d8 db bc
       -0.04311028 -0.03529846 -0.01428447 -0.026836462
000370 57 ce 0c bd b0 22 7c 3c 33 56 02 3d 90 ea 18 bc
       -0.03437647 0.0153891295 0.031820487 -0.009333268
000380 f7 65 fc 3b 6a f4 2e 3d b3 e5 6b 3c af ee 2c 3d
       0.007702585 0.04271356 0.014398026 0.042219814
000390 40 00 c5 3c 70 39 0b 3d 74 b8 91 3c 38 25 ee 3c
       0.02404797 0.033990324 0.01778815 0.029070482
0003a0 2e b3 50 bd a8 70 ef 3b 7e 1a 37 bd a4 97 0f 3d
       -0.05095213 0.007307131 -0.044703 0.035056725
0003b0 20 c6 27 bd 13 e0 c9 3c fe 11 86 bc f1 2e 34 3d
       -0.04096043 0.02464298 -0.016366001 0.04399008
0003c0 e7 5a f6 bc 11 31 0b 3d 2e 16 74 3b 12 af 4d bd
       -0.030072642 0.03398234 0.0037244665 -0.05021579
0003d0 cd 44 db bb 03 13 9b bc ce 93 3b 3d b5 b1 d7 3c
       -0.0066915513 -0.018929964 0.045795254 0.026329855
0003e0 6d 5f 39 bc 6f 34 86 3c b1 0e 07 3d e7 bf ad bc
       -0.011314255 0.016382424 0.032972995 -0.02120967
0003f0 56 9f 69 3c 17 07 37 bd 4d 94 f3 bc b9 8f b2 3c
       0.01425918 -0.044684496 -0.029733801 0.021797048

b_classifier.q.0.bias f4 [32]
000000 32 10 3e 3d 3b 34 95 3b 12 c3 1a 3d 9c 8b a1 bb
       0.046402164 0.0045533455 0.03778369 -0.004929973
000010 0a 6a e3 3c 4f f7 de 3c 3a 60 35 bd 2d f1 6b bc
       0.027760524 0.027217535 -0.044281222 -0.0144007625
000020 6a 09 ae 3c 3f 57 90 3c f7 d7 99 bc c8 7e 1b 3d
       0.021244723 0.017619727 -0.018779738 0.037962705
000030 fc 9d ea ba e9 a0 55 3d d6 d4 60 bc 0b 19 01 bd
       -0.0017899866 0.05215541 -0.013722619 -0.031518023
000040 a6 d6 cf 3b 9b af 35 3d 8c ea 23 bd d7 0d d0 bc
       0.0063427268 0.044356924 -0.040018603 -0.025397224
000050 45 c9 5d bc 6d 0b 74 bc 4f eb 01 3d ea 54 47 3d
       -0.013536756 -0.014895302 0.03171855 0.048664965
000060 a5 66 03 bd 1e 59 27 3b 8c 3f 05 bd 1f 42 08 3d
       -0.03208031 0.0025535296 -0.032531306 0.033266183
000070 40 8c 41 3d 4e 91 f7 3b ca a6 58 bc fb 12 4a bd
       0.047252893 0.0075551635 -0.013223359 -0.049334507

b_classifier.q.2.weight f4 [32, 32]
000000 40 56 a6 3c 26 95 cc 3d b6 09 30 bd ed 06 2c 3e
       0.0203048 0.09989385 -0.04297801 0.16799517
000010 8d d1 fe bd 42 03 42 3d 6a 81 1d 3d aa 41 f0 3c
       -0.124423124 0.04736639 0.038453497 0.029328186
000020 ab 2f aa bd 9d 57 07 be 22 e9 dd 3d da 67 9f bd
       -0.08309873 -0.13217016 0.10835482 -0.0778348
000030 0e a5 fa bd a9 0a 1a be 96 a0 ac 3d b7 ee 64 bc
       -0.12238513 -0.15043129 0.08429067 -0.01397293
000040 75 ad 4b 3d 47 c4 2f 3e 9c 92 26 bd dc de 81 3d
       0.04972597 0.17164718 -0.04066716 0.06341335
000050 a6 87 8d 3d 63 6a 77 bd 60 6a 2e 3c 62 30 27 3d
       0.069106385 -0.060404193 0.010645479 0.040817626
000060 76 7c 2b be cd 71 8a 3c 72 6b 0e 3d 15 87 ce 3d
       -0.16746697 0.016899968 0.034770437 0.100843586
000070 8c 29 11 be 67 9f 5e bd f8 b9 2a be 39 c8 83 3c
       -0.14176005 -0.054351237 -0.16672504 0.016086685
000080 f0 c6 20 3e 38 2f 32 bd 2c 90 cb bd 82 f6 df 3b
       0.15700889 -0.043502063 -0.09939608 0.006834806
000090 20 20 03 3e dc eb f8 3d 6a 6a 07 3e 0b 34 e6 ba
       0.12805223 0.121543616 0.13224187 -0.0017563117
0000a0 2b 80 94 3d 9b 7e c8 3d ed bb e8 bd 99 c3 fc 3d
       0.072510086 0.09789773 -0.11363969 0.12341995
0000b0 22 76 29 3d 3e b8 17 be 9b 15 26 3e 9c 9c 98 3d
       0.041372426 -0.14816377 0.1621918 0.07451746
0000c0 93 16 24 3e 07 0f 21 be 1e 1a b0 bc dc c3 8b bb
       0.16024236 -0.15728389 -0.021496829 -0.0042652916
0000d0 d2 eb 7f 3c e7 0c df bd 03 bc 2c be 6d c6 0e be
       0.015620189 -0.10891133 -0.16868596 -0.13942881
0000e0 1a 27 07 3e df b3 b6 bc 58 be 54 3d 13 0e d3 3d
       0.1319851 -0.022302566 0.05193934 0.10305419
0000f0 d4 2c 93 bd ef b3 96 bd d9 c3 f9 bc ef 09 fe bd
       -0.07186285 -0.07358538 -0.030488895 -0.124042384
000100 fb 23 cf 3c aa 78 58 3c ec 9a f3 bd ea 2f cb 3d
       0.025285712 0.013212362 -0.118947834 0.09921248
000110 91 ce b3 3d f9 bf 45 bd 81 78 eb bd e7 7b 0c be
       0.08779634 -0.048278783 -0.11497594 -0.1371914
000120 34 70 96 3d f1 4e 49 bd 95 21 07 3c 00 b6 7a 3d
       0.0734562 -0.04914755 0.008247753 0.061208725
000130 f7 fe aa bc df a5 b5 bc a4 e5 22 3e 76 a8 39 bd
       -0.02087353 -0.02217382 0.15907913 -0.045326672
000140 fd ce 26 be 30 5c 50 bb e2 17 dd 3c f1 20 91 3d
       -0.16289897 -0.003179323 0.026988927 0.07086361
000150 c9 d7 fd 3d b6 b4 b8 3d 5a 2c a6 3d 34 d8 1c be
       0.123946734 0.09018843 0.08113928 -0.1531685
000160 d5 ae 30 be 75 e3 75 3d 1d 43 ce bd b6 5d 1b 3e
       -0.17254193 0.060031373 -0.100713946 0.15172467
000170 f6 c6 25 be ac 0d 05 bd 06 0f 0e 3e c7 b8 72 3d
       -0.16189179 -0.03248374 0.13872918 0.05925825
000180 9a a0 de bd cf eb 22 be 1c fc 7e 3d 19 da 0d 3d
       -0.10870476 -0.15910266 0.06225215 0.034631822
000190 99 37 83 3d 7f 32 05 bc 37 d5 d4 3d 51 6a ba bd
       0.06407089 -0.008129715 0.1039223 -0.091023095
0001a0 0f 2a 9c 3c 82 e0 54 3d 69 45 71 bc 99 58 70 3d
       0.019063024 0.05197192 -0.014726021 0.058678243
0001b0 4c d3 3d 3d 3b e0 2e 3e c9 f7 c1 bd d9 76 1e bd
       0.046344087 0.17077725 -0.094710894 -0.03868756
0001c0 60 f1 02 3e d4 c4 78 bd 23 92 8e bd e3 42 12 bd
       0.1278739 -0.060734585 -0.06961467 -0.03570832
0001d0 f8 59 a0 3d ff 82 2d 3e 50 38 3d bd e6 ac 2a be
       0.0782966 0.16944502 -0.046196282 -0.16667518
0001e0 e5 a8 a4 bd 43 2e 9b 3d f9 5f 29 3d 5f c8 2e 3d
       -0.080400266 0.07577183 0.041351292 0.042671558
0001f0 3c 53 25 be 75 78 6a 3d 1b 9b ff bd 9f 68 2b 3e
       -0.16145033 0.057243783 -0.12480756 0.16739129
000200 c0 71 37 be 7e 53 fc bd c6 63 73 bc 76 f4 30 be
       -0.17914486 -0.12320612 -0.014855331 -0.17280754
000210 b9 92 56 bd 1d 97 1e 3e 92 c7 b2 3d df d7 18 be
       -0.05238602 0.15487333 0.08729471 -0.14926098
000220 87 34 f3 bd 3a 09 58 3d ec 9a 3f bd df ad 3b 3d
       -0.11875253 0.052743174 -0.046778604 0.045820113
000230 8c 93 f7 3c 24 c1 94 3d 6a 3a 1c be b8 5c 20 be
       0.030221723 0.07263401 -0.15256658 -0.1566037
000240 c7 65 13 be da 06 6e 3d 30 ea ab 3d c7 44 8d 3d
       -0.14394294 0.058112003 0.08394277 0.06897884
000250 4e 3e 96 3d e0 7b e5 bd 49 a1 82 ba 15 6b 24 be
       0.073361024 -0.11205268 -0.000996628 -0.16056474
000260 87 23 86 bd 5a 49 2a 3e 75 66 1d 3e 52 a6 34 be
       -0.06549745 0.16629544 0.15371116 -0.17641571
000270 d4 22 ea bb fb 48 f2 bd 94 e9 0e be d4 0c 89 3c
       -0.007145265 -0.11830326 -0.1395629 0.01672975
000280 fd 9b 10 be 8a 02 f7 3d df fe dd 3c ce 29 81 bd
       -0.14122005 0.12061031 0.027099071 -0.06306802
000290 04 48 9a 3c fa b1 bb bd 08 b5 ab 3c 64 d0 28 be
       0.018833168 -0.09164806 0.020960346 -0.16485745
0002a0 9e 7d 0c 3e d1 80 80 3d fd d0 e6 3d c7 71 bd bd
       0.13719794 0.0627457 0.1127033 -0.09250217
0002b0 1d 8e ce bb 7a 35 c1 3d 96 8d 32 bb 02 58 11 3c
       -0.0063035623 0.09434028 -0.0027245036 0.00887108
0002c0 7a 99 77 3d be 47 27 3e 11 de ab bd 31 20 35 3d
       0.0604491 0.16335961 -0.08391965 0.044220153
0002d0 a7 55 17 3e e5 83 e9 bd 75 c8 45 bc 74 2c 0a 3d
       0.14778768 -0.1140211 -0.012071718 0.0337338
0002e0 f3 3a 98 3d 60 93 64 bd 1f 6a 01 3d 23 0c 0c 3e
       0.07433119 -0.05580461 0.031595346 0.13676505
0002f0 21 5b 62 3d 9a aa da 3d 20 88 96 bd 16 d7 e0 3b
       0.05526269 0.10677071 -0.073501825 0.0068615777
000300 43 b9 c1 bd 28 24 da bd 62 72 21 bb 17 8b 9b bc
       -0.09459164 -0.106514275 -0.0024634828 -0.018987222
000310 1d 6c 7e 3d bf db 30 be 71 f7 b5 3d 88 f4 34 3d
       0.062114824 -0.17271326 0.08885086 0.044178516
000320 59 74 19 3e 40 03 39 3d d5 23 0e be 54 f7 f2 3c
       0.1498579 0.045169115 -0.13880856 0.02965895
000330 65 c5 bb bd d8 89 32 be 79 54 bd bc 49 af 04 be
       -0.091685094 -0.17435396 -0.023111569 -0.12957491
000340 87 ab 3c bc 8f af 2a 3e fe 2e 7b 3c 64 87 5c bd
       -0.011515505 0.16668533 0.015331028 -0.053840056
000350 2d 33 76 3d c6 89 28 be cb e5 fc 3d 1a c7 7c bd
       0.0601074 -0.16458806 0.12348517 -0.061713316
000360 2a ea 04 bc f2 bc 06 3d 84 37 a8 3d 24 c6 74 3d
       -0.00811247 0.032895036 0.08213714 0.059759274
000370 1e 03 0a be e1 bf 98 3d be b9 bd 3d 20 bd 8c 3d
       -0.13477752 0.07458473 0.09263943 0.0687201
000380 bc 9e 3d 3c 77 c9 f7 3d 5e d3 13 3e b4 51 24 3e
       0.01157349 0.12098973 0.14436099 0.16046792
000390 b7 fe 74 3d 87 fb 0a be 45 60 e7 3d 0b 4b d8 bd
       0.059813228 -0.13572513 0.11297659 -0.10561188
0003a0 07 4f 01 bd c7 0d e2 bc ca 42 f7 3d df 90 21 3d
       -0.031569507 -0.02759446 0.12073286 0.0394448
0003b0 2c de 8a bd 6d 60 d3 3d 61 9c ad bd 94 2c d6 bd
       -0.06780657 0.10321126 -0.084770925 -0.10457721
0003c0 ce e6 73 bb 14 65 d1 3c e8 fd 1d be 1c 64 0b 3e
       -0.0037216428 0.025560893 -0.15428889 0.13612407
0003d0 3f 62 a1 3d 96 48 5f 3d 4e 59 2b be fc 7f 13 3d
       0.07880067 0.054512583 -0.16733286 0.036010727
0003e0 c1 22 00 3e e9 8a 88 3d b5 4c 01 3c a7 63 9a 3d
       0.12513258 0.0666712 0.007891824 0.075385384
0003f0 8f 45 1c 3e 6b de 8d 3c f8 c6 01 3e 27 2c 20 3e
       0.1526091 0.017317971 0.12673557 0.15641843

b_classifier.q.2.bias f4 [32]
000000 fe 71 c7 3d 93 95 80 bd 4b 51 2e 3e b3 89 a6 bd
       0.09738539 -0.06278529 0.17023198 -0.08131733
000010 5b 98 0d 3e 46 90 36 3e a0 cc ef 3c b8 8a 2e 3e
       0.1382765 0.17828473 0.029272377 0.17045105
000020 55 99 74 3d 48 0b 39 3e 9a 36 25 3e af ba 27 3e
       0.05971654 0.1807071 0.1613411 0.16379808
000030 63 80 fb bd 40 94 30 be 90 bf 97 3d 28 26 f1 bc
       -0.12280347 -0.17244053 0.074095845 -0.02943714
000040 77 dd c4 bb 6f a4 f6 bd 18 71 fe 3d ba 2f c7 3d
       -0.006007846 -0.12043082 0.12423915 0.097259
000050 9c 65 27 3d 45 dc fc 3d 9f 31 95 bd 76 9b 2d 3d
       0.040868387 0.123467006 -0.07284855 0.042384587
000060 7e ef 34 3e 39 ad e2 3d 0a f0 51 bd 99 cf 2b 3e
       0.17669484 0.11068196 -0.05125431 0.16778411
000070 24 ba 14 3e f4 af 06 bd 35 85 80 3d aa 6c 97 3d
       0.14524132 -0.032882646 0.06275407 0.07393773

b_classifier.v.1.weight f4 [384, 384]
000000 da d2 c9 bc cc 40 33 3d b1 13 21 3d d9 37 aa bc
       -0.024636675 0.043762967 0.03932542 -0.020778583
000010 00 2f ad 3c 04 26 a9 bc 92 b4 9c bc 70 46 ec bc
       0.021140575 -0.02064801 -0.019129071 -0.028842181
000020 31 a4 d6 bc 24 bc 95 3c 54 b1 36 3d 32 7c 3b bd
       -0.02620134 0.018278189 0.044602707 -0.04577274
000030 fc 94 0d bd 7f 44 48 3d ae d4 a5 bc a6 e9 4e 3d
       -0.03456591 0.048893448 -0.020243015 0.050515793
000040 34 5a 48 bd 4b 15 d1 bc 1b d2 0f 3c 07 d7 14 3c
       -0.04891415 -0.025522849 0.00877812 0.00908447
000050 87 eb c3 bc 1f ea fd bc 3a c4 81 3c 8d e6 01 bd
       -0.02391602 -0.030995427 0.015840638 -0.03171401
000060 47 53 40 ba 79 bc 4a bc 5c 10 f4 b9 67 9a 42 3d
       -0.0007336628 -0.012374037 -0.00046551495 0.04751053
000070 60 5f b6 bc 3d ab 15 bd 06 b8 1b bd f5 14 af bc
       -0.022262275 -0.03654026 -0.038017295 -0.021372298
000080 83 14 5f bc e4 0f fa bb bf 90 00 3d c2 4a 94 bc
       -0.01361573 -0.007631289 0.03138804 -0.018102054
000090 c6 12 a5 3c 2c 0e 19 3d f0 5e 42 3c 62 11 25 bc
       0.020150553 0.03736703 0.011863455 -0.010074945
0000a0 ae 43 49 bd e1 85 00 3b a4 8b dc 3c 1b 3e bf 3c
       -0.04913681 0.0019611048 0.026922055 0.023345044
0000b0 8d 5a c2 bc a1 e4 03 3d e1 b6 d2 bc 33 18 42 bd
       -0.023724819 0.03220046 -0.02572197 -0.04738636
0000c0 68 27 29 bd 6a a2 b5 bc c0 fb 64 3c e2 5d 7e bb
       -0.041297346 -0.022172172 0.0139760375 -0.0038813283
0000d0 56 f2 d9 3c e4 88 22 bd 9f b0 db bb 53 7e 26 bd
       0.026604813 -0.03968133 -0.0067044045 -0.040647816
0000e0 ef 27 01 3d c5 de 07 bd 60 54 f6 bc 88 c7 14 3d
       0.031532224 -0.033171434 -0.03006953 0.0363231
0000f0 00 00 45 3d 6b 1c b3 bc bf 87 ce bc 1d d5 77 3c
       0.048095703 -0.021864137 -0.025211213 0.015126494
000100 30 98 a2 bc cc 54 9c 3c 42 33 bf 3b 4c fb e7 3b
       -0.01984796 0.019083403 0.005834968 0.0070795175
000110 0e b6 16 bc 3f a4 9e bb df 75 c3 3a f3 d4 b4 3c
       -0.009198679 -0.004841357 0.0014912448 0.022074198
000120 62 8e 34 3d 4e 8c 2d bd c0 bd 2e bd 35 9a f9 3b
       0.0440811 -0.042370133 -0.04266143 0.00761726
000130 a6 c3 4a 3d 1e d5 38 bd 51 0d cb bb 0c ff ca bc
       0.04950299 -0.04512512 -0.006196656 -0.024779819
000140 82 5a 06 bd 51 b1 ae 3c 1a 67 e9 3c 0f c9 59 bc
       -0.03280116 0.021324785 0.028491545 -0.013292565
000150 e8 d3 de 3c 97 25 0f bc 10 f6 b1 3c ff 56 bd 3b
       0.027200654 -0.008736989 0.021723777 0.005778193
000160 f5 83 27 3d a0 9b c8 bc 63 f3 3a 3d b6 b1 1b 3d
       0.04089733 -0.02448827 0.045642268 0.038011275
000170 94 44 1a bc e7 8e 01 3d f6 b4 48 bc f6 f7 4d ba
       -0.009415764 0.031630423 -0.012250176 -0.00078570785
000180 b6 17 a2 3c 42 ca ff bc 6f 20 29 3d 5a 75 3e 3d
       0.019786697 -0.031224374 0.041290697 0.046498634
000190 0c 90 14 3d 0e b1 cb bc eb fd 06 3d 22 ab 37 3c
       0.036270186 -0.0248647 0.032957 0.011210235
0001a0 80 e8 ce ba 71 bb 17 bb e6 9c b0 bc d5 03 0b bd
       -0.0015785843 -0.0023152495 -0.02155919 -0.0339392
0001b0 08 84 0c bd 82 38 80 bc a9 eb a1 3b 19 47 e2 bc
       -0.034305602 -0.015651945 0.004941423 -0.027621793
0001c0 84 23 4a bd 63 2e 15 3d 61 f1 74 3c 68 a5 d6 3b
       -0.049350277 0.03642119 0.014950127 0.0065504797
0001d0 80 42 d7 bc ef 0a ce bc ea b5 36 bd 89 35 d4 3c
       -0.026276827 -0.025151698 -0.04460708 0.025904434
0001e0 a9 32 42 3d 5d b1 5d 3d 0e 39 2c bd 4f 07 9a 3c
       0.047411595 0.054124225 -0.0420466 0.018802313
0001f0 ca 33 16 bd 4f 68 fd bc 3c fc 17 bc c5 e7 58 bd
       -0.036670484 -0.030933527 -0.009276446 -0.052955408
000200 8e 6b 08 bd a6 6f 0f bd 9d 7d 1b bd 83 38 23 bd
       -0.033305697 -0.035018586 -0.03796159 -0.039848816
000210 0d fc 10 bd 4b 01 db bb 06 a6 54 3d a9 a0 d7 3b
       -0.035396624 -0.0066835037 0.051916145 0.0065804315
000220 7d 0b 2c 3d fc 96 3c bd bd 1d 67 3d 4a f4 20 3d
       0.042003144 -0.046042427 0.056424845 0.039295472
000230 a5 c4 65 bd 27 83 af bc 11 48 d4 3c bc a4 05 bd
       -0.056095738 -0.021424843 0.02591327 -0.032627806
000240 97 7d 01 bc 72 9f d3 3b 58 dc 80 3c 9f 19 f1 bb
       -0.007903478 0.0064582163 0.015730068 -0.0073577906
000250 7b 2a e1 3c 4d 83 0e 3c 0e 04 3c bd 11 b7 f4 3c
       0.027486077 0.008698297 -0.045902304 0.02987245
000260 46 7c af 3c 16 3d 71 bc 78 95 49 bd 82 72 40 3c
       0.021421563 -0.014724037 -0.04921481 0.011746051
000270 3f 76 f9 bc 3f 72 96 3c e7 ac c2 3c e0 cc 92 3c
       -0.030451892 0.018365024 0.023764087 0.017919958
000280 d9 1d 00 bd 81 24 f4 3c 64 e3 24 3d 59 19 62 bc
       -0.031278465 0.029802563 0.04025592 -0.013799989
000290 c5 be 89 bd 5f 6d 35 3d d1 2d 0c 3d 6d c8 44 bd
       -0.067258395 0.044293758 0.03422338 -0.048042703
0002a0 d6 b5 6a bc 97 87 08 bd a3 ee 14 bd a7 63 08 bd
       -0.01432558 -0.033332434 -0.036360394 -0.03329816
0002b0 48 89 8f bc aa 6b 70 bb 84 ac 51 3c 5b 59 c3 bc
       -0.017521515 -0.0036685267 0.012797479 -0.023846319
0002c0 07 5a 34 3c 13 af 22 bd 70 0c fc bc 6d 7e 42 bd
       0.011007792 -0.039717745 -0.03076765 -0.04748385
0002d0 f7 82 bf bc a9 94 1f bd d5 d8 99 3c 06 ff 41 bd
       -0.023377879 -0.038960133 0.018780151 -0.04736235
0002e0 33 03 72 bc 64 be c0 3c 59 40 e5 3c c8 0f c7 3c
       -0.014771271 0.023528285 0.027984785 0.024299517
0002f0 31 42 e5 3c 39 d2 d2 bb 62 9a 28 bd ee 86 31 bd
       0.027985664 -0.006433752 -0.041162856 -0.04334157
000300 31 7c 36 bd 56 18 1f 3d e0 bd 5e bd 7c ac 2e bd
       -0.044552032 0.038841568 -0.054380298 -0.042644963
000310 28 0f 2e bb 91 aa 3a 3d 7d d4 e1 bc d4 50 c3 bc
       -0.0026559327 0.04557282 -0.027567143 -0.023842253
000320 79 ea 50 bc 68 18 4b 3d 31 2b 30 bd 78 1f b0 bc
       -0.012751215 0.049583822 -0.04300994 -0.02149938
000330 37 d8 55 bc 87 d8 a5 3c 24 70 c1 bc c0 ee 09 bd
       -0.013052038 0.02024485 -0.023613043 -0.033674955
000340 90 31 36 bc 82 90 21 bd 40 e1 af 3c 6e ca 34 3d
       -0.011120215 -0.039444454 0.021469712 0.044138364
000350 92 53 e2 3c c2 6a 06 3c 8a fd 06 bc c4 47 02 bd
       0.02762774 0.008204164 -0.008239159 -0.031806722
000360 e7 1a d0 3c c0 03 d7 bc ac 76 04 bd 49 f6 46 bc
       0.025403453 -0.026246905 -0.032339737 -0.01214368
000370 11 b0 2c bd e5 b8 20 3d 07 43 37 bb ae 78 a1 3c
       -0.042160098 0.03923883 -0.0027963535 0.019710865
000380 76 d9 b4 3b 3a 8b df ba 24 34 7e bb 1c d4 ee bc
       0.0055190874 -0.0017055043 -0.0038788402 -0.029153876
000390 12 e9 12 bd 22 2d d4 ba af 29 0a 3d f0 bf 8e 3c
       -0.035866804 -0.0016187767 0.03373116 0.017425507
0003a0 0e 9a d5 3b c1 53 74 bc e1 e5 59 bd 5c 5a cf bc
       0.006518609 -0.014912547 -0.053197745 -0.025311641
0003b0 8f ff 66 bc cc 0b 85 bc 4d a7 8c 3c bf 9d 24 3b
       -0.014099016 -0.016240977 0.017169619 0.0025118438
0003c0 ca 4f 59 3b 8b 60 74 bc db 31 1f bd 17 df 14 3b
       0.003315913 -0.014915596 -0.038865905 0.002271598
0003d0 0b 27 ac bc 63 b5 f9 3c 83 7c a4 3c 33 35 cb 3c
       -0.02101471 0.030482 0.020078903 0.02480564
0003e0 83 dc 8d bc c8 a7 f3 bc 49 85 77 bb 89 c5 19 bd
       -0.017317062 -0.02974309 -0.0037768653 -0.0375419
0003f0 5c 79 30 bb f6 f5 2c bd 4b 6c bd bc c1 21 7a bc
       -0.0026927805 -0.042226754 -0.023122927 -0.015266837

b_classifier.v.1.bias f4 [384]
000000 c2 a3 16 bd f7 5c 4d 3d 8f a5 43 bb c7 65 35 3d
       -0.036777265 0.050137486 -0.002985332 0.044286516
000010 8f a7 8c bc 83 77 fe 3c 8a 16 ff bb 9c e4 e4 3c
       -0.017169742 0.031062847 -0.0077846693 0.02794104
000020 19 6c 56 3d 91 1b 3f bc d4 63 2d bc 20 df 16 bd
       0.052349184 -0.011664287 -0.010582883 -0.036833882
000030 3d ac e2 bc ee 2d 1d 3c ef 95 a1 bc 56 2b 79 3b
       -0.02767002 0.00959347 -0.019724814 0.0038020215
000040 f0 32 ae 3b 32 23 0a 3c a7 15 40 bd a6 66 0c 3d
       0.005316131 0.008431243 -0.04689565 0.03427758
000050 3c 56 d7 bb db de 03 3c 5a da 28 bd f9 9a e7 3c
       -0.0065715592 0.008048738 -0.04122386 0.028272139
000060 61 6c 1e bc b3 34 25 bd 0b 79 17 bc 46 83 c3 3b
       -0.009669394 -0.04033346 -0.0092451675 0.0059665767
000070 f5 a1 46 3d b7 37 fd 3c 2b 33 97 bb 31 59 ed 3c
       0.048494298 0.030910356 -0.004614254 0.028973194
000080 2f bc e6 bb d0 d2 40 bd 98 7d d5 3c bc e9 1c bd
       -0.007041476 -0.047076046 0.026060864 -0.038308844
000090 6e 63 46 3d c1 62 ff 39 87 b3 0f bc 0f 81 cb 3b
       0.048434667 0.00048710968 -0.00877083 0.0062104533
0000a0 3f 8f d7 3c 53 df 74 bb f0 cf 33 bc 94 6c b2 3b
       0.026313422 -0.0037364557 -0.010974869 0.0054450724
0000b0 fb 62 e1 bc 23 ba 1d 3d c3 35 11 bd bd 43 cd 3b
       -0.027513018 0.038507592 -0.03545166 0.0062641785
0000c0 9d 93 ec 3b ff a5 32 bd b0 7e 0b bd a8 58 2c 3c
       0.0072197453 -0.043615337 -0.034056365 0.010519184
0000d0 b9 9d d4 bc eb cd 26 3d b5 c1 35 bd 81 55 3d bd
       -0.025954114 0.040723722 -0.044374187 -0.04622412
0000e0 39 42 03 3c cc 39 1f bd 83 35 35 3d 1d 94 8e 3b
       0.008011394 -0.03887348 0.044240486 0.0043511526
0000f0 33 f1 bf bc 8d eb 07 b9 44 8d 23 3d 47 ea ed ad
       -0.023430442 -0.00012962353 0.039929643 -2.704782e-11
000100 e9 43 d7 3c 1d 0c 57 bc 3e 8a 13 3d e7 5d 06 3a
       0.0262775 -0.013125447 0.03602051 0.0005125687
000110 99 ff 3b 3d d9 27 a5 bc ce 92 29 bd 84 fb e9 3c
       0.045898054 -0.020160602 -0.04139977 0.028562315
000120 6b 7d 00 3d e9 d8 38 bd 88 e5 f8 bc a7 2e 73 bc
       0.031369608 -0.045128737 -0.030382887 -0.014842666
000130 7f 5e 42 3c 1b aa 0c 3d 0f 4a 50 3c 1d 22 07 bc
       0.01186335 0.034341913 0.012712969 -0.008247879
000140 60 c1 29 bd 1b bf c9 bc 16 d4 0d 3d e1 66 4c 3d
       -0.041444182 -0.024627259 0.03462609 0.0499028
000150 8c c6 9e 3b 17 88 b8 3c e0 68 a1 3c 9a e3 ca bb
       0.004845446 0.02252583 0.019703329 -0.006191683
000160 91 6c b2 3c 04 0e 9e 3c c5 14 d5 3c 59 d9 35 3d
       0.021780284 0.019293793 0.02601088 0.044396732
000170 50 ff 38 bd b6 f2 35 3d a3 96 32 3c f3 37 35 bd
       -0.04516536 0.04442092 0.010900172 -0.04424281
000180 8d 2a 41 bd 73 5d d6 3b ee cb 5f 3c 44 56 32 bd
       -0.04715972 0.0065419017 0.0136594605 -0.0435393
000190 6a 30 08 3d 04 88 d2 bc 1d a1 6a bc e3 bf f3 3c
       0.033249296 -0.025699623 -0.014320639 0.029754585
0001a0 73 f3 1b 3d 30 0f fa bc b4 29 8d ba ee 60 ea bc
       0.03807397 -0.03052482 -0.0010769875 -0.028610673
0001b0 8a 76 5d 3d c1 fc 15 3d c2 f3 36 bd 34 b8 28 3b
       0.054068126 0.036617998 -0.04466606 0.002574456
0001c0 0f a3 8e 3c 2b c6 0f 3d 06 b6 c7 bc 8c 82 b7 bc
       0.017411737 0.035101097 -0.024378788 -0.022401117
0001d0 a7 85 3b bd 98 a8 4f 3b d0 1e e5 bc 83 56 a4 bc
       -0.045781758 0.0031686183 -0.027968794 -0.020060783
0001e0 e6 a6 fd bc 9a 23 36 bc df e0 21 bd 2d 05 3a 3d
       -0.030963372 -0.0111168865 -0.039521094 0.045415092
0001f0 9c f9 c8 3c 6d 83 04 3d 20 6f 4b 3c 3f b5 59 bc
       0.024533086 0.0323519 0.012416631 -0.013287841
000200 a3 e7 39 3d e2 dc 7b bb e1 31 d5 bc eb 33 24 3c
       0.04538692 -0.0038431217 -0.02602476 0.010022144
000210 da 49 19 3d 6b cc 81 3b b8 d6 8b bc 0b 16 93 3c
       0.037423946 0.003961136 -0.01707016 0.017954847
000220 9c 29 1b 3c 6e 43 c2 bc 87 ac 22 bd 4f 95 39 3d
       0.00947037 -0.023713794 -0.039715316 0.045308407
000230 1f e2 94 3c 1a 83 39 bc 1b 8b 36 3d 24 a2 06 3d
       0.01817423 -0.011322761 0.044566255 0.032869473
000240 61 45 18 bd 0a 6f 8f bc 59 3f 2d bd f7 55 ea bc
       -0.03717554 -0.017509002 -0.04229674 -0.028605444
000250 88 ee 1d 3d 6c d8 bb bb 35 2a 3d bd 1b 3c 47 bd
       0.03855756 -0.0057325866 -0.04618283 -0.048641305
000260 88 a4 61 38 ed 92 3c bd 0d 99 9b 3c 37 f9 4d 3d
       5.3797412e-05 -0.046038557 0.018993879 0.050286498
000270 fc 49 2e bc de d3 42 3d a4 7e ca 3c c1 6e a8 bc
       -0.010637756 0.047565334 0.02471859 -0.020560624
000280 24 57 ad bc 9c 70 46 3d 55 0e 0c bd 79 3a 2a bc
       -0.021159716 0.048447236 -0.034193356 -0.0103899175
000290 db fd 87 3c 24 a3 82 bc 69 43 a7 bb 28 eb 26 3d
       0.01660054 -0.015946932 -0.0051044715 0.040751606
0002a0 57 4c e2 bc fd 0c cc 3c 54 d7 e9 bc 76 f3 e7 bb
       -0.027624292 0.024908537 -0.02854506 -0.0070785834
0002b0 6a f1 f4 3c 5c 73 ab 3c 7e 56 02 3d 36 1f 00 bd
       0.029900271 0.020929031 0.031820767 -0.031279765
0002c0 2e 7d 6c 3c 77 8a a2 3b 7c cd f5 39 b2 74 ca bc
       0.014434142 0.004960354 0.0004688314 -0.024713848
0002d0 38 86 23 bd 89 1a bb b9 60 86 1f 3d 85 97 0b 3d
       -0.039922923 -0.0003568719 0.03894651 0.034080047
0002e0 32 51 ec bb 11 07 38 3d 7b 81 d4 bc 98 34 43 bc
       -0.0072118277 0.044928614 -0.025940647 -0.011914395
0002f0 90 37 b7 bc eb de 6b bc 70 54 42 3b eb 4b ea bb
       -0.022365361 -0.0143964095 0.002965238 -0.0071501634
000300 be 27 70 3c 33 ed 31 bd 54 de 0f bd 2f 73 0b 3d
       0.014657913 -0.0434391 -0.035124138 0.034045395
000310 f6 77 a3 bb c2 ac 50 bd 99 48 34 3d e9 88 2e 3d
       -0.0049886657 -0.050946005 0.044014547 0.042611036
000320 44 6f 28 3d 2c 30 7e 3c 5b 25 35 3d 54 a1 1b 3d
       0.041121736 0.015514415 0.044225078 0.03799565
000330 90 1d 07 bc ee 45 17 3d de 8d 4c bd 0d aa b9 bc
       -0.008246794 0.036931925 -0.049939983 -0.022664094
000340 ab cf 9a 3a a6 bd c8 bb 03 78 1c 3d b8 8d e8 3c
       0.0011811157 -0.0061261235 0.03820039 0.02838789
000350 7d 7b 28 bd 67 f6 39 3c 91 16 b1 bc 1e 19 2f bd
       -0.041133393 0.011350251 -0.021617206 -0.042748563
000360 84 e0 0f bd 1f 42 90 3c 97 c3 a6 bc 0c e8 a7 3c
       -0.035126224 0.017609654 -0.020356936 0.02049639
000370 b8 a7 34 bc 7c c4 2d bd 09 7a f8 bc e2 28 11 3d
       -0.011026315 -0.04242371 -0.030331628 0.03543938
000380 b4 85 40 bd b4 1a 2e bd b9 87 c9 bc 6a 31 20 3d
       -0.04700251 -0.042505935 -0.02460085 0.039109625
000390 77 1d c2 3c 62 63 b6 bc 98 71 24 3c 3b f4 18 3d
       0.02369569 -0.022264186 0.0100368485 0.03734229
0003a0 02 28 22 bc a7 36 7a bc 08 a7 05 bd d8 bc 52 bd
       -0.009897234 -0.015271819 -0.032629997 -0.051449627
0003b0 86 24 0e 3b 1e bb 8c 3c 44 68 1f bd 48 11 22 3d
       0.002168925 0.017179068 -0.038917795 0.039567262
0003c0 db 5b 1b 3d 62 70 1e bd c7 ff f7 3b 81 7c 52 3d
       0.037929397 -0.038681395 0.007568333 0.051388267
0003d0 6b 73 21 bd 45 f0 d8 3b 72 35 0b bd 87 7a 25 3d
       -0.03941671 0.0066204392 -0.033986516 0.040400054
0003e0 39 bb 1b 3d ee 91 0a 3d c3 10 2d 3c e4 70 00 bd
       0.038020346 0.033830576 0.010563078 -0.03135766
0003f0 84 09 4a 3d 21 54 f2 3b 6f 19 1a bc 00 0f aa bc
       0.04932548 0.007395283 -0.009405478 -0.020759106

b_classifier.fcc.weight f4 [1, 1, 384]
000000 7a 8d 30 3d 99 34 c0 bb 3f a7 6b 3d ce 88 28 3d
       0.043103673 -0.005865645 0.057532545 0.041146092
000010 10 03 11 3d fd 2b 67 bd 2f 52 5c bd 49 10 19 3d
       0.03540331 -0.056438435 -0.053789314 0.037369046
000020 02 eb c8 bc 74 78 b0 bc c7 cc 27 3d 56 56 43 3d
       -0.024526123 -0.021541812 0.040966775 0.04768976
000030 5c 02 ce bc ce 13 b9 bb ea b8 9e bd 48 ce 96 3d
       -0.02514761 -0.005648113 -0.07750113 0.07363564
000040 44 23 23 bc c6 20 10 3d df 7b 21 3c f8 5e 19 3d
       -0.009957138 0.035187505 0.009856193 0.037444085
000050 bb 7b a4 3d 61 18 d4 bc d8 95 ba 3c ff ec 2e bd
       0.08031412 -0.025890531 0.02277653 -0.042706486
000060 59 28 93 bd df 19 8b bd 66 90 fd 3c 65 24 cb bc
       -0.0718543 -0.06792044 0.030952644 -0.024797628
000070 8b e2 b2 bc 13 60 39 bd c0 da 7e 3c 9c 8e db bc
       -0.02183654 -0.04525764 0.015555084 -0.0268014
000080 89 cb 07 bd 64 84 ed bc 77 4d 27 bd 71 38 01 3d
       -0.03315309 -0.028993793 -0.04084536 0.031547967
000090 1f 41 02 3d 8e 17 00 3d ce ef 0d 3d 47 d1 e9 3c
       0.031800386 0.031272464 0.034652524 0.028542174
0000a0 ad e4 37 3c 69 63 c4 3c 39 e1 26 3d 70 87 8f 3d
       0.011223954 0.023973184 0.040742133 0.070082545
0000b0 30 4d da bc 00 93 bc bc 1c 4b 70 3c fe 3b f3 bc
       -0.026648134 -0.023019314 0.014666345 -0.029691692
0000c0 29 fb a3 bd 14 a0 7b bd a2 1e 8a 3d 2e 6e 0f 3d
       -0.080068894 -0.06143196 0.06744124 0.035017185
0000d0 94 64 c6 bb 9f 8a 74 3c 3b fb 29 3d ab 40 ff 3c
       -0.0060544703 0.014925628 0.041499358 0.031158766
0000e0 6b d5 df 3c 7d 50 f2 bc 99 38 31 3c 91 97 3a 3c
       0.027323445 -0.029579395 0.010816717 0.011388675
0000f0 e4 bb 70 3d eb 28 12 3d d0 fe e5 3c 7c 46 6a 2a
       0.058772936 0.035683554 0.028075606 2.0807829e-13
000100 af 67 d9 3c 24 40 9b 3b ae fe 63 3c dc 9c 5a bd
       0.026538698 0.004737871 0.013915701 -0.05337225
000110 3b 89 12 bd 2c 05 cf bc 3d 8e 34 bd 8d 0b 2d 3d
       -0.035775404 -0.02527102 -0.04408096 0.042247344
000120 f8 7f 85 3d ad b2 cd 3c de df e0 bc 81 29 15 bd
       0.06518549 0.025109613 -0.027450498 -0.036416534
000130 20 34 9d bd 04 d2 83 bc 65 b1 22 3d 93 a2 c5 bc
       -0.07675958 -0.016091354 0.039719958 -0.024125373
000140 73 1b 2f bb 7b 0d 55 bd 75 44 a3 bc 0a fc 65 bd
       -0.0026719242 -0.05201481 -0.019930104 -0.056148566
000150 ed 26 45 3c 04 80 64 3c 8b 48 47 bb 58 1d f3 3c
       0.012033206 0.013946537 -0.003040823 0.029677078
000160 08 95 25 3d df 43 58 bc 12 a7 31 3d c5 1f 2c bd
       0.04042533 -0.0131997755 0.04337222 -0.042022485
000170 31 dc 13 bd 4b 07 b3 bc c1 3f 4d bd 21 c8 16 bc
       -0.036098663 -0.021854063 -0.05010963 -0.009202988
000180 e6 e5 0b bd 10 ca e1 3b 3f fe 88 bc f6 bc c6 bc
       -0.034154795 0.006890543 -0.016722796 -0.024260025
000190 ee 04 28 bd 89 49 7a bd 48 6c 89 bd 87 11 13 bd
       -0.041020326 -0.061105285 -0.06710106 -0.035905387
0001a0 aa c0 be 3c b3 bd 86 3d 8a 55 95 39 1b d2 9c 3c
       0.023285229 0.06579151 0.00028483226 0.019143155
0001b0 60 ef 9a bd d3 af c3 bc cd f7 8b 3d f2 6b 1d bd
       -0.075651884 -0.02388755 0.068343736 -0.038433023
0001c0 a8 a3 6b bc 46 66 ff 3c ec 9c a4 bc 14 64 95 bc
       -0.01438228 0.031176697 -0.020094357 -0.018236198
0001d0 9c d1 04 3d 07 b8 a6 bc 45 5c 8d 3c 51 e3 04 3d
       0.03242646 -0.020351423 0.017255912 0.03244335
0001e0 8d f7 58 3c 52 22 11 bd 27 a8 c2 3c ab f5 b6 3c
       0.013242614 -0.03543312 0.023761822 0.02233394
0001f0 a3 56 04 3d 5e a4 18 3d 33 24 a8 3c 9c 9d 0f bd
       0.032309186 0.037266128 0.020525074 -0.035062417
000200 04 79 35 3d b4 e5 04 3b b2 9b 22 bd 2a e8 d5 3b
       0.044304863 0.0020278515 -0.039699264 0.0065279203
000210 fa d7 9d bb 0d aa 74 3d 0c 84 93 bd 71 57 90 3d
       -0.004817006 0.059732486 -0.0720292 0.07047928
000220 d6 e0 73 bd 8e 0b 25 bd d9 d6 16 3d 8c db 14 3d
       -0.059540592 -0.040294223 0.03682599 0.03634219
000230 17 cf 23 bd 1a 86 5c bc 98 0e f3 bc 28 34 bb 3c
       -0.03999242 -0.013459707 -0.029670045 0.022852018
000240 93 cc bb 3c 92 f3 15 3c 86 26 a3 3c fd ee de bb
       0.022924697 0.00915231 0.01991583 -0.006803392
000250 16 e9 f1 bc 00 09 e2 bc c1 c3 8c bd 79 12 1c 3d
       -0.02953009 -0.027592182 -0.068732746 0.038103554
000260 3b e9 92 3c 23 f6 3a 3d 7f a5 29 bd db 5f 35 bd
       0.017933479 0.04564489 -0.041417595 -0.044280868
000270 54 2d 25 bc 2b b0 32 bd c2 16 4e 3c 5b d6 77 bd
       -0.010081608 -0.043625038 0.012578668 -0.06050716
000280 6a 52 84 3d a9 47 8c 3d 2c c1 71 bd 94 07 7e bc
       0.06461032 0.068496056 -0.059022114 -0.015504736
000290 50 4a 05 bd 79 11 56 3c 8b aa 2d 3d d4 24 a0 bd
       -0.032541573 0.013065689 0.04239897 -0.078195244
0002a0 05 d3 24 3d 83 35 3d bd c9 a8 3c bc 1d 3d 5b 3c
       0.040240306 -0.04619361 -0.011514851 0.01338127
0002b0 95 c5 4e 3c f5 27 9c 3c bf 19 55 3d 78 3b 1d bd
       0.012620349 0.019062022 0.052026507 -0.038386792
0002c0 ce f0 26 bd f6 f9 14 3c e0 fe 29 bd e6 02 5c 3d
       -0.040756993 0.009092798 -0.041502833 0.0537137
0002d0 a0 3f 36 bc 84 12 8c bd 1b e9 58 bd b5 4b b9 bc
       -0.011123568 -0.06839469 -0.05295668 -0.022619108
0002e0 df dc 96 bb 12 8b 4f 3d a1 a8 78 3b 48 11 87 bd
       -0.0046039666 0.050669737 0.0037942308 -0.06595093
0002f0 39 91 14 3d da 42 fe 3b 42 09 55 bd dc 82 18 3d
       0.036271308 0.007759434 -0.052010782 0.037234172
000300 59 7d 45 bd 69 c0 af bc e4 a2 fd 3c 96 d9 4e 3d
       -0.048215244 -0.021454053 0.030961461 0.050500475
000310 d2 55 7e 3c e3 3e 35 3d fc 43 6d 3c b9 17 9d bc
       0.015523391 0.044249427 0.014481541 -0.01917635
000320 d6 6a cd bb f9 12 06 3d 02 91 85 3d 94 70 57 3c
       -0.0062688394 0.032732937 0.06521799 0.013149399
000330 ea 75 86 bd e3 e9 8b 3d 82 02 03 3d 9d f9 96 bd
       -0.06565459 0.0683172 0.031984814 -0.07371829
000340 3f 23 4a 3d ba e8 eb bc 35 88 6a 3d 55 79 52 3c
       0.04935002 -0.028797496 0.057258803 0.012846311
000350 d3 e8 d2 3c 2b de af bb 51 0a 98 3c 6b 67 5d bd
       0.025745785 -0.0053670607 0.018559607 -0.054053705
000360 0f 11 6a 3d 8d 21 cd bc 13 73 37 bd 67 8a be bc
       0.057145175 -0.025040412 -0.044787478 -0.023259355
000370 8e b9 43 3d ee c9 b3 3c 39 f4 8a bd 56 ae 94 bd
       0.04778438 0.021946874 -0.06784863 -0.072598144
000380 93 17 20 bc d4 98 aa bd ae a1 dc bc 68 c0 e1 bb
       -0.0097712455 -0.08329931 -0.026932564 -0.0068893917
000390 7a a3 17 bc e5 6c 22 3c 08 c8 ff bb ac 67 19 bd
       -0.009255284 0.009913658 -0.007805828 -0.037452385
0003a0 0e 1d 7e bc 72 e4 0e bd 2e 1b 17 bd 74 ba 8d 3c
       -0.015509857 -0.03488583 -0.036891155 0.017300822
0003b0 91 34 dc bc a4 ce 8f bd 10 de ee 3c c9 84 59 bc
       -0.026880534 -0.070218354 0.029158622 -0.013276287
0003c0 0a 0a 90 3d b5 f9 97 3c 8d 74 04 3d 7d 08 05 3d
       0.07033165 0.018551687 0.032337714 0.0324788
0003d0 38 66 dd bc 74 df 5d bd 09 64 30 3c 3a 86 df bb
       -0.02702628 -0.05416818 0.010766038 -0.006821421
0003e0 10 aa a7 bd cd 55 16 3d d6 9c 9c bd d6 17 3c bd
       -0.08186734 0.03670292 -0.076471016 -0.04592117
0003f0 39 2f c7 bc 38 67 de bc 39 ca 87 bd 63 b5 45 3d
       -0.02431451 -0.027148828 -0.06630368 0.048268687
