train/init/384/64.pth (torch, 695507 bytes, 6 tensors)

i_classifier.fc.0.weight f4 [1, 384]
00000000: 50b2 3c3d b2d9 bcbd 5cdc 4d3d dcd9 36bc
00000010: 44ba 9f3d b5de ae3c 1d64 eb3c abed 16bc
00000020: cc9e 93bd 2e89 2e3d a4df f23c 9f44 233d
00000030: 0be7 093d a711 063c 46f0 f13a 56d9 2a3c
00000040: 08ad 843d 1fad 463d 60e3 473d 0436 fcba
00000050: 3b92 533c c857 13bd cfba 0a3d f0dd 9a3c
00000060: 7e78 b63b fb03 40bc 77dd 20bc 6464 36bd
00000070: 0f8e a73c 2fae afbc 43cc 4d3d df4c 24bc
00000080: c50f 623d 8dbd bbbb 8f4f 003d 1ef7 6bbc
00000090: 9d7a dcbc 4340 523d 0209 eb3b c492 ccbc
000000a0: 1682 c13b 6cc6 503d 5082 3f3d d3f4 7e3c
000000b0: 157b 37bd 8fe1 68ba 286d 34bc b15a 4d3d
000000c0: 76ff 30bd cbfe 8bbd 4d26 b03d 76e4 9d3b
000000d0: 18f6 093d f576 3a3d 5a3b fd3b a2ce 2fbd
000000e0: 0907 f63c ec2b 0e3c 7389 c1bc 72eb d93c
000000f0: 181b af3c cc7e dc3c ad77 c7bb be7c 8c3d
00000100: a5eb 143d 1abe a7bc bd48 51bc 87e2 323b
00000110: 8895 7abc bf40 7a3c 2127 38bd eaba 8fba
00000120: cc48 133d b775 f8bc 94e8 abbc 71e2 1e39
00000130: 1bf3 1f3c 4009 14bb 3959 753d 61fa 983b
00000140: d529 d23a 915a 75bc 2423 063d 8cd8 4ebd
00000150: 3760 433d c952 043b 50d3 ac3c 3510 583c
00000160: 4c7a bb3d 72e3 a1bc 8737 cbbb f5f9 d5b9
00000170: aacf d7bc 306c 033d aea3 0f3d 56b7 723d
00000180: dffb 01bd a6bc a73c 5e2e 5cbd 35b1 86bd
00000190: 23ed 62bc 107a 72bd c52a a5bc 591b 0bbc
000001a0: 12fa 9b3d d3a3 923b caf0 153d ec49 c93b
000001b0: 76ad e3bb cb2b b83c 2bd8 423d 52ac 723d
000001c0: 8a95 12bd bacb 8bbb ec68 e839 44a4 a93d
000001d0: d8ca 6a3d 34e3 033c 8ed4 3fba feec 5a3d
000001e0: 32d7 763d d511 803d 05ab 743d 8030 05bc
000001f0: 4574 623d e9d1 113d 52a3 b4bd 9032 8b3d
00000200: 02a7 673d b193 673d 4c8e 4bbd 17d8 53bd
00000210: 62ed eb3b 592a 913b 6d4a 943b 50fb 353d
00000220: f777 51bd 8357 6a3d 1b59 8b3d 5b02 313c
00000230: 80df e8bc bfd8 a6bc 94ea ebbc 8319 513c
00000240: 9acc 4d3c 7a3a 9abd 810b 58bd 67b5 0f3d
00000250: 8839 ba3b d1fc 3ebc 0173 96bd bf21 dcba
00000260: 8547 323d 4225 d5bc 7e89 64bd b440 73bc
00000270: 0479 11bc 9672 58bc ad1b 0ebc 2169 3dbd
00000280: fca3 b03d d26e 8d3d 759b 3dbc 15e5 eb3c
00000290: 6cc3 1d3b ee7e a3bc f9bf 80bc 074b 83bc
000002a0: 522d ac3c 8182 8d3b 2931 9fbb be34 b9ba
000002b0: 2ae7 3abd fb7b 8a3c af0b 633c 5197 c63c
000002c0: 1888 123c 11c9 fb38 9d6f 903b 0504 6d3d
000002d0: 6e72 aa3b f851 df3b fd52 c73a 6cdd 86bc
000002e0: 47db c8bb 26c0 d83c 279f 183d d40b dabb
000002f0: 94a6 edbb 7532 853b b31f ba3c 5a24 7f3c
00000300: a131 a5bd e22e 313d 5996 213d 4c9f 503d
00000310: 0f1c 323b a345 733d 43d4 47bb 6ff5 fc3c
00000320: a547 163d 205f 643c 29c6 493d 6809 313d
00000330: 93dd 663a f480 9e3d a8a8 b73c 8f0c 75bc
00000340: 409a 753c c7b9 8a3d ccd7 833d 7008 dbbc
00000350: 5765 c83c 0a3e 17bd 8b42 f43c 6302 51bc
00000360: 6bb5 813d f93f 8b3c f14e 25bd d1d5 1b3b
00000370: e6a3 bfbb 7b63 2bbd 9a4f d0bc f87c 96bd
00000380: c5e9 b9bc e155 19bd b719 be3c 3d57 233d
00000390: 0939 a83a d3b0 2cba 0ec1 633c f9a0 0dbc
000003a0: 6efe 3b3d 5e99 8fbc 0eea 6b3d 0d9c 9fba
000003b0: e1ff d1bb 540f b5bb cb5f 56bd 577d 153d
000003c0: 00a5 303d 7bd5 4d3d 748f 1bbd d078 3c3d
000003d0: d379 c5bc 58e8 7cbd f7a4 a1bc decc e0bc
000003e0: 714e 81bd aa8d a0bc eae1 46bd 59cf 8139
000003f0: db19 813c 6b96 123d 2f40 0c3d 8d7d 03bd
0.04606849 -0.092212096 0.05025898 -0.01116034 0.07799199 0.02134643 0.028734261 -0.009211938
-0.072080225 0.042611293 0.029647656 0.039860364 0.033667605 0.00818292 0.0018458448 0.0104277935
0.064783156 0.048504945 0.048800826 -0.0019242172 0.012913282 -0.035972387 0.03386956 0.018904656
0.005568563 -0.011719699 -0.009818426 -0.044529334 0.020453481 -0.021445362 0.050243627 -0.010028093
0.05519082 -0.0057293833 0.031325873 -0.014402179 -0.026913935 0.051330816 0.0071727047 -0.024972327
0.0059054 0.05097048 0.046755135 0.0155613 -0.044795115 -0.00088837085 -0.011012353 0.05013532
-0.043212377 -0.06835707 0.08601055 0.0048184944 0.03368196 0.045523603 0.0077280225 -0.04292167
0.030032651 0.008677464 -0.023625111 0.026601527 0.021375224 0.02691593 -0.0060872645 0.0685973
0.03635754 -0.02047639 -0.01277369 0.0027295665 -0.01529444 0.015274226 -0.04495919 -0.0010965739
0.035958096 -0.030329568 -0.020984925 0.0001515241 0.009762551 -0.0022588521 0.059899542 0.0046685194
0.0016034195 -0.014975206 0.032748356 -0.050499484 0.04769918 0.0020190945 0.021096855 0.013187458
0.09154186 -0.019761775 -0.0062016877 -0.00040812758 -0.02634414 0.032085598 0.035068206 0.059256874
-0.031734344 0.020475697 -0.053755157 -0.06576768 -0.013850483 -0.05919844 -0.020161996 -0.008490407
0.076160565 0.004475096 0.036606587 0.0061428454 -0.0069481684 0.02248182 0.047569435 0.05924637
-0.035787143 -0.0042662295 0.0004432866 0.08283284 0.057322353 0.008049775 -0.0007317745 0.05344867
0.06026382 0.06253401 0.05973341 -0.008129239 0.055286665 0.035600577 -0.088202134 0.067967534
0.056555755 0.056537334 -0.04969625 -0.05171975 0.007199929 0.004430097 0.004525474 0.044429123
-0.051139798 0.057212364 0.06804105 0.010803784 -0.028426886 -0.020367024 -0.028798379 0.01276243
0.012560988 -0.07530685 -0.052745346 0.035085108 0.005683128 -0.011656956 -0.07346154 -0.0016794725
0.043525238 -0.026018742 -0.055795185 -0.014846969 -0.00887895 -0.013210913 -0.008673591 -0.046242837
0.086250275 0.06905903 -0.011572708 0.028795758 0.002407278 -0.019957986 -0.01571654 -0.016026987
0.021017704 0.004318536 -0.0048581553 -0.0014130098 -0.04563061 0.016904822 0.013857766 0.024242075
0.00894358 0.00012006064 0.0044078366 0.05786516 0.0052016294 0.0068151914 0.0015207228 -0.016463004
-0.0061296555 0.026458811 0.037261155 -0.006654242 -0.0072525237 0.004064853 0.022720193 0.015572632
-0.080661066 0.0432576 0.039450023 0.050933167 0.0027177369 0.059392583 -0.0030491508 0.03087875
0.03668942 0.013938695 0.049261246 0.04322186 0.0008806821 0.077394396 0.022419289 -0.0149566075
0.014990389 0.067737155 0.06437644 -0.026737422 0.024462385 -0.0369244 0.029816886 -0.012756917
0.06333431 0.016998278 -0.040358488 0.0023778568 -0.0058483956 -0.04184292 -0.025428582 -0.07348055
-0.022694478 -0.037435416 0.023205621 0.03987812 0.0012834381 -0.0006587628 0.013901008 -0.008644336
0.04589694 -0.017529186 0.05759626 -0.0012177244 -0.006408677 -0.005525509 -0.05233745 0.036496487
0.043126106 0.05025242 -0.037978604 0.046013653 -0.024105942 -0.061745018 -0.019731982 -0.027441438
-0.0631379 -0.0195988 -0.048555292 0.00024759283 0.0157594 0.03578798 0.034240898 -0.032102156

b_classifier.q.weight f4 [64, 384]
00000000: 6a72 39bd 3b58 cc3c c3c6 02bd 07bf 0c3c
00000010: 4cb9 d63c 62ed 343d 991e 4fbc b3cb 133c
00000020: 470e fc3c 839f 50bc 51f0 8c3b 5f2e bf3c
00000030: bc7d c73c aa0a 903c 5765 1fbd afae 933c
00000040: 5287 2abc f86a a3b9 c308 2abd a1ed 143d
00000050: 7619 ef3b c8ab 6cbc e766 e6bc ebe1 a93c
00000060: 4b90 e83c 720b 6bbc 15ed 083d 0d1a eb3c
00000070: d732 41b8 cbd4 71bc a07e febc 5a0c 4dbd
00000080: 6190 173d e3ac 05bd 032b ccbb 10f2 6e3c
00000090: 353c 553d e8ac 1fbd 05e7 653d 89f8 213c
000000a0: 0b80 8e3c d303 003d c951 15bd 592b 383d
000000b0: b83e 81bc 36e4 92bc 8e5b d2bc 0222 3cbd
000000c0: 07db 1c3d c35e cfbc 1574 63bc c6fc 2a3d
000000d0: b478 0b3d b955 4ebc 36c8 1d3d 2b9d 81bc
000000e0: 2575 bcbc 1a7c 1d3c a1ee 27bc ee5d 853c
000000f0: 1de4 f43c 5c9a 16bd 8e8b 0ebd 1001 f93c
00000100: 582d 533d faaa 42bc 8893 673c cc90 1ebd
00000110: be0b 333c 0815 24bd 4aa4 adbb fb47 07bd
00000120: 4dae 403d af67 cf3c 6ac3 3abd f88a 1b3d
00000130: bc52 3dbd 42f1 0bbd a7ee 03bd 37c6 d23b
00000140: 732c 47bd efff 0c3d ff5a 31bd 7518 e5bc
00000150: 7918 c9bb 8c96 9a3b 6803 44bd 6abf 3e3d
00000160: 267a 50bc 3387 273d aab2 1ebd fa9b 2cbb
00000170: 63f7 123d 1da4 16bc e5dc 69bc 7d75 46bd
00000180: df33 2dbd c9b9 123b daec 6cbc 8edc 9ebc
00000190: 3941 073d cd3e 51bd b62e d9bc d0f7 71bc
000001a0: cd26 4f3d 5d28 b6bc 8210 ccbc b2ac ce39
000001b0: 885d 2ebd ca58 ac3c dcce 543c 2279 003d
000001c0: 1d51 34bc b445 123d 5f68 343d ecaa 1d3d
000001d0: 290a 213b 3a0f 1e3d cc9f 0f3d e947 a73c
000001e0: 0d9c 283c 1a9c c93c f940 1ebd b8a8 c33b
000001f0: 403d 3d3a 4e5f 723b 6748 153d d9c0 943c
00000200: 2fa2 f2bb 8072 acbc b572 cfba 6427 323d
00000210: 0188 223c 771a 39bd c853 023d bef9 d4bc
00000220: 78b7 b5bc 4287 b4bc f1b4 d9bc 09f2 3cbd
00000230: d81a 8abc eb67 383d a4f8 67bc e918 e0bc
00000240: d683 05bd 8c9c ab3c 75c2 d83c fd2c 563d
00000250: 737b b73c 26a0 80bc ad75 cabb 6db1 913b
00000260: 65d1 033d 026c 85b9 2e0a 4c3d 89c1 2bbd
00000270: d9c5 8fbb fba5 02bd 59fa a43b d92e 01bc
00000280: c9ba a33c 0b4c ef3c b0be 40bc c05d 163d
00000290: f38b 43bd dcbc 583b 39f5 01bd 4df9 41bd
000002a0: 8bf7 41bd 4746 223c 2a35 0d3d 35d1 953c
000002b0: 9c6b 54bd b4ed 713c b0b8 7a3c 1123 e6bb
000002c0: 52a3 31bd 8192 c0bc 0769 9bbc 6764 b9bc
000002d0: 4cb1 1a3d 5cc4 3c3c ac1d c1bc 48af 35bd
000002e0: 04be 923c 4506 ef39 3662 dd3c 7447 5b3c
000002f0: 059a 9c3c 3f0c 58bc d2bd f1bc 882d 7a3c
00000300: a7db a1bb 81a4 80bc 3e42 9fbc df84 1cbd
00000310: ddd3 e1bc 07d1 233d 5f39 293d 98b4 12bd
00000320: b47b 803b d4fe cebc 79bf 523d 80f8 48bd
00000330: 5935 17bd e073 4f3b c2b5 2d3d 847c 0dbd
00000340: 28d4 11bd 633d 88ba 7532 f3bb 8350 1e3d
00000350: b68d d3bc 1b8b 573d be9d 433c 4111 413d
00000360: 2380 cdbb 1af6 26bc 7a95 05bc 90fc 03bc
00000370: 5357 a43c b99b 19b8 9879 a33c 2fae 1cbd
00000380: 7502 583d 130f 54bd 7d8a 34bd 1c2d 173d
00000390: f772 c73b cb66 4abb efed 2e3c 3d5d 04bd
000003a0: bc7d c7bb a16b 0f3d 0007 313d a2a3 23bd
000003b0: 4ba0 663c 942e 3bbd aaf1 31bc 514a 2ebd
000003c0: f07f f4bc baf9 c7bb 295c f33c 6dcc 1d3d
000003d0: c365 963c ebb7 45bd 71aa 1cbc ddc3 033d
000003e0: 21df 51bc 70b0 573d 5dba ec3c 02f5 a13c
000003f0: 066e 443d 0c4d 573a a672 fc3c 44b5 3a3c
-0.04527513 0.024944415 -0.031927835 0.008590466 0.026211403 0.0441717 -0.012641572 0.009020734
0.030768527 -0.012733343 0.004301109 0.023337541 0.024351947 0.01758321 -0.038915005 0.018027632
-0.010408239 -0.0003116948 -0.041512262 0.036359433 0.0072967364 -0.014445253 -0.02812524 0.020737609
0.028389117 -0.0143459905 0.033429224 0.028698945 -4.6062134e-05 -0.014760206 -0.031066239 -0.050060607
0.037002925 -0.03263558 -0.0062307133 0.014584079 0.05205937 -0.038983256 0.05612852 0.009885916
0.01739504 0.031253647 -0.03645495 0.044963215 -0.015776977 -0.017931085 -0.025678422 -0.04593087
0.03829482 -0.02531374 -0.013882657 0.04174497 0.03405066 -0.01259368 0.038521014 -0.015822014
-0.023005078 0.009612108 -0.010249765 0.01628014 0.02989393 -0.036768302 -0.03480106 0.030396014
0.051556915 -0.011881584 0.014134295 -0.038712308 0.0109280925 -0.04005912 -0.005299126 -0.03302763
0.047041226 0.025317995 -0.045596518 0.037974328 -0.04622148 -0.03416563 -0.03221002 0.0064323205
-0.048626374 0.034423765 -0.04329967 -0.027965764 -0.0061369506 0.0047176536 -0.04785481 0.046569265
-0.012724435 0.04090042 -0.038744606 -0.0026338086 0.035880458 -0.009194401 -0.014273857 -0.04845189
-0.042285796 0.0022388569 -0.014460767 -0.019392278 0.033021186 -0.051085282 -0.026511531 -0.014768556
0.050574113 -0.022236044 -0.024910215 0.0003942005 -0.042569667 0.021038432 0.012988772 0.03136552
-0.011005667 0.035711005 0.04404485 0.038493082 0.0024572706 0.03858874 0.035064504 0.020420032
0.010291112 0.024610568 -0.03863618 0.0059710406 0.0007218905 0.0036983076 0.036446 0.018158363
-0.0074045877 -0.021050692 -0.0015827032 0.043494597 0.009920121 -0.045191254 0.03181818 -0.025997993
-0.022182211 -0.022037152 -0.026575537 -0.04612926 -0.016858503 0.04502098 -0.014158402 -0.027355628
-0.03259643 0.02094867 0.026459912 0.052288998 0.022397732 -0.015701365 -0.006178579 0.0044461996
0.032182116 -0.0002544821 0.049814396 -0.041932616 -0.004387599 -0.031896573 0.0050347266 -0.0078847045
0.019986527 0.029211065 -0.011764213 0.0367105 -0.047740888 0.0033071553 -0.031728003 -0.047356892
-0.047355216 0.009904451 0.03447453 0.018288234 -0.051860437 0.0147661455 0.015302822 -0.007023223
-0.043368645 -0.023507359 -0.01897098 -0.022630883 0.03776674 0.011521425 -0.023573719 -0.044356614
0.017912872 0.00045590303 0.02702437 0.013383735 0.019116411 -0.013186513 -0.029509459 0.015269645
-0.0049395147 -0.015703442 -0.019440766 -0.038212653 -0.027566845 0.039994266 0.04131448 -0.03581676
0.0039209966 -0.025267996 0.051452134 -0.049065113 -0.03691611 0.003165476 0.042409666 -0.034542575
-0.03560272 -0.0010394271 -0.0074217864 0.038651 -0.025824409 0.052622896 0.011939464 0.047135595
-0.0062713786 -0.010190511 -0.008153314 -0.008055821 0.02006117 -3.662307e-05 0.019955441 -0.038252052
0.05273672 -0.05177219 -0.044077385 0.036908254 0.006086703 -0.0030884023 0.010676845 -0.03231548
-0.0060879868 0.035014752 0.043219566 -0.039950974 0.014076303 -0.045698717 -0.01086084 -0.042551342
-0.029846162 -0.006102768 0.029707031 0.038525034 0.01835907 -0.0482711 -0.009562121 0.03216921
-0.012809546 0.0526585 0.028897459 0.01977015 0.04795649 0.000821308 0.030816387 0.011395756

b_classifier.q.bias f4 [64]
00000000: 1aa4 fbbc 1619 bf3c 36f7 563d 06a1 3dbd
00000010: 1591 c43b 9b82 403d 8992 363c 2f3f c9bb
00000020: ee50 063d 4b93 4ebd 5050 bebc 7187 34bd
00000030: 2618 aabb ed3e 54bd 7a4f 11ba bfbf 75bc
00000040: 3c14 0c3d e492 50bd 2301 1abd af04 b4bb
00000050: 77d4 4a3d 8026 5ebd d15b 323d 8c15 9a3c
00000060: 5290 153d 09a0 b43b a0b3 32bb 50cf 5bbd
00000070: c7b6 84bc 1b8f 193c 8634 383d fde2 b6bc
00000080: 23fb 3b3d 3186 d93c 5eef 8b3b 3eb0 5eba
00000090: 4763 543d cc18 2fbd 2f8c 583c 4790 62bd
000000a0: eb96 47bc 8d96 ba3c fe1e 9e3c a566 d03c
000000b0: 7a7a 193d 4f44 7a3c 9fdd 73bd df58 f33b
000000c0: fc78 19bd 4a16 713c 3d3c 333c 50e6 1c3d
000000d0: 8594 1e3d e636 73bc 0df0 853c 6350 54bd
000000e0: c1ec 0ebd f5fa 09bd d30a 34bd 2bf3 d13c
000000f0: d06c 45bd 3fcb 61bd 8ab9 143d 371d 723d
-0.030717898 0.023327392 0.052481852 -0.046296142 0.0059987404 0.046999555 0.011143335 -0.0061415653
0.032792024 -0.05043344 -0.023231655 -0.04407448 -0.005190867 -0.051817823 -0.0005543154 -0.014999329
0.034198985 -0.050921336 -0.03759874 -0.0054937224 0.04951903 -0.054235935 0.043544594 0.018809102
0.036514588 0.0055122417 -0.002726771 -0.053664505 -0.016200436 0.009372498 0.044971965 -0.022325033
0.0458938 0.026553245 0.004270478 -0.000849489 0.05185249 -0.042748258 0.013217016 -0.055313375
-0.012181978 0.022776866 0.019301888 0.02543957 0.03747032 0.015275075 -0.059537526 0.0074263657
-0.037468895 0.014714787 0.010939655 0.03830558 0.038715858 -0.014844632 0.016349817 -0.051834475
-0.034893755 -0.033686597 -0.043955635 0.025628647 -0.048199475 -0.05512547 0.036309756 0.059109893

b_classifier.v.1.weight f4 [384, 384]
00000000: 7f24 e8bc e207 2c3d d175 193d 09a6 79bc
00000010: 6c8c cc3c 1a24 bdbc fc4f 98bc 967a cfbc
00000020: 44aa e6bc 4b81 8d3c b1ef 403d 3851 2abd
00000030: 7984 12bd fe43 423d 0d6a aebc 7e16 4e3d
00000040: 73ca 39bd ba07 c5bc 08bc fb3b d31e a73b
00000050: 365e dbbc 4193 02bd d51c 8e3c 0e71 09bd
00000060: 6acb fa3b 8948 8bbc 975f 683b 2c5a 493d
00000070: 8b7f a2bc 7802 23bd 3d65 0cbd 2889 c8bc
00000080: 677c 78bc 6269 56bc a8a3 c43c 1699 afbc
00000090: 48ad 883c 41cf 1f3d 5a39 633c 7cd8 e9bb
000000a0: 901c 3dbd 48a1 7d39 92fd f43c 17ad e03c
000000b0: df75 e6bc 6913 073d b3d5 b8bc ddff 36bd
000000c0: f367 32bd fd14 d7bc b147 863c d6d3 89bb
000000d0: be5b f13c ff7f 20bd 6f12 f8ba 5a99 18bd
000000e0: 1372 0e3d ef33 f6bc 9dd6 07bd 0a53 0b3d
000000f0: fc06 483d d7fe a9bc 99f2 dbbc 437a 873c
00000100: 0b4c 8abc 9b30 8a3c 9055 2d3c 224e 8a3b
00000110: 6c4a 69bc 8e7b d7bb 96ac 8d39 4325 b33c
00000120: 78ed 403d c173 17bd e6a2 34bd bb2c 083c
00000130: 31fd 3f3d 3c0e 36bd e7c3 68bb 6495 d6bc
00000140: cd2c 15bd b45b a23c e1a7 e93c ad01 8ebc
00000150: abd8 f13c a216 2fbc f304 b53c 0a7b ea3b
00000160: 41ce 313d d36a c6bc d2cd 3a3d 483b 223d
00000170: 6e2e c5bb 7e13 053d 0159 28bc 6af1 433b
00000180: a466 843c 92c4 05bd 2dba 1b3d eb7c 333d
00000190: fc1c 153d c823 adbc 748a ff3c 9eea e93b
000001a0: d19f 1b3b ba11 84bb 76c0 94bc 913f 09bd
000001b0: 818d 17bd 04fd 29bc 7551 ec3b ad3e 01bd
000001c0: 1949 4fbd ef1a 073d 2ffa 9e3c bbde df3b
000001d0: f47b d7bc 3cfd e0bc 226b 28bd a09d ee3c
000001e0: fcc3 3d3d 0e43 523d 171d 21bd ce5a 843c
000001f0: f1b4 04bd 7987 f0bc d76c 4dbc a7d2 4bbd
00000200: 5683 01bd 2699 ffbc b6a0 25bd 662d 27bd
00000210: 609d 21bd 4886 97bb c8b4 463d 75aa ea39
00000220: acf8 253d 936c 35bd 18a7 523d f0a1 183d
00000230: 92c6 41bd 39f5 80bc 8427 d23c 82a4 f6bc
00000240: 50f1 b5bb 7465 b73b 854e 553c 6abb 7dbb
00000250: 285b f73c 16b2 3f3c 518a 47bd d980 0b3d
00000260: dd9b a73c b342 57bc cbc8 4cbd a7cd 0d3c
00000270: 8497 c1bc 1ac7 883c 4981 c83c 3078 8a3c
00000280: 9839 e2bc 860b 0d3d c584 1e3d 2d2b 5bbc
00000290: a361 6ebd a407 3b3d b308 f53c f40a 3cbd
000002a0: 096b 2ebc f81f 0abd d4d4 07bd 4232 0bbd
000002b0: d98f 9dbc 406c c6bb 4e72 813c 3b81 9abc
000002c0: efd1 723c 65b3 1ebd f50d fcbc f684 36bd
000002d0: 1c31 cdbc f23b 18bd 325b 8f3c 0ccd 2bbd
000002e0: c440 40bc 121a b63c e360 c53c 1495 b53c
000002f0: 9bf8 ff3c d889 30bc fae6 27bd f8b5 25bd
00000300: 6f11 43bd 6da4 1c3d c55f 4fbd e537 23bd
00000310: 90d4 c7ba 41fc 4a3d 8800 00bd b46f a0bc
00000320: 5246 2fbc 1ff2 3b3d 421b 2abd 241a 95bc
00000330: b874 74bc a235 bd3c f29c c0bc ef96 febc
00000340: 912e e0bb b1be 19bd 2bc9 c53c 7c38 423d
00000350: f1b4 e03c a4fb 893b 23b8 97bb c0f8 d8bc
00000360: 0d41 e63c 137a c3bc d33e 0cbd e0d6 06bc
00000370: ba0b 3cbd cd62 1b3d 5d6b cebb fc8b 783c
00000380: a066 663b 1e26 a5bb 083c 15bb ece5 d0bc
00000390: 4647 08bd 7cf9 e5bb dd2b 1b3d 2589 753c
000003a0: ed7d a13b b61f 5bbc 93e6 48bd b5e4 0dbd
000003b0: 9d48 91bc 84a0 9abc 03ac 8c3c 6673 bb3b
000003c0: aa0f f93a f6f1 96bc 127c 1dbd 7c38 9f3b
000003d0: c936 8bbc acf7 023d 437e 8d3c 7ef5 ac3c
000003e0: 70ca 95bc 41b4 d5bc 893a d0bb 432c 2cbd
000003f0: 969d e2bb f18c 25bd 290c a7bc 43ea 6abc
-0.028337715 0.041999705 0.037465874 -0.01523734 0.024969302 -0.023088504 -0.018592827 -0.025327008
-0.02815736 0.017273566 0.047103588 -0.041581362 -0.035770867 0.047428124 -0.021290803 0.05031442
-0.045359086 -0.024051536 0.007682327 0.00510011 -0.026778322 -0.031878714 0.017347733 -0.033555083
0.0076536434 -0.01700236 0.0035457367 0.04915826 -0.019836208 -0.039797276 -0.034276236 -0.024479464
-0.015166379 -0.013086649 0.024003819 -0.021435302 0.01668419 0.039016012 0.013868654 -0.0071364027
-0.046169817 0.00024188042 0.029906068 0.027426286 -0.028132377 0.032977495 -0.022562837 -0.044677604
-0.043556165 -0.026255125 0.016391607 -0.004206161 0.029462691 -0.039184567 -0.0018926392 -0.037255622
0.03477676 -0.03005406 -0.033163656 0.03401474 0.048834786 -0.0207514 -0.026849078 0.016537791
-0.016881963 0.01686888 0.010579482 0.00422074 -0.014238935 -0.006576008 0.00027022202 0.021868354
0.047101468 -0.036975626 -0.044100665 0.008311446 0.04687232 -0.04444717 -0.0035517158 -0.026194282
-0.03641968 0.019819118 0.028522434 -0.017334783 0.02952226 -0.010686548 0.022097087 0.0071557807
0.04340959 -0.02422086 0.04560644 0.039607316 -0.0060174977 0.032489292 -0.010275126 0.0029898533
0.016162224 -0.032658167 0.038019348 0.043820303 0.036404595 -0.021135226 0.03119395 0.0071385643
0.002374638 -0.0040304335 -0.018158179 -0.033507887 -0.037000183 -0.010375265 0.007211859 -0.031553913
-0.05060682 0.03298467 0.019406406 0.0068319715 -0.026304223 -0.027464502 -0.041117795 0.029127896
0.046329483 0.05133348 -0.039334383 0.01615658 -0.03239912 -0.029361473 -0.0125381565 -0.04976144
-0.031619392 -0.031200957 -0.04043647 -0.04081478 -0.039456725 -0.004624162 0.04851225 0.00044758958
0.040520355 -0.044292998 0.051428884 0.03726381 -0.047308512 -0.015741931 0.025653608 -0.03010774
-0.0055524483 0.005596811 0.013019209 -0.0038716444 0.030194834 0.011700174 -0.048715893 0.034058426
0.020460064 -0.013138461 -0.04999618 0.008654988 -0.023631819 0.016696502 0.02447571 0.016903013
-0.027615353 0.034434818 0.038700838 -0.013376993 -0.058198582 0.045661584 0.029911375 -0.045908883
-0.010645636 -0.033721894 -0.033161953 -0.033983476 -0.019233631 -0.006055385 0.015801575 -0.01886045
0.01482056 -0.038745303 -0.030768374 -0.044560395 -0.025047831 -0.037166543 0.01749954 -0.041943595
-0.011734191 0.022229228 0.02409405 0.022165813 0.031246474 -0.010775052 -0.04099176 -0.040456742
-0.047624048 0.038242746 -0.050628442 -0.039848227 -0.0015245844 0.049556974 -0.031250507 -0.019584514
-0.010697918 0.0458852 -0.0415299 -0.018200941 -0.014920406 0.023096863 -0.023512337 -0.03107783
-0.0068414886 -0.037535373 0.024143776 0.04741715 0.02743003 0.004210906 -0.004630105 -0.0264858
0.02810719 -0.02386192 -0.0342396 -0.008229941 -0.04590962 0.03793602 -0.00629942 0.015170094
0.0035156384 -0.0050399443 -0.0022771377 -0.02550026 -0.033271097 -0.0070182662 0.03788363 0.014986311
0.0049283416 -0.01337426 -0.049048018 -0.03464194 -0.01773482 -0.018875368 0.017171865 0.0057205437
0.0019001861 -0.018425923 -0.0384484 0.0048590284 -0.016993897 0.03197448 0.01727212 0.021113154
-0.018285006 -0.026086928 -0.006354634 -0.0420344 -0.0069157584 -0.040417615 -0.02039154 -0.014338079

b_classifier.v.1.bias f4 [384]
00000000: 0218 25bd 326b 4b3d bb6b c7bb c2cd 2c3d
00000010: 62d4 a7bc 4053 013d e6f2 f7bb 0237 dc3c
00000020: 6cf0 563d 7c44 3abc 3040 70bc 2701 25bd
00000030: 1134 eebc 72dd 2a3c 8521 a8bc 9da2 c83a
00000040: ac68 843b 7956 9a3b 19c7 48bd 4abc 003d
00000050: 987d 15bc 6681 043c 0cef 2bbd 6bf3 e43c
00000060: d5e7 18bc 832f 23bd d90c 54bc 1d05 c63b
00000070: c0c5 473d 632c 003d b295 f8bb 885f f13c
00000080: 8485 d6bb aad2 40bd 0e58 db3c f651 18bd
00000090: 7280 3a3d 1171 26bb bc7e 52bc 5c80 ab3b
000000a0: 0833 bc3c b26c ccbb 3956 7bbc b151 2b3b
000000b0: 23e4 e7bc c157 1f3d dba4 1ebd 8699 d83b
000000c0: 82f8 f43b 9203 35bd e12a 17bd 0f01 063c
000000d0: c77d d1bc 44b0 1f3d ba8c 41bd 4e29 3fbd
000000e0: 3176 ad3b 02e1 22bd 4b54 2e3d 8943 c03a
000000f0: 5f58 dabc 97f2 54bb ee29 173d 6225 bcbc
00000100: 1e11 c33c 1585 91bc 1368 123d 7ab6 3c3a
00000110: f5b6 3e3d b85a a7bc a8b9 2abd 2059 073d
00000120: cca0 e43c 6a3c 44bd f8d3 fdbc 09f1 7abc
00000130: 6bfd 373c 7ebd 0f3d c111 2b3c 2ff7 01bc
00000140: 09af 29bd 5574 c8bc 6639 0a3d dd00 493d
00000150: 4362 cf3a 9b13 9e3c 7399 d13c bf6f 0dbc
00000160: a674 ad3c 9460 9c3c 7c10 b73c d9e7 333d
00000170: d094 3bbd 6a81 363d ecb0 333c cae1 3ebd
00000180: 46f5 3fbd ef8f be3b 6c08 5d3c 4da0 31bd
00000190: 3b5d 083d 4351 d7bc e378 72bc 56df f73c
000001a0: 0225 0d3d e922 04bd ecf4 30bb aed4 fcbc
000001b0: 8134 5b3d 9b22 163d a922 37bd ea43 f73a
000001c0: 04d7 8c3c 820b 073d ecdf cbbc f6df b9bc
000001d0: ee79 49bd 3d02 433b 743c f8bc eeff bebc
000001e0: 19f8 1cbd d409 46bc 8e51 2fbd c66d 2e3d
000001f0: b75a b63c 709d f33c 90f7 4b3c c8af 54bc
00000200: 6645 2a3d 4896 9fbc 544c ddbc ba6f fe3b
00000210: 990e 133d 0c16 003b 6c40 90bc 6024 7c3c
00000220: 9f8a 153c 363a d5bc befa 2dbd 92fb 2d3d
00000230: 20ab 903c b994 30bc 7e80 323d a9f5 003d
00000240: 94ee 23bd 26d3 a5bc 3390 3ebd a3ae edbc
00000250: d72d 213d fcbb adbb 9976 3cbd cce5 4ebd
00000260: 662f 47bb fabe 44bd 64fc 933c 4d49 4d3d
00000270: f426 64bc 99f9 413d 29a6 c13c c412 aabc
00000280: cfef c4bc c76a 383d 81ba 0bbd ad24 28bc
00000290: d4bb 813c ffc8 03bd f60c ffba 55d5 293d
000002a0: 5b60 febc f5aa ce3c 5bf4 e3bc 10d5 1bbc
000002b0: 1417 dd3c 82ec 983c 55ce f53c b2fb 01bd
000002c0: 633d 6b3c d0d8 1c3b a0bb 12ba 9ae1 ebbc
000002d0: df71 24bd bfc1 c6b8 db7a 203d 29f1 093d
000002e0: 7c0e e7bb c73c 2c3d ab63 e5bc 96d6 38bc
000002f0: b230 d1bc 1854 02bd 4139 653b 5295 29bc
00000300: 9428 643c d9c7 32bd 4ee1 1abd bfb2 003d
00000310: 514b fcbb 13d6 57bd d2c9 243d ab84 2c3d
00000320: b090 183d 8f6f 523c 977d 313d c3f4 0d3d
00000330: b9c0 08bc 237b 113d 8162 4dbd cd94 c7bc
00000340: 0f70 ddba 1174 d3bb fd54 093d 03f7 d03c
00000350: 9917 37bd ca16 2a3c a8e5 b7bc 35d0 30bd
00000360: da17 1dbd 89e2 8a3c efb3 afbc fee4 ad3c
00000370: a43d 6cbc d9da 38bd 671b 01bd 1021 0f3d
00000380: 965a 3ebd e327 31bd d504 cbbc 471e 1a3d
00000390: 2681 c23c 50d7 d4bc 8006 1e3c 3ae3 183d
000003a0: 4c83 19bc 5097 80bc 7463 07bd 7be8 56bd
000003b0: b15e 0a3b 6a7f 8b3c 7de8 25bd 03c2 243d
000003c0: 9569 123d e04c 26bd a6bb f23b 7be1 473d
000003d0: 65fb 1fbd 6a7e c43b 304f 19bd 5b2c 283d
000003e0: 8dfc 1b3d 8959 073d 08e7 383c 3f22 03bd
000003f0: af3a 453d 4c33 023c b4a8 1cbc 9b0e c0bc
-0.0403061 0.049662776 -0.0060858405 0.042188413 -0.020487014 0.031573534 -0.0075667975 0.026881699
0.052475378 -0.011368867 -0.014663741 -0.040284302 -0.029077562 0.010428773 -0.020523796 0.0015307252
0.004040798 0.0047100154 -0.049018 0.031429566 -0.009124182 0.008087492 -0.04197602 0.027948102
-0.009332617 -0.039840233 -0.012942516 0.00604309 0.048772573 0.03129233 -0.0075862044 0.029464498
-0.006546678 -0.047075905 0.026775386 -0.03718754 0.04553265 -0.0025396983 -0.012847599 0.0052338075
0.022973552 -0.0062385434 -0.015340381 0.0026141221 -0.028307026 0.038902048 -0.038731437 0.0066100983
0.0074759135 -0.044192858 -0.036906127 0.008178963 -0.02557267 0.03898646 -0.047253348 -0.04667025
0.0052936305 -0.039765365 0.042560857 0.0014668565 -0.026653467 -0.0032493228 0.03690522 -0.022967044
0.023811873 -0.017763654 0.035743784 0.0007198822 0.0465612 -0.020429 -0.04168096 0.03304398
0.027908705 -0.047909178 -0.030984864 -0.015316256 0.011229853 0.035092823 0.010441245 -0.007932468
-0.041426692 -0.024469534 0.033746146 0.04907309 0.0015822131 0.019296458 0.025585866 -0.008632599
0.021173786 0.01908902 0.022346728 0.04392228 -0.045796216 0.044557013 0.010967474 -0.046602048
-0.04686477 0.005815498 0.013490777 -0.043365765 0.033292037 -0.026283866 -0.014799329 0.030257862
0.03445912 -0.032259855 -0.0027001454 -0.030863132 0.05351687 0.036654096 -0.04471079 0.0018864844
0.017192371 0.03296996 -0.024887048 -0.0226898 -0.049188547 0.0029755973 -0.030302264 -0.023315396
-0.038322542 -0.012087304 -0.042802386 0.042585157 0.022260053 0.029738158 0.01244916 -0.012981363
0.04157009 -0.01948084 -0.027013935 0.0077647837 0.035902593 0.001954439 -0.017608844 0.015389532
0.009127288 -0.026028734 -0.042475455 0.042476244 0.017659724 -0.010777646 0.04357957 0.03148428
-0.040022448 -0.020242285 -0.046524238 -0.029013937 0.039350357 -0.0053019505 -0.04601154 -0.05051212
-0.0030393242 -0.048033692 0.018064685 0.050118733 -0.013925303 0.047357175 0.023638802 -0.020760901
-0.02404013 0.045023706 -0.03411341 -0.01026265 0.015836634 -0.032174107 -0.0019458819 0.041463215
-0.031051805 0.025228003 -0.027826479 -0.009511247 0.026988544 0.018667463 0.030005613 -0.031734176
0.014357897 0.0023932941 -0.00055974163 -0.028794099 -0.04014766 -9.477464e-05 0.039179664 0.033677254
-0.007051287 0.04205015 -0.028001627 -0.01128163 -0.025535915 -0.03181848 0.0034976753 -0.010350542
0.01392569 -0.04364762 -0.037812524 0.031420466 -0.007699408 -0.05269439 0.040231533 0.04211871
0.03724736 0.01284398 0.043332662 0.03465725 -0.00834673 0.035517823 -0.05014277 -0.024362946
-0.0016894358 -0.006453045 0.033528317 0.02550841 -0.04470024 0.01038141 -0.022448376 -0.04316731
-0.038352825 0.016953724 -0.021448104 0.021227356 -0.014418993 -0.045130584 -0.031520274 0.03494364
-0.04647311 -0.04325093 -0.024782578 0.03762653 0.023743223 -0.025981575 0.009645104 0.037326075
-0.0093696825 -0.015697151 -0.03305383 -0.052467804 0.002111357 0.01702853 -0.04050492 0.040224086
0.035745222 -0.040600657 0.0074076233 0.04879902 -0.039058108 0.005996515 -0.037429035 0.041057926
0.038082648 0.03304437 0.011285551 -0.03201508 0.04815167 0.0079468 -0.009561706 -0.023444464

b_classifier.fcc.weight f4 [1, 1, 384]
00000000: ef95 1c3d c745 71bb 5c13 5a3d 7411 1f3d
00000010: 145f f83c 491a 64bd 92fa 53bd f79f 143d
00000020: 2c0a b9bc f706 9dbc 96ba 113d d3ea 323d
00000030: 3149 adbc 17d9 bbbb 669e 97bd 4484 8e3d
00000040: d7b4 c6bb 66e6 fa3c 786c 033c 9df9 0d3d
00000050: def5 9b3d a2cf c1bc adbb b63c 5763 26bd
00000060: 03a1 90bd fdae 88bd 02f9 d23c bf0a babc
00000070: e9af a0bc 1a07 35bd efe3 3a3c 50d0 d0bc
00000080: 1c7f 05bd 7fe3 dfbc 3319 24bd d689 0f3d
00000090: 2a48 dd3c 4f39 e63c 145a f23c 544d e33c
000000a0: 162d d93b 4070 b13c 16e9 133d 8384 873d
000000b0: 6497 c4bc cd79 aebc 2984 2c3c 9ee8 e8bc
000000c0: 0f1d 9fbd 2fc5 71bd 4d7c 7e3d 2b6c 003d
000000d0: d177 86bb 5004 3f3c 3721 1d3d 132d 023d
000000e0: 4057 c03c 76b0 d4bc aa81 e73b a064 d73b
000000f0: d160 5d3d 712b fe3c 795d c43c e8e8 2b3c
00000100: 7a8f b43c 6ee2 173c 12b0 603c 3c8b 53bd
00000110: d766 0fbd de1b b6bc 9a5e 29bd 843e 443d
00000120: 551d 773d 5705 af3c b219 c4bc dd2e 0bbd
00000130: acf1 95bd 750b 7dbc ae73 133d bfdd b8bc
00000140: 75ae afba f341 4fbd 96e2 82bc e244 59bd
00000150: 9b5e f73b 70fb 213c 87fe 903a 8e38 d43c
00000160: 1d73 243d c503 2cbc 79ed 213d f4ce 1fbd
00000170: 2b47 03bd 21a1 a8bc 0497 44bd 53f0 8abb
00000180: 3792 07bd 59d6 e03b 6e43 75bc dde0 adbc
00000190: b1d2 1bbd c0bc 6ebd 9eae 80bd 4716 0ebd
000001a0: 9d07 9e3c 5a2e 833d d2bf 533b 2b45 bf3c
000001b0: c065 95bd 7492 abbc a528 8d3d c184 11bd
000001c0: 31b5 3ebc 06cb dc3c 560e 8abc ebb4 73bc
000001d0: 3bca e63c 1b88 92bc 3089 683c e0e3 e23c
000001e0: 0c02 793c c251 01bd 39cc 9e3c 19b1 9c3c
000001f0: 1c95 e33c 8bc3 063d 5a6c a83c 7c7e 08bd
00000200: 61f7 223d d7da 033d eb76 10bd 2246 583b
00000210: d648 dfba edf3 6a3d 4ff7 8cbd b70e 873d
00000220: 428a 68bd e65c 0dbd d678 093d 2676 083d
00000230: d05c 18bd 2f9e 50bc 131e dbbc f14e b03c
00000240: b4f5 a23c 7261 cf3b 6b83 723c 0cb8 8dbb
00000250: 7a54 f2bc 25a8 ddbc 9dde 88bd c734 143d
00000260: 0fe3 613c 4b84 333d 7da0 17bd f341 2abd
00000270: b7a5 90bb 87b5 25bd fd81 353c 91e9 6abd
00000280: 301a 743d 9e76 833d 0372 6abd ec21 54bc
00000290: 1639 f3bc 1ad0 3d3d 5e1e 563d 119d 9dbd
000002a0: 4ee6 0f3d 4098 35bd 7bc0 2fbc 0cb4 153c
000002b0: 71d1 0f3c 9189 7e3c eee9 4a3d 5352 12bd
000002c0: 6cfe 1bbd 2734 b53b 5e4a 19bd 318e 483d
000002d0: 8370 12bc b9de 87bd a1a2 4fbd 9c19 a2bc
000002e0: a1c8 5bbb 542c 3e3d c160 023b 9801 85bd
000002f0: 5c3b 063d 4c32 2e3d e2ff 4fbd e974 073d
00000300: fb9c 37bd f31d 9cbc eb28 d83c 3f5c 3a3d
00000310: 331a 513c 61cf 2e3d 252c 213c a1c5 84bc
00000320: 29a2 27ba 5a19 fa3c 21a8 833d e812 0d3c
00000330: 15b9 82bd 72f5 883d 37aa 053d 6137 8cbd
00000340: 538c 363d 09b5 d6bc b071 573d 9397 0d3c
00000350: 2bd0 af3c dadc 10bb a272 933c 018b 54bd
00000360: 69c7 593d 87bf b2bc 72ca 27bd 242f b9bc
00000370: ccb5 313d f4a7 8e3c c766 82bd e29f 8ebd
00000380: 7f60 11bc c276 a3bd e25e c9bc 81fc 59bb
00000390: 5e5b e1bb c44a b63b 7d96 9fbb 6843 0cbd
000003a0: c110 69bc baaf 03bd 454a 09bd 8e43 853c
000003b0: 72e7 c9bc ad82 89bd 2f16 e43c b71c 47bc
000003c0: 83a5 883d cf6a 873c 9653 023d 154e eb3c
000003d0: 61d6 d2bc 16a7 4dbd 08dd d83b ba36 b4bb
000003e0: afb8 a1bd 4469 153d ec7d 9abd bd1b 2fbd
000003f0: e855 abbc e54a d2bc d82b 83bd 51cd 353d
0.038228925 -0.0036815272 0.05324112 0.038835004 0.030318774 -0.05568913 -0.051752634 0.036285367
-0.022587858 -0.01916836 0.035578333 0.043680977 -0.021153064 -0.0057326662 -0.07403259 0.069588214
-0.0060640383 0.03062744 0.008021466 0.034661878 0.07615255 -0.023658577 0.022306288 -0.04062208
-0.070619605 -0.06674001 0.025753502 -0.022710202 -0.01961513 -0.044196226 0.011406883 -0.025489956
-0.032591924 -0.027330158 -0.040063094 0.03504356 0.02701195 0.028103499 0.029583968 0.027746834
0.006627689 0.02165997 0.03611096 0.066170715 -0.02399797 -0.021298314 0.010529556 -0.028431233
-0.07769214 -0.05902594 0.06213026 0.031353157 -0.0041036387 0.011658743 0.038361754 0.031781267
0.023479104 -0.02596305 0.0070650177 0.0065732747 0.05404741 0.031026574 0.023970352 0.010492541
0.022041071 0.009270294 0.013713853 -0.051646456 -0.035010185 -0.022230085 -0.041349985 0.047911182
0.060330708 0.02136485 -0.023938034 -0.03398024 -0.07321486 -0.015444626 0.035998993 -0.022566674
-0.0013403433 -0.050600003 -0.015977185 -0.053044207 0.0075491196 0.0098866075 0.0011062183 0.025905874
0.040148843 -0.010498946 0.039533112 -0.039015725 -0.032050293 -0.020584645 -0.047995582 -0.0042400747
-0.033098426 0.0068614897 -0.01496969 -0.021225387 -0.038042728 -0.058285475 -0.062833056 -0.034689214
0.01929074 0.06405325 0.0032310379 0.023348412 -0.07294798 -0.020943858 0.06892518 -0.035526995
-0.011639879 0.026952278 -0.016852539 -0.014874677 0.028172603 -0.017887166 0.014192864 0.02769655
0.015198242 -0.03157211 0.01938449 0.019127415 0.027781062 0.032901328 0.020559479 -0.03332375
0.0397867 0.032191124 -0.03526966 0.0033000787 -0.0017035257 0.057361532 -0.06883108 0.065946035
-0.056772478 -0.034512423 0.033562504 0.0333158 -0.037197888 -0.012733026 -0.026747739 0.021522017
0.019892551 0.006328755 0.01480184 -0.0043249186 -0.029581297 -0.027057717 -0.06683085 0.036183145
0.013787045 0.043827336 -0.037018288 -0.0415668 -0.004414286 -0.04045632 0.011078355 -0.057351653
0.059595287 0.06419109 -0.057237636 -0.012947541 -0.029690307 0.04634104 0.052275054 -0.07695974
0.035131745 -0.04433465 -0.010727043 0.009137165 0.008777962 0.015535728 0.0495395 -0.03572304
-0.038084432 0.0055298987 -0.037424438 0.04896373 -0.008937958 -0.06634278 -0.050692204 -0.019787602
-0.0033536332 0.046428993 0.0019894096 -0.064944446 0.032771453 0.042528436 -0.05078114 0.03307048
-0.044827443 -0.01905725 0.026386699 0.04549813 0.012762594 0.04267824 0.009837185 -0.016207518
-0.0006394708 0.030529667 0.064285524 0.008610465 -0.06382958 0.0668744 0.032633033 -0.068465
0.044567417 -0.026209371 0.052598655 0.008642095 0.021461567 -0.0022104294 0.017998997 -0.051890377
0.053168688 -0.021819843 -0.04096455 -0.022605486 0.043386266 0.01741407 -0.063672595 -0.06964089
-0.008873104 -0.07981636 -0.024581376 -0.0033262076 -0.006877347 0.005563112 -0.0048702345 -0.03424397
-0.014225186 -0.032150008 -0.033518095 0.016267564 -0.024646495 -0.067143776 0.02784261 -0.012152842
0.06672194 0.016530422 0.031817995 0.028723756 -0.02573699 -0.050208174 0.006618146 -0.005499688
-0.07896554 0.036477342 -0.07543549 -0.042751063 -0.020914987 -0.025670478 -0.06404847 0.044385258
