train/init/128/128.pth (torch, 202239 bytes, 8 tensors)

i_classifier.fc.0.weight f4 [1, 128]
-0.0930133 0.04425253 -0.16518293 -0.100812376 -0.07541332 -0.09250158 -0.09343635 -0.17151068
-0.12048514 -0.07107446 -0.11448268 -0.11587649 -0.07703517 -0.14317064 -0.07789896 -0.14873941
-0.013638019 -0.12939781 0.032683875 -0.064952835 -0.067522205 -0.07853244 -0.06801288 0.0011365237
-0.099892594 -0.055933468 0.014840723 0.023565093 -0.11246908 -0.11041072 -0.15108643 -0.11859719
-0.04271996 0.020164233 -0.11327337 0.046441175 -0.11120552 -0.018152574 -0.05457088 -0.08200864
0.01982867 -0.082087465 -0.032142665 -0.10232943 -0.08556261 -0.1255435 -0.119136944 -0.03149947
-0.025256673 -0.06312867 -0.04586546 0.0010596756 -0.030470649 -0.1058045 -0.0048135407 -0.04214033
0.04139601 -0.046100333 -0.09470637 -0.02802445 -0.14261228 0.021840176 -0.08475054 -0.04960434
-0.06672748 -0.06236929 -0.15158097 -0.02570638 -0.050369017 -0.15700251 -0.022803599 -0.10091283
-0.07683535 -0.016057525 -0.07809717 -0.12501746 -0.0494356 -0.1664495 -0.09208148 -0.032438684
-0.04483413 -0.013594758 -0.07569434 -0.13434365 -0.1598207 -0.13536346 -0.09812858 -0.08608558
0.025341624 -0.06564271 -0.113622606 -0.05971545 -0.13683778 -0.08886044 -0.13029638 -0.08608144
-0.09454124 -0.1238494 -0.085230306 -0.08137206 -0.09287922 -0.008005746 -0.11026137 -0.059598003
-0.117281646 -0.029511308 -0.09528676 -0.014804889 -0.09795669 -0.02849891 0.00049835705 -0.024551677
-0.15556243 -0.07957844 -0.15336923 -0.069542594 -0.037832353 -0.15324935 -0.02252153 -0.059712432
-0.073265344 -0.009069979 0.011228821 0.034516096 -0.061581373 -0.053669643 -0.154695 0.015597226
00000000: c27d bebd 2442 353d b725 29be b876 cebd
00000010: 4c72 9abd 7871 bdbd 8f5b bfbd 7fa0 2fbe
00000020: eac0 f6bd 7d8f 91bd e575 eabd a750 edbd
00000030: 9dc4 9dbd 539b 12be 7d89 9fbd 254f 18be
00000040: ff71 5fbc dc80 04be 87df 053d fe05 85bd
00000050: 1549 8abd 9ed5 a0bd 564a 8bbd 68f7 943a
00000060: 7d94 ccbd 7e1a 65bd 8126 733c 950b c13c
00000070: 3056 e6bd 041f e2bd 67b6 1abe 15e3 f2bd
00000080: 20fb 2ebd 762f a53c defb e7bd 1a39 3e3d
00000090: b8bf e3bd b5b4 94bc b785 5fbd 25f4 a7bd
000000a0: bc6f a23c 791d a8bd 07a8 03bd 1892 d1bd
000000b0: 733b afbd 7a8e 00be 12fe f3bd 9705 01bd
000000c0: 15e7 cebc 9b49 81bd 6cdd 3bbd d0e4 8a3a
000000d0: 959d f9bc 08b0 d8bd e8ba 9dbb 579b 2cbd
000000e0: dd8e 293d b4d3 3cbd 6af5 c1bd 8893 e5bc
000000f0: f408 12be 2bea b23c b191 adbd ec2d 4bbd
00000100: 6ba8 88bd f176 7fbd 0b38 1bbe 3096 d2bc
00000110: be4f 4ebd 44c5 20be 9dce babc 63ab cebd
00000120: da5b 9dbd 128b 83bc 69f1 9fbd 9404 00be
00000130: fc7c 4abd bd71 2abe 3795 bcbd 6dde 04bd
00000140: fea3 37bd 8cbc 5ebc a205 9bbd 6291 09be
00000150: 0aa8 23be b89c 0abe a3f7 c8bd a34d b0bd
00000160: 3d99 cf3c af6f 86bd f8b2 e8bd 3098 74bd
00000170: 341f 0cbe 76fc b5bd 6a6c 05be 774b b0bd
00000180: d69e c1bd c1a4 fdbd 3a8d aebd 65a6 a6bd
00000190: 7637 bebd 882a 03bc b7d0 e1bd 091d 74bd
000001a0: 5c31 f0bd b3c1 f1bc b425 c3bd 3590 72bc
000001b0: 849d c8bd 8c76 e9bc 2da4 023a 9920 c9bc
000001c0: c24b 1fbe 05fa a2bd d30c 1dbe 596c 8ebd
000001d0: 19f6 1abd 66ed 1cbe 127f b8bc 0695 74bd
000001e0: 240c 96bd 409a 14bc 17f9 373c c060 0d3d
000001f0: c03c 7cbd b3d4 5bbd 5e68 1ebe 828b 7f3c

b_classifier.q.0.weight f4 [128, 128]
-0.033286233 0.0078103375 -0.06509138 0.036210343 0.08302768 0.09836689 0.0011481754 0.033380512
0.07334022 0.065753706 0.039158784 0.014147969 0.07541722 -0.041489094 0.025826225 0.01853867
-0.07837675 -0.022022678 0.028043093 0.02260733 0.016844664 -0.021801585 -0.016716404 0.062878646
-0.084136605 0.030301528 0.043848768 0.09387232 0.03883458 -0.05205429 0.025211902 0.019702403
0.06119718 -0.019772641 0.025315339 -0.06744768 0.059388235 0.06634297 -0.005538412 0.013054128
0.082590565 0.040408075 -0.031749863 -0.05035089 -0.01344927 0.0630235 -0.057259403 -0.019849697
-0.06849186 0.03437902 0.05575499 0.044043392 -0.0053362316 0.053239644 0.026870834 0.09120441
-0.042559188 -0.0049607195 0.08196664 0.012971697 0.063485965 -0.01635957 -0.004535351 -0.033244
0.07235402 0.0124360025 -0.073803075 0.015626403 -0.02887241 -0.0290365 0.07769426 -0.0018590229
0.04791324 -0.03243877 0.0012325898 -0.0021153137 -0.038076807 -0.026699893 0.06258425 -0.07194653
0.012057599 0.043806065 -0.07021682 -0.07971658 0.04674631 -0.034893665 -0.008667426 -0.084704526
-0.07684688 -0.082185626 -0.01777248 -0.078111045 -0.015735742 0.07571727 -0.06097067 0.07109268
-0.062126245 0.097409345 -0.059428457 0.00029061927 -0.016487874 0.08108352 0.08041315 0.06887617
-0.015742727 0.09715159 0.043146905 0.057253074 -0.08222881 0.074602485 -0.080634244 0.044911128
0.011625027 0.0752039 -0.07784511 -0.041835714 -0.013553876 -0.0044881343 -0.036471605 -0.05163229
-0.07833341 0.0043927627 -0.0011323396 0.01967666 0.0107277855 -0.024629183 0.027841797 -0.06309763
-0.054686427 0.0450377 0.080317535 0.08158809 -0.008274476 0.0013423922 0.0814457 -0.034244385
-0.034941368 -0.059169002 0.07857498 0.00072174694 0.045296714 0.063389696 -0.059745457 0.06974537
0.016212756 -0.04351524 -0.0047178743 -0.008712558 0.08355071 0.039363794 -0.06484296 0.026550177
0.06347566 0.035695184 -0.07251442 0.09779505 -0.020023253 -0.042012382 0.03756082 -0.015075255
0.032865137 0.033967376 -0.036944345 -0.07535785 0.0031620609 -0.011612834 -0.05294403 -0.05246539
0.032293957 -0.029054234 -0.06875827 0.023930896 0.10510223 0.061069828 0.034131866 -0.028602364
0.07220458 -0.007496449 -0.010222446 -0.042808447 0.0025186879 0.08958464 0.08217783 0.07561865
0.015983233 0.06784959 -0.00033029832 0.001197794 -0.062405303 -0.059149172 -0.04013244 -0.029626265
0.0034208314 0.08537324 0.02935632 0.06190125 0.08510223 -0.0058286358 0.029015237 0.08661695
-0.06012213 0.05583012 0.06354204 0.06531425 0.051547334 -0.046374615 0.03405841 -0.090354756
0.0030729591 -0.04582868 -0.068849556 0.04864486 0.019665105 0.023890726 0.067135334 0.03838537
0.045339845 -0.049322743 0.04774909 0.07861002 0.09500119 -0.048787426 0.06035904 0.09083163
-0.023676435 -0.06095919 -0.042494297 -0.04545462 -0.04125094 -0.050690807 0.053379133 -0.057679035
-0.078735024 -0.06274262 0.02485874 -0.0076542487 -0.007537718 -0.005608954 0.058491148 0.0761504
0.064205214 -0.032820217 -0.069421194 -0.012627137 -0.044821706 0.08505403 -0.04474688 0.10011596
-0.04216679 0.032031603 0.017411266 0.007208198 0.04213084 0.04617408 -0.06369719 -0.05920564
00000000: 2557 08bd dced ff3b a14e 85bd 4c51 143d
00000010: 6b0a aa3d 9474 c93d 607e 963a 01ba 083d
00000020: 6633 963d e1a9 863d f664 203d e2cc 673c
00000030: 5874 9a3d 78f0 29bd 8591 d33c 69de 973c
00000040: fd83 a0bd e768 b4bc a1ba e53c 0233 b93c
00000050: d2fd 893c 3d99 b2bc d7f0 88bc 85c6 803d
00000060: d04f acbd e93a f83c c49a 333d 2240 c03d
00000070: 0211 1f3d e136 55bd 3189 ce3c ef66 a13c
00000080: e5a9 7a3d 3cfa a1bc 1d62 cf3c 0222 8abd
00000090: 1441 733d d3de 873d 917b b5bb fbe0 553c
000000a0: 3e25 a93d f082 253d 250c 02bd bc3c 4ebd
000000b0: 545a 5cbc 7712 813d d688 6abd d59b a2bc
000000c0: 7645 8cbd 04d1 0c3d 585f 643d d866 343d
000000d0: 8edb aebb d011 5a3d 3920 dc3c 61c9 ba3d
000000e0: 8b52 2ebd 888d a2bb 20de a73d 3e87 543c
000000f0: ee04 823d 8104 86bc 489d 94bb dc2a 08bd
00000100: 582e 943d 60c0 4b3c 1126 97bd f102 803c
00000110: d585 ecbc f4dd edbc 2b1e 9f3d 75aa f3ba
00000120: ac40 443d 84de 04bd da8e a13a 13a1 0abb
00000130: 6df6 1bbd bcb9 dabc 2c2c 803d b458 93bd
00000140: 3c8d 453c fd6d 333d d6cd 8fbd 7242 a3bd
00000150: 0f79 3f3d a9ec 0ebd d201 0ebc 9179 adbd
00000160: e661 9dbd f050 a8bd 9897 91bc aff8 9fbd
00000170: 3ee8 80bc a811 9b3d 62bc 79bd 0a99 913d
00000180: 1778 7ebd 8d7e c73d 416b 73bd 425e 9839
00000190: 9411 87bc 1e0f a63d a6af a43d f30e 8d3d
000001a0: e4f6 80bc 6af7 c63d cfba 303d 3382 6a3d
000001b0: 9467 a8bd 30c9 983d 9123 a5bd bbf4 373d
000001c0: e676 3e3c 8104 9a3d 426d 9fbd ed5b 2bbd
000001d0: 1411 5ebc 3311 93bb 4063 15bd 617c 53bd
000001e0: 446d a0bd 2af1 8f3b 036b 94ba f230 a13c
000001f0: 98c3 2f3c 24c3 c9bc 7b14 e43c 5539 81bd
00000200: e0fe 5fbd 7479 383d 857d a43d a817 a73d
00000210: ab91 07bc 35f3 af3a 01cd a63d d743 0cbd
00000220: ae1e 0fbd 325b 72bd ebeb a03d 9e33 3d3a
00000230: 0c89 393d 75d2 813d a7b7 74bd a9d6 8e3d
00000240: 9dd0 843c 093d 32bd 6698 9abb 1ebf 0ebc
00000250: a21c ab3d ee3b 213d 63cc 84bd c27f d93c
00000260: 87ff 813d 1d35 123d 7182 94bd c548 c83d
00000270: ce07 a4bc 2d15 2cbd 60d9 193d 34fe 76bc
00000280: 989d 063d 6021 0b3d f452 17bd 3755 9abd
00000290: 943a 4f3b c243 3ebc d7db 58bd f3e5 56bd
000002a0: ab46 043d 2503 eebc 23d1 8cbd ba0a c43c
000002b0: d73f d73d 5b24 7a3d dbcd 0b3d 814f eabc
000002c0: ffdf 933d c6a4 f5bb 0c7c 27bc e957 2fbd
000002d0: 9210 253b 2778 b73d da4c a83d f3dd 9a3d
000002e0: 45ef 823c baf4 8a3d e42b adb9 4cff 9c3a
000002f0: b49c 7fbd 6746 72bd ea61 24bd c8b2 f2bc
00000300: 0730 603b 2ad8 ae3d aa7c f03c 2a8c 7d3d
00000310: 144a ae3d 24fe bebb 5db1 ed3c 3a64 b13d
00000320: 9f42 76bd 20ae 643d 5422 823d 7ac3 853d
00000330: 4c23 533d 4ff3 3dbd d580 0b3d ea0b b9bd
00000340: b363 493b dbb6 3bbd ff00 8dbd d53f 473d
00000350: b718 a13c 7cb6 c33c 407e 893d fa39 1d3d
00000360: 46b6 393d a506 4abd 8d94 433d 4afe a03d
00000370: fc8f c23d 53d5 47bd 0a3b 773d ef05 ba3d
00000380: 15f5 c1bc 58b0 79bd 800e 2ebd a02e 3abd
00000390: bff6 28bd 2aa1 4fbd 14a4 5a3d da40 6cbd
000003a0: d43f a1bd 347f 80bd 8ea4 cb3c 7ed0 fabb
000003b0: f6fe f6bb 51cb b7bb 6a94 6f3d bef4 9b3d
000003c0: 067e 833d 7e6e 06bd b32c 8ebd 0de2 4ebc
000003d0: f796 37bd cf30 ae3d 8148 37bd 9909 cd3d
000003e0: 16b7 2cbd 9233 033d 12a2 8e3c bf32 ec3b
000003f0: 6391 2c3d 0821 3d3d ac73 82bd 9d81 72bd

b_classifier.q.0.bias f4 [128]
0.031122813 -0.009189575 -0.03492096 -0.0680534 0.025592493 -0.054613084 0.043303154 0.049402565
0.09429159 0.073567405 -0.019237218 -0.0920016 -0.042244907 -0.04914593 -0.044364404 0.080567434
0.03861333 -0.005842563 0.061967947 -0.0032612963 0.10989273 0.06031052 -0.004811059 -0.0070330277
0.00730591 0.08067729 0.1122237 0.05407621 0.0790733 -0.08259848 0.035715688 0.08986241
-0.004401885 -0.03194692 -0.06954109 -0.006567151 -0.026072122 0.037524454 0.05968261 -0.05680142
-0.04120418 0.004668575 -0.019167028 0.036572233 0.043559857 0.078720525 0.053148124 0.06697625
0.005685216 0.085781924 -0.02107499 -0.02872698 -0.049693342 0.040901423 -0.036225945 -0.02842267
-0.017530344 -0.052479066 0.079046726 -0.033386778 0.0514584 -0.037055094 -0.051748313 -0.07289418
0.0547351 0.009638727 0.075625926 0.014453138 0.043589216 0.07001277 0.00080901704 0.0074975933
0.02609169 -0.048302803 0.013969491 -0.015996013 0.03095964 0.0041412488 0.031970352 -0.061585438
0.07166052 0.08688397 -0.079960436 0.04911457 0.08442689 0.10970402 0.07678902 -0.046608638
-0.03219077 -0.077070706 -0.043375414 -0.012107132 -0.03707376 0.041575067 0.043828845 0.015772989
0.047410745 -0.04066054 -0.056366947 0.076307565 0.0049208524 0.031620286 0.07541269 0.045108445
0.08057282 -0.0033275008 -0.030463219 -0.048363205 0.059868015 0.06208827 -0.024190834 -0.05040931
-0.07381814 0.025564432 0.037573345 0.01077749 0.10024333 0.09890747 0.011306724 -0.07065649
0.07716371 -0.0053587854 -0.025710559 -0.03824125 0.011682911 0.050066132 -0.049961988 -0.051435746
00000000: 45f5 fe3c df8f 16bc 4809 0fbd 955f 8bbd
00000010: 59a7 d13c f8b1 5fbd a65e 313d 585a 4a3d
00000020: f31b c13d 82aa 963d 5f97 9dbc 566b bcbd
00000030: ff08 2dbd 3e4d 49bd 73b7 35bd 8a00 a53d
00000040: 0329 1e3d f972 bfbb 1ad2 7d3d 79bb 55bb
00000050: 710f e13d 2a08 773d 17a6 9dbb 5075 e6bb
00000060: 6a66 ef3b 233a a53d 8ad5 e53d 047f 5d3d
00000070: 2ff1 a13d 6429 a9bd 9d4a 123d c909 b83d
00000080: b03d 90bb c6da 02bd 8f6b 8ebd 4131 d7bb
00000090: 3495 d5bc 3eb3 193d c175 743d 9ba8 68bd
000000a0: b7c5 28bd d8fa 983b 2c04 9dbc c4cc 153d
000000b0: d26b 323d 3a38 a13d d9b1 593d d82a 893d
000000c0: 0c4b ba3b 6fae af3d 75a5 acbc d854 ebbc
000000d0: 3f8b 4bbd 4088 273d a861 14bd a9d6 e8bc
000000e0: cc9b 8fbc 4af4 56bd 40e3 a13d 93c0 08bd
000000f0: 0bc6 523d 15c7 17bd 0af6 53bd 8b49 95bd
00000100: ea31 603d c0eb 1d3c c4e1 9a3d dbcc 6c3c
00000110: 9b8a 323d db62 8f3d 3714 543a 5fae f53b
00000120: 3dbe d53c 29d9 45bd 4be0 643c 120a 83bc
00000130: 129f fd3c 50b3 873b 58f3 023d 0341 7cbd
00000140: c0c2 923d 39f0 b13d 4cc2 a3bd 5c2c 493d
00000150: 01e8 ac3d 80ac e03d 9043 9d3d b3e8 3ebd
00000160: 78da 03bd 3fd7 9dbd 6baa 31bd fe5c 46bc
00000170: a8da 17bd 9e4a 2a3d e085 333d 5b36 813c
00000180: c531 423d ab8b 26bd 07e1 66bd 2447 9c3d
00000190: 1a3f a13b 4684 013d f871 9a3d a2c3 383d
000001a0: 5d03 a53d 3312 5abb 008e f9bc 7f18 46bd
000001b0: 2a38 753d 4550 7e3d db2b c6bc fe79 4ebd
000001c0: f72d 97bd 806c d13c 82e6 193d 1294 303c
000001d0: 604c cd3d 0090 ca3d d63f 393c 5ab4 90bd
000001e0: 0208 9e3d c098 afbb f39e d2bc dba2 1cbd
000001f0: ae69 3f3c 2512 4d3d f1a4 4cbd 4aae 52bd

b_classifier.q.2.weight f4 [128, 128]
-0.008098735 0.044474006 0.06878999 -0.034560535 -0.039913643 -0.030294467 -0.06954484 0.018128462
0.04310529 0.098209284 -0.014819845 -0.078234345 0.009700889 0.060361125 0.035157066 -0.06825267
0.04619253 0.03440257 0.06967962 0.08524582 0.08604423 0.009315822 0.08246091 -0.06715477
0.06273954 0.011892226 0.041597053 -0.06622099 -0.08217984 0.030894069 -0.04995108 -0.052157573
0.06835367 -0.008018581 -0.029255508 -0.0692978 -0.05683765 -0.023365581 -0.036357608 0.0051420983
0.0021399697 0.03759499 -0.039717965 0.06490639 -0.04908523 -0.0063769734 0.0014297874 -0.0028605133
0.10087968 -0.0452137 -0.046445366 -0.028476637 0.014675017 -0.06483666 0.021837253 -0.06339944
0.081998214 0.009601525 0.10358104 -0.079973236 0.06506706 -0.067903966 -0.0627913 -0.059829023
0.014231474 0.06609019 0.092343934 -0.06215975 0.066109285 0.07604665 0.052066144 -0.03192384
0.09003443 0.03915167 0.0002682007 -0.022456413 0.08290467 0.0024325368 -0.016295616 -0.029770792
0.058339078 -0.07285238 0.034583718 -0.014033411 0.055220157 0.06155822 0.03870024 -0.053289853
-0.04277474 0.08047171 -0.00070165686 0.008209818 -0.057229 0.0666088 0.09731861 -0.009712821
0.045771927 0.004493254 -0.042523216 0.060720403 0.03958411 0.055612545 0.09405107 -0.0648648
0.053095065 -0.0035737997 0.00020688593 -0.021270478 0.0090865465 0.07425695 0.08727549 0.06167509
-0.037317455 0.00836213 0.044878993 0.091063865 0.11189896 0.06821263 -0.053868525 0.08954497
0.059769634 -0.015065671 0.036044855 0.023150153 0.08745482 -0.052938685 -0.03992798 0.028854985
-0.06732942 0.038945384 0.061382126 -0.052864827 0.012545712 0.017710427 -0.060440402 -0.06920127
0.10651696 -0.014914551 0.09127726 -0.07628581 0.026718486 0.056001127 0.04795565 0.015304563
-0.06663689 0.05048743 -0.070824414 -0.015879422 0.08705788 0.02582552 -0.0010796473 -0.04195647
-0.04659607 -0.04394953 0.022203716 0.071637444 -0.07138817 0.053733364 0.07645238 -0.008562072
-0.006818273 -0.019648522 0.030417038 0.07665415 0.016889898 0.081271276 0.0044873734 -0.0692332
0.058804937 0.04825885 -0.030398866 0.021658853 0.092414975 0.0954509 0.04935379 -0.07503642
0.07643875 0.054590613 0.08676959 0.0817576 0.075911835 0.05611059 -0.060179703 -0.015479356
-0.032255057 0.035191882 -0.057741202 0.058698915 0.007116756 0.031891715 0.015079478 0.033933125
-0.033469796 0.081900306 -0.007845408 -0.06211124 0.084359266 0.01077507 0.04173426 0.068339184
0.032251656 -0.052434713 0.09450865 0.06223692 0.0022005131 -0.04619443 -0.05553799 -0.035521585
-0.027199512 -0.0295196 0.0029965458 0.03992932 0.04184783 0.09189923 0.035919726 0.06760367
0.100493245 0.020461848 0.05492869 -0.041265562 -0.06682923 0.06196315 0.018238345 -0.035206936
0.0075320136 0.036001872 -0.04449253 0.048214804 0.06382763 0.018715467 -0.017550655 0.035168685
0.032923333 0.0044654817 0.025898859 -0.057895593 -0.053165086 -0.05325607 -0.03102736 0.06116185
0.0028826485 0.06877136 0.052907377 -0.047631744 -0.007740216 -0.013454038 0.053751722 -0.052758507
0.09525617 0.009836662 -0.032309145 0.09376939 0.070921 -0.040206783 0.07881374 0.013515834
00000000: 8eb0 04bc 602a 363d c4e1 8c3d 598f 0dbd
00000010: 7d7c 23bd 1a2c f8bc 866d 8ebd 2482 943c
00000020: 2c8f 303d f321 c93d efce 72bc 5439 a0bd
00000030: 7af0 1e3c 3a3d 773d db00 103d 0ec8 8bbd
00000040: 6134 3d3d b6e9 0c3d 30b4 8e3d 5c95 ae3d
00000050: f537 b03d 64a1 183c 44e1 a83d 7188 89bd
00000060: 977d 803d 9cd7 423c ac61 2a3d df9e 87bd
00000070: e74d a8bd 8f15 fd3c 8199 4cbd 2ea3 55bd
00000080: 02fd 8b3d 5e60 03bc 3fa9 efbc 01ec 8dbd
00000090: 98ce 68bd 2d69 bfbc b7eb 14bd 0c7f a83b
000000a0: bc3e 0c3b 34fd 193d 4eaf 22bd a4ed 843d
000000b0: 980d 49bd eef5 d0bb b467 bb3a 7377 3bbb
000000c0: 019a ce3d 0032 39bd 7f3d 3ebd d647 e9bc
000000d0: 7c6f 703c 15c9 84bd 0ae4 b23c 91d7 81bd
000000e0: aeee a73d b74f 1d3c 4c22 d43d 02c9 a3bd
000000f0: e141 853d 3c11 8bbd ba98 80bd 470f 75bd
00000100: 212b 693c 4b5a 873d d11e bd3d 399b 7ebd
00000110: 4e64 873d 59be 9b3d 4f43 553d 93c2 02bd
00000120: f963 b83d 805d 203d 4a9d 8c39 83f6 b7bc
00000130: ecc9 a93d 326b 1f3b 627e 85bc e0e1 f3bc
00000140: f5f4 6e3d a133 95bd a8a7 0d3d 64ec 65bc
00000150: 882e 623d 7924 7c3d 2584 1e3d 7646 5abd
00000160: 9134 2fbd 5ace a43d 65ef 37ba 7982 063c
00000170: f568 6abd 326a 883d fb4e c73d 8622 1fbc
00000180: 587b 3b3d 253c 933b d32c 2ebd f5b5 783d
00000190: f322 223d fbc9 633d d99d c03d d6d7 84bd
000001a0: 367a 593d 6936 6abb 85ef 5839 6d3f aebc
000001b0: bddf 143c 0714 983d 7ebd b23d 059f 7c3d
000001c0: 30da 18bd 5101 093c 09d3 373d b17f ba3d
000001d0: 482b e53d 10b3 8b3d 3ea5 5cbd 5a63 b73d
000001e0: 01d1 743d 01d6 76bc c5a3 133d 64a5 bd3c
000001f0: 831b b33d 3cd6 58bd 868b 23bd 4a61 ec3c
00000200: 02e4 89bd 3285 1f3d d36b 7b3d ca88 58bd
00000210: 888c 4d3c 7515 913c 5b90 77bd 65b9 8dbd
00000220: 9025 da3d 295c 74bc 92ef ba3d bc3b 9cbd
00000230: bae0 da3c 7061 653d 256d 443d fdbf 7a3c
00000240: ec78 88bd e8cb 4e3d 640c 91bd 9015 82bc
00000250: 674b b23d 0a90 d33c f482 8dba 8cda 2bbd
00000260: 85db 3ebd 6c04 34bd 91e4 b53c a7b6 923d
00000270: f633 92bd 8417 5c3d 1193 9c3d ef47 0cbc
00000280: d26b dfbb f0f5 a0bc 272d f93c dafc 9c3d
00000290: af5c 8a3c 8e71 a63d d10a 933b 23ca 8dbd
000002a0: 72dd 703d 12ab 453d 0b07 f9bc e86d b13c
000002b0: 1044 bd3d c37b c33d 3327 4a3d b2ac 99bd
000002c0: eb8b 9c3d 689a 5f3d 41b4 b13d 8770 a73d
000002d0: aa77 9b3d 38d4 653d fe7e 76bd 209d 7dbc
000002e0: e11d 04bd 5d25 103d 0a82 6cbd 466e 703d
000002f0: ad33 e93b e3a0 023d ea0f 773c 76fd 0a3d
00000300: a017 09bd 59bb a73d 078a 00bc 5b68 7ebd
00000310: 8dc4 ac3d eb89 303c 8bf1 2a3d 6af5 8b3d
00000320: 501a 043d c8c5 56bd c08d c13d 24ec 7e3d
00000330: 7c36 103b 5f36 3dbd ce7b 63bd 157f 11bd
00000340: 83d1 debc 17d3 f1bc b261 443b ed8c 233d
00000350: a168 2b3d aa35 bc3d 9020 133d cb73 8a3d
00000360: 67cf cd3d 9b9f a73c e8fc 603d 1406 29bd
00000370: c3dd 88bd 12cd 7d3d 9568 953c 2635 10bd
00000380: 1ccf f63b b376 133d cd3d 36bd e37c 453d
00000390: 0fb8 823d 2e51 993c 64c6 8fbc 0a0d 103d
000003a0: 9eda 063d 2d53 923b d829 d43c ee23 6dbd
000003b0: a2c3 59bd 0923 5abd 172d febc d984 7a3d
000003c0: d1ea 3c3b 00d8 8c3d 68b5 583d 8119 43bd
000003d0: a3a1 fdbb 536e 5cbc c42a 5c3d 4e19 58bd
000003e0: ab15 c33d f329 213c 9856 04bd 2a0a c03d
000003f0: 073f 913d deaf 24bd 1969 a13d 8471 5d3c

b_classifier.q.2.bias f4 [128]
0.027786775 0.012241047 -0.03261754 0.09062921 0.112230524 -0.12623039 0.08336768 -0.058605205
-0.051162176 -0.04434038 -0.0706221 -0.012993074 -0.03466568 0.08474783 0.024796776 0.08621693
-0.05963627 -0.09158172 0.04666237 -0.059207868 0.046907306 0.08278412 0.042820115 -0.037818514
-0.110250175 0.07324514 -0.012470513 0.05922902 -0.07049383 -0.0503292 -0.0057319314 0.055726897
-0.03246006 -0.0020154254 -0.1214771 -0.018566472 0.014498255 0.016515406 0.026024982 -0.02787364
-0.050985277 -0.036497664 -0.028809346 -0.034424845 -0.049117193 -0.06333622 -0.0041639805 0.037949365
0.027219843 0.028510721 -0.009839365 -0.060206115 0.07783498 0.105013974 0.02003839 0.07624683
-0.08773895 -0.036076915 -0.018741125 0.09496344 -0.071072765 0.094905056 0.11619599 -0.01551826
0.0053943885 -0.029388377 0.035234585 0.08892586 0.052764893 -0.04142689 0.02173839 -0.04427884
0.01610786 0.035853397 0.09160277 -0.04616179 -0.020161284 -0.020243613 -0.02815816 -0.08286625
-0.0031782354 -0.02386328 0.077331655 -0.10257952 0.051421642 0.024938324 -0.0069240644 -0.044260748
0.08781644 -0.0075334636 0.096156746 0.08428015 0.07161902 0.036060214 0.010628034 -0.05255409
-0.041345242 -0.10521321 -0.05409258 -0.048922487 0.023201171 0.053564444 0.002511426 0.08229584
-0.114268705 -0.09169022 0.025336463 -0.00300631 0.048450965 0.07335674 0.008947673 -0.044201702
0.022407267 0.026900098 -0.04253788 0.008286555 0.074723 -0.029394075 0.10203417 0.051987275
0.078738585 0.022476599 0.03162184 -0.020207075 0.12443353 -0.01868605 0.0056806696 -0.025887579
00000000: 17a1 e33c ac8e 483c f899 05bd cf9b b93d
00000010: 1ed9 e53d 8a42 01be adbc aa3d 030c 70bd
00000020: 6e8f 51bd 429e 35bd 52a2 90bd e7e0 54bc
00000030: 9afd 0dbd 4590 ad3d 9c22 cb3c 8092 b03d
00000040: 2945 74bd 328f bbbd 0b21 3f3d f383 72bd
00000050: e021 403d b98a a93d 2564 2f3d 96e7 1abd
00000060: d8ca e1bd 8c01 963d 1f51 4cbc 219a 723d
00000070: 125f 90bd fe25 4ebd edd2 bbbb e341 643d
00000080: d7f4 04bd 3a15 04bb fcc8 f8bd b718 98bc
00000090: 178a 6d3c 514b 873c 5832 d53c 4357 e4bc
000000a0: f0d5 50bd 937e 15bd 9401 ecbc 1101 0dbd
000000b0: 1c2f 49bd 6cb6 81bd 0072 88bb cb70 1b3d
000000c0: 26fc de3c 518f e93c 4a35 21bc b09a 76bd
000000d0: f267 9f3d 9111 d73d 8d27 a43c 4c27 9c3d
000000e0: 7bb0 b3bd 63c5 13bd fd86 99bc 317c c23d
000000f0: 998e 91bd 955d c23d 2af8 ed3d 4d40 7ebc
00000100: 69c3 b03b e5bf f0bc 2452 103d c31e b63d
00000110: 0020 583d 3eaf 29bd b514 b23c bb5d 35bd
00000120: a1f4 833c 03db 123d 3c9a bb3d 2514 3dbd
00000130: 4729 a5bc efd5 a5bc f1ab e6bc c8b5 a9bd
00000140: f149 50bb ed7c c3bc 0f60 9e3d 3615 d2bd
00000150: 809f 523d 754b cc3c 43e3 e2bb c24a 35bd
00000160: 1bd9 b33d 46db f6bb d4ed c43d 129b ac3d
00000170: feac 923d e0b3 133d 3521 2e3c f542 57bd
00000180: a159 29bd 067a d7bd 2e90 5dbd f262 48bd
00000190: 6210 be3c 6466 5b3d bd96 243b b98a a83d
000001a0: b605 eabd 15c8 bbbd 6a8e cf3c 8305 45bb
000001b0: 8574 463d 0f3c 963d 4399 123c d80c 35bd
000001c0: 728f b73c 985d dc3c 333c 2ebd 55c4 073c
000001d0: 5f08 993d d8cb f0bc 4af7 d03d 9cf0 543d
000001e0: b241 a13d d820 b83c e785 013d 4f89 a5bc
000001f0: 02d7 fe3d 7d13 99bc e924 ba3b 3012 d4bc

b_classifier.v.1.weight f4 [128, 128]
0.0102168275 0.08105794 -0.056161232 -0.044276692 -0.031381093 0.030825341 -0.011358954 -0.023476101
0.012957024 0.025045576 -0.033699173 0.08051683 0.025004135 -0.028125783 0.005762577 0.0016804856
-0.061604165 -0.012050332 0.005330355 -0.057653468 -0.04094529 -0.040270504 0.05153577 -0.007454204
-0.05663663 0.06505601 -0.009664755 -0.0088034235 0.050726302 -0.0591137 0.037123762 -0.055061817
0.024334807 -0.034487594 0.011723016 0.07757662 -0.023734933 -0.055824723 -0.037728865 -0.0126337195
0.040864803 -0.049719952 -0.023477452 0.04280865 -0.036344968 0.039486192 0.0051645734 -0.049550302
-0.05236225 -0.037080076 0.0009777669 0.050271045 -0.030697174 0.067942694 0.022289285 0.05753952
0.07410826 -0.067462556 -0.016218925 0.01952676 -0.039653182 0.0054146554 -0.004162361 -0.01782061
0.030737668 -0.005929837 0.053840175 0.031101685 -0.04178794 0.0007493321 0.033364598 -0.0007947639
0.006138881 -0.045901768 -0.027636323 0.059167918 0.032938465 0.03213331 -0.02878754 0.036557313
0.008720638 0.0351805 -0.04063646 -0.014160113 -0.044266604 0.060467005 0.0019750409 0.033556428
-0.041879036 -0.020629708 -0.029808952 -0.030176166 0.004312515 -0.00043473096 -0.0095673865 0.00468925
-0.033364777 -0.05582641 0.019530268 -0.03121971 -0.0013042524 -0.061303977 0.025862604 0.06335273
0.050969537 -0.015583792 -0.05243965 0.01710459 0.0009391729 -0.02254244 -0.046865672 0.029176123
-0.044970177 -0.04974827 0.069261506 -0.0059139836 -0.07122856 -0.03332988 0.060353555 -0.053496774
-0.026108645 -0.011902381 -0.03339406 0.042657208 0.054710705 -0.024329172 -0.012191105 -0.05319486
-0.039228544 -0.08014314 -0.06803258 -0.01907172 0.10591637 0.036772523 0.06261858 0.085613705
0.015530111 -0.032831497 0.10209656 0.017130392 0.12161337 0.0840157 0.081179805 -0.0030455498
-0.025774635 -0.003513434 0.04749415 0.046304308 0.0038710858 0.08973128 -0.00802401 -0.061386175
-0.02621858 -0.01520607 0.08617691 0.102816775 -0.035966672 -0.046022404 -0.062152043 0.056624044
-0.04286203 0.071663395 0.12727787 -0.02013133 0.10906046 0.0051440173 0.07127481 0.07041466
0.03736348 0.09255396 0.054280195 0.0005689747 -0.009868702 0.024406891 -0.025793547 -0.03726418
0.07465623 -0.020999646 0.11444644 -0.063057646 0.10612005 -0.018140402 -0.012228686 0.022280322
0.06662771 0.07168414 0.06350766 0.042405616 0.048445366 -0.05258456 0.09598367 0.055029582
0.04455593 -0.010379822 0.0127613805 -0.062779844 -0.041038133 -0.04216011 0.0033708955 0.07187532
0.029172936 -0.030983986 -0.05767811 0.0118792355 0.0035792452 -0.022657908 0.08511185 -0.035009943
0.08596995 -0.041648112 -0.00063387974 0.0481003 -0.040092546 0.05336995 0.019711636 -0.08073555
0.015203011 -0.021917593 -0.059741713 -0.0026785182 0.056340892 -0.046605848 0.107512474 -0.07456127
0.09782841 0.010050581 -0.063584514 0.038020924 -0.035067417 0.010084374 0.036614757 -0.06378934
-0.003946947 0.062183533 0.10662989 0.0958067 0.04563189 -0.025331974 0.072955705 0.08889245
-0.06691135 -0.0010808075 -0.052593507 0.013153525 0.05389381 0.072270475 -0.016794678 0.08130501
0.05312944 0.063726954 0.08366153 -0.06125094 0.0036493118 0.048878867 0.06348393 -0.055228196
00000000: 7b64 273c b501 a63d 5209 66bd 7a5b 35bd
00000010: 7689 00bd 6d85 fc3c e81a 3abc f450 c0bc
00000020: b349 543c 612c cd3c 2508 0abd 02e6 a43d
00000030: 79d5 cc3c 0b68 e6bc 00d4 bc3b bd43 dc3a
00000040: a654 7cbd c16e 45bc 42aa ae3b 0b26 6cbd
00000050: 40b6 27bd aff2 24bd 2c17 533d 6542 f4bb
00000060: d0fb 67bd 163c 853d ec58 1ebc 3c3c 10bc
00000070: 62c6 4f3d 3521 72bd 160f 183d 8088 61bd
00000080: ca59 c73c dd42 0dbd e511 403c 7ee0 9e3d
00000090: c36f c2bc 77a8 64bd 9589 1abd a9fd 4ebc
000000a0: da61 273d 26a7 4bbd c953 c0bc 1f58 2f3d
000000b0: 76de 14bd 46bc 213d 953b a93b 42f5 4abd
000000c0: cc79 56bd 47e1 17bd 6a28 803a 03e9 4d3d
000000d0: a478 fbbc 8a25 8b3d 0598 b63c 8fae 6b3d
000000e0: 12c6 973d cf29 8abd 8ddd 84bc 95f6 9f3c
000000f0: 606b 22bd 6c6d b13b 6a64 88bb 87fc 91bc
00000100: 90cd fb3c 144f c2bb 8487 5c3d f6c8 fe3c
00000110: d529 2bbd d36e 443a 51a9 083d b457 50ba
00000120: ab28 c93b 7e03 3cbd 9265 e2bc 0f5a 723d
00000130: 7cea 063d 389e 033d d9d3 ebbc 1fbd 153d
00000140: 02e1 0e3c 6e19 103d 6b72 26bd d2ff 67bc
00000150: e650 35bd 40ac 773d b06f 013b 7772 093d
00000160: 5a89 2bbd a2ff a8bc e731 f4bc 0234 f7bc
00000170: ff4f 8d3b 9aec e3b9 87c0 1cbc 48a8 993b
00000180: 81a9 08bd 3caa 64bd f1fd 9f3c 7ac0 ffbc
00000190: 73f3 aaba e119 7bbd d0dd d33c 13bf 813d
000001a0: 6fc5 503d 2953 7fbc f5ca 56bd ed1e 8c3c
000001b0: d432 763a ecaa b8bc 38f6 3fbd c402 ef3c
000001c0: a632 38bd d8c4 4bbd fad8 8d3d 17ca c1bb
000001d0: 47e0 91bd ea84 08bd 4a35 773d 6f1f 5bbd
000001e0: cce1 d5bc 3402 43bc 36c8 08bd 53b9 2e3d
000001f0: 5518 603d f94d c7bc 33bd 47bc dbe2 59bd
00000200: 1cae 20bd 1622 a4bd aa54 8bbd 4c3c 9cbc
00000210: afea d83d c99e 163d 2c3e 803d 3d56 af3d
00000220: 0272 7e3c 527a 06bd 0018 d13d 0955 8c3c
00000230: 6e10 f93d 6c10 ac3d 9941 a63d d997 47bb
00000240: 5425 d3bc a441 66bb 3a89 423d 96a9 3d3d
00000250: 0bb2 7d3b 09c5 b73d 2377 03bc 1270 7bbd
00000260: 59c8 d6bc e122 79bc 857d b03d 9a91 d23d
00000270: ca51 13bd fd81 3cbd 2493 7ebd 9dee 673d
00000280: 1990 2fbd 42c4 923d 2155 023e 75ea a4bc
00000290: 175b df3d 258f a83b 87f8 913d 9035 903d
000002a0: 730a 193d ee8c bd3d e954 5e3d 3f27 153a
000002b0: 56b0 21bc f6f0 c73c fd4c d3bc 53a2 18bd
000002c0: 5ee5 983d 7307 acbc e562 ea3d 5e24 81bd
000002d0: 7855 d93d 2e9b 94bc d45a 48bc 3985 b63c
000002e0: 1c74 883d 22cf 923d 4e10 823d 83b1 2d3d
000002f0: a66e 463d e862 57bd 1693 c43d b366 613d
00000300: 4780 363d 2110 2abc 1c15 513c b892 80bd
00000310: 9a17 28bd 14b0 2cbd 3eea 5c3b 5e33 933d
00000320: 15fc ee3c 21d2 fdbc e23f 6cbd 20a1 423c
00000330: c591 6a3b 149d b9bc 1f4f ae3d 9666 0fbd
00000340: 0311 b03d 3697 2abd f32a 26ba d204 453d
00000350: 1538 24bd 739a 5a3d 4c7a a13c ae58 a5bd
00000360: 0d16 793c 868c b3bc bab3 74bd 148a 2fbb
00000370: b5c5 663d c6e5 3ebd 802f dc3d 94b3 98bd
00000380: 435a c83d 31ab 243c 9938 82bd d4bb 1b3d
00000390: daa2 0fbd ee38 253c 5bf9 153d fca3 82bd
000003a0: 6455 81bb 29b4 7e3d c660 da3d 4e36 c43d
000003b0: 81e8 3a3d 0085 cfbc cd69 953d 3f0d b63d
000003c0: d108 89bd e2a9 8dba 4a6c 57bd e281 573c
000003d0: c1bf 5c3d 8b02 943d fe94 89bc 3e83 a63d
000003e0: 419e 593d 4783 823d bc56 ab3d 44e2 7abd
000003f0: 4b29 6f3b 3535 483d dd03 823d f636 62bd

b_classifier.v.1.bias f4 [128]
-0.042453684 0.048821587 0.06765925 -0.058206093 0.08699971 0.004916722 -0.05440069 0.049709443
-0.026894856 -0.077874765 0.029537221 0.03437242 0.023112947 -0.008504496 -0.006188419 -0.014644028
0.08620393 0.058724746 0.06473999 -0.0043551205 -0.04423605 0.08039798 0.067806244 0.03755611
0.040310018 0.022012057 0.07232671 -0.019131796 0.034362666 -0.07432164 0.054943725 0.06964795
-0.012115479 0.02956254 -0.010068194 0.07454143 0.06777834 -0.016617676 0.03658556 0.022607045
-0.031960394 -0.030092053 -0.0689653 0.036681984 -0.055429615 0.06895549 -0.06571282 -0.016462732
-0.04720862 0.06506528 0.00018037444 -0.0025156487 -0.04438522 -0.019353941 0.07790162 -0.023994273
0.104165934 -0.011693687 0.020200882 0.041823417 0.041431945 0.0522779 0.05849635 0.052814696
-0.0014216264 -0.075593255 -0.070494264 0.00032471243 -0.030481055 0.0070692548 0.035847396 0.01591242
-0.033642326 0.08843439 -0.07235059 -0.04769955 -0.05012471 0.022129396 -0.0789518 0.06739845
0.014994764 -0.031769484 0.009642224 -0.043234047 0.01767775 0.026155585 -0.05428936 0.020850657
0.07520225 0.08110944 -0.010817778 0.055265374 -0.057296094 -0.038693734 -0.08004532 -0.07882995
0.029451953 -0.0093772905 0.07829537 0.06906868 0.0003659862 0.05105357 -0.083712794 0.08683177
0.058690086 -0.060719844 -0.061956294 -0.04729347 0.08630924 -0.052348357 0.014369423 0.017387277
-0.0021605114 -0.03575258 0.025188407 0.06661222 0.06974218 0.00532374 -0.046505608 0.042448703
0.065502636 -0.05178638 -0.056126595 -0.05813999 -0.0206987 0.026518168 -0.06525235 -0.008616336
00000000: eae3 2dbd 25f9 473d ef90 8a3d 8369 6ebd
00000010: e72c b23d 741c a13b 42d3 5ebd 219c 4b3d
00000020: 9a52 dcbc ce7c 9fbd 0bf8 f13c 18ca 0c3d
00000030: 5d57 bd3c 7156 0bbc 39c8 cabb 81ed 6fbc
00000040: b08b b03d 5c89 703d 6696 843d 66b5 8ebb
00000050: dc30 35bd b2a7 a43d 00de 8a3d 70d4 193d
00000060: 1e1c 253d a152 b43c 0720 943d 49ba 9cbc
00000070: debf 0c3d f235 98bd ac0c 613d 96a3 8e3d
00000080: 0180 46bc 242d f23c 11f5 24bc 2da9 983d
00000090: 5fcf 8a3d cb21 88bc bdda 153d 6932 b93c
000000a0: e7e8 02bd 9c83 f6bc ae3d 8dbd d93f 163d
000000b0: 2a0a 63bd 8938 8d3d 7194 86bd dadc 86bc
000000c0: d35d 41bd f240 853d e522 3d39 95dd 24bb
000000d0: 47cd 35bd 288c 9ebc e28a 9f3d a38f c4bc
000000e0: f354 d53d e196 3fbc 527c a53c 084f 2b3d
000000f0: 8bb4 293d 5a21 563d de99 6f3d 3954 583d
00000100: de55 baba a3d0 9abd 4c5f 90bd 2a3e aa39
00000110: 68b3 f9bc 35a5 e73b b8d4 123d c35a 823c
00000120: 89cc 09bd 171d b53d 8c2c 94bd 9a60 43bd
00000130: 914f 4dbd b548 b53c 7bb1 a1bd 3308 8a3d
00000140: 99ac 753c b820 02bd 6bfa 1d3c 2f16 31bd
00000150: eed0 903c 3d44 d63c 855e 5ebd ffce aa3c
00000160: a303 9a3d b51c a63d 0d3d 31bc f25d 623d
00000170: 4faf 6abd 527d 1ebd cdee a3bd 9971 a1bd
00000180: 3945 f13c 35a3 19bc 5359 a03d e173 8d3d
00000190: d6e1 bf39 8c1d 513d 9d71 abbd dbd4 b13d
000001a0: 0465 703d 5fb5 78bd e2c5 7dbd ccb6 41bd
000001b0: e6c2 b03d 3b6b 56bd ba6d 6b3c c36f 8e3c
000001c0: 5e97 0dbb 4c71 12bd eb57 ce3c fd6b 883d
000001d0: fdd4 8e3d c572 ae3b aa7c 3ebd b1de 2d3d
000001e0: 3f26 863d f51d 54bd 00e5 65bd 3324 6ebd
000001f0: 5290 a9bc a13c d93c 06a3 85bd 882b 0dbc

b_classifier.fcc.weight f4 [1, 1, 128]
0.014907936 -0.09424641 0.07910863 -0.025485557 -0.05041614 0.04574441 0.0053275432 0.08981905
0.074432395 -0.06331183 -0.024884813 0.07975972 0.049797367 0.025780633 -0.08377553 -0.04287516
-0.038964394 0.03511579 0.077647254 -0.04997665 -0.034883395 -0.018836746 0.07071859 0.03142391
0.09022051 0.0016811813 -0.06370216 -0.03491801 -0.055470895 0.090577304 -0.0528865 0.020510558
0.013867398 -0.030987408 0.07109153 -0.008209421 0.050179064 0.070828445 -0.023231624 -0.065987445
-0.074948676 -0.041031644 0.034922067 0.033197213 0.047438182 0.017797582 -0.026965346 0.04448833
0.026622215 -0.033618342 0.07326488 5.5570617e-06 0.030768294 -0.053981815 -0.044634044 0.030075043
0.06262113 0.068844825 0.04204555 0.097173385 -0.076451525 0.05158783 -0.08790414 -0.08790781
-0.05696882 -0.04451031 -0.08162167 -0.024302153 -0.024896756 -0.092812695 0.07350422 -0.028689701
0.07321104 -0.045703612 -0.015249881 0.041500494 -0.089622885 0.014482448 0.08548825 -0.044084977
-0.012909485 -0.09849612 0.089938335 0.005828456 -0.023033185 -0.011439032 -0.08334462 0.03499257
0.033921357 0.015083835 -0.041359182 -0.03902665 -0.08311155 -0.10205279 0.002481817 -0.05854415
0.06547331 -0.05752935 0.025113035 -0.022991806 -0.035985984 -0.08389644 -0.0056697177 0.08986982
-0.077303395 0.07805171 -0.08069619 0.08817194 0.04330273 0.0023951088 -0.012503708 -0.016955104
-0.004018719 -0.0827511 -0.05086171 0.06959212 -0.031337768 0.058722444 0.07668728 0.050377302
-0.0665334 -0.08715009 -0.06196049 -0.09943198 -0.015509263 -0.030102499 0.07545418 -0.085127234
00000000: 6a40 743c 4304 c1bd b503 a23d 16c7 d0bc
00000010: 2881 4ebd 7e5e 3b3d ac92 ae3b 0df3 b73d
00000020: 0370 983d a2a9 81bd 3cdb cbbc 1059 a33d
00000030: 53f8 4b3d e831 d33c 8192 abbd dd9d 2fbd
00000040: 2199 1fbd 93d5 0f3d 8605 9f3d 51b4 4cbd
00000050: e4e1 0ebd 854f 9abc e8d4 903d 5cb6 003d
00000060: 88c5 b83d 155b dc3a 4776 82bd 3006 0fbd
00000070: 7335 63bd 9880 b93d 849f 58bd c205 a83c
00000080: 1534 633c 4ed9 fdbc 7098 913d cf80 06bc
00000090: 9088 4d3d 810e 913d 3f50 bebc 6d24 87bd
000000a0: b17e 99bd cc10 28bd 710a 0f3d cdf9 073d
000000b0: 8a4e 423d 3ccc 913c 6ee6 dcbc 6539 363d
000000c0: d516 da3c 63b3 09bd e60b 963d cc76 ba36
000000d0: ca0d fc3c 091c 5dbd 30d2 36bd f05f f63c
000000e0: 823f 803d 84fe 8c3d f437 2c3d d702 c73d
000000f0: 9e92 9cbd c34d 533d 1607 b4bd 0309 b4bd
00000100: 2358 69bd 7150 36bd 4329 a7bd 4f15 c7bc
00000110: 48f4 cbbc 9514 bebd 6189 963d aa06 ebbc
00000120: abef 953d b633 3bbd a3da 79bc 6cfc 293d
00000130: 348c b7bd ca47 6d3c 7714 af3d 7392 34bd
00000140: 4e82 53bc 55b8 c9bd 9731 b83d a2fc be3b
00000150: 17b0 bcbc c76a 3bbc 96b0 aabd 5e54 0f3d
00000160: 1ff1 0a3d 3122 773c 3f68 29bd 69da 1fbd
00000170: 6336 aabd 0e01 d1bd fba5 223b fecb 6fbd
00000180: df16 863d e5a3 6bbd dab9 cd3c 5059 bcbc
00000190: 0a66 13bd e6d1 abbd 0ac9 b9bb ab0d b83d
000001a0: 3e51 9ebd 93d9 9f3d 0b44 a5bd 7d93 b43d
000001b0: 345e 313d 42f7 1c3b 5adc 4cbc 6ee5 8abc
000001c0: 75af 83bb 6979 a9bd 5e54 50bd 5086 8e3d
000001d0: 085c 00bd f286 703d 380e 9d3d 6e58 4e3d
000001e0: aa42 88bd bf7b b2bd 48ca 7dbd fea2 cbbd
000001f0: 901a 7ebc 8499 f6bc b987 9a3d 3057 aebd
