train/init/128/32.pth (torch, 90879 bytes, 8 tensors)

i_classifier.fc.0.weight f4 [1, 128]
0	0xbd8c1f35	-0.0684189
1	0xbdc72856	-0.0972449
2	0xbd23a960	-0.03995645
3	0x3d53dc31	0.051723663
4	0x39a19bec	0.00030824484
5	0xbcf19b3e	-0.02949297
6	0xbc463bc9	-0.012099215
7	0x3c560a4f	0.013063981
8	0xbdb3fa43	-0.08787968
9	0xbda4951a	-0.08036251
10	0xbd902483	-0.07038214
11	0xbdd18a94	-0.1023151
12	0xbd85aa6a	-0.065266445
13	0xbce2c88e	-0.027683523
14	0xbbd745e8	-0.006569613
15	0x3d35fcc4	0.04443051
16	0xbd3b9ca2	-0.045803674
17	0xbdbc93d8	-0.092078865
18	0xbdabbe3f	-0.08385896
19	0x3d4c1df6	0.04983326
20	0xbcd24934	-0.025669672
21	0x3d6a972e	0.057273082
22	0x3ab05611	0.0013453384
23	0xbdc0b2f3	-0.09409132
24	0x3d4a5329	0.049395714
25	0xbd0c13bc	-0.034198508
26	0xbd3c5fc7	-0.045989778
27	0x3c8fbb47	0.017545355
28	0x3d4fe45c	0.05075489
29	0xbd211a0e	-0.03933149
30	0xbd9bd569	-0.07609064
31	0xbd803390	-0.06259835
32	0xbc23cc17	-0.009997389
33	0xbc72e381	-0.014824749
34	0xbd82387c	-0.0635843
35	0x3d77c8ca	0.06049422
36	0xbd73597c	-0.05941151
37	0x3c32b2fc	0.010906931
38	0x3d722079	0.059113
39	0xbd89975c	-0.06718323
40	0xbc7371e2	-0.014858695
41	0x3d45f174	0.04832597
42	0x3d8f06ea	0.06983741
43	0xbc330263	-0.010925862
44	0xbc44d79b	-0.012014295
45	0x3ca0d6be	0.019633647
46	0xbdbd3b96	-0.09239881
47	0x3ac0ee75	0.0014719503
48	0xbd9b2b4a	-0.07576616
49	0x3c6c92a7	0.0144392615
50	0x3d1ea0c7	0.038727548
51	0x3d1d49d0	0.03840047
52	0xbcd29cbb	-0.0257095
53	0xbdad264a	-0.08454569
54	0xbd1e4644	-0.03864123
55	0x3d3a177e	0.04543256
56	0x3d355715	0.0442725
57	0xbcf69c2d	-0.030103767
58	0xbcc41727	-0.023936821
59	0xbd62dfbd	-0.055389155
60	0xbc66dff0	-0.014091477
61	0xbdb992b7	-0.09061187
62	0xbc07c53a	-0.008286769
63	0xbdb92853	-0.09040894
64	0xbd322e1f	-0.043501016
65	0xbda88af5	-0.08229629
66	0x3bcbd256	0.0062201424
67	0xbcb4c57a	-0.02206682
68	0x3c9abd6c	0.018889152
69	0xbd8aa323	-0.06769397
70	0xbd566621	-0.05234349
71	0x3d33d6a6	0.043905877
72	0xbda58bb7	-0.08083289
73	0x3d30d2c9	0.04316977
74	0xbdcf14fc	-0.10111424
75	0x3d8b2056	0.06793277
76	0xbda7f8d7	-0.08201759
77	0xbd3997b8	-0.045310706
78	0xbdb5e443	-0.08881428
79	0x3d2e4250	0.04254371
80	0xbcebb362	-0.02877206
81	0x3d8ea39f	0.06964802
82	0x3ccea625	0.025225708
83	0xbc381fcc	-0.01123805
84	0x3d6f0bbd	0.058360804
85	0xbc25e7cc	-0.010126065
86	0xbd98e125	-0.07464818
87	0x3ca010d2	0.01953927
88	0x3d214691	0.039373938
89	0x3d0224ac	0.031773254
90	0xbda3231c	-0.07965681
91	0x3c801729	0.015636044
92	0xbd6b1ba4	-0.057399407
93	0xbd92e295	-0.07172123
94	0x3c0bb331	0.008526609
95	0xbd48bfe1	-0.049011115
96	0xbd6ffef5	-0.058592755
97	0xba12750a	-0.0005586898
98	0x3c3aa08d	0.011390817
99	0xbd39c843	-0.045357
100	0x3cf58fe8	0.029975846
101	0xbd418d85	-0.047254104
102	0xbdc0d02f	-0.09414708
103	0xbb9e4fce	-0.004831291
104	0x3d82cb39	0.06386418
105	0xbd2565b6	-0.040380202
106	0xbdaefc05	-0.08544163
107	0xbd62b370	-0.055346906
108	0x3d8b73e7	0.06809216
109	0xbcf34a61	-0.029698553
110	0xbc88e9b7	-0.016713006
111	0xbda4c7b6	-0.08045904
112	0xbdd8b191	-0.10580743
113	0x3d172b46	0.036906503
114	0xba0539cb	-0.0005082159
115	0xbc410081	-0.011779905
116	0xbd30aaae	-0.043131523
117	0x393c70f7	0.0001797116
118	0x3d68e35c	0.05685745
119	0xbd978046	-0.07397513
120	0xba1e200b	-0.00060319965
121	0xbcd2a0fb	-0.025711527
122	0xbda0ba97	-0.07848089
123	0x3d28fa78	0.04125449
124	0x3d0e63fe	0.03476333
125	0x3cc3a118	0.023880526
126	0x3d4eae03	0.05045892
127	0xbd015bd7	-0.031581726

b_classifier.q.0.weight f4 [32, 128]
0	0x3da9d82c	0.08293185
1	0xbc9cec0a	-0.019155521
2	0x3ba6c2de	0.005089148
3	0xbd71b43c	-0.059009776
4	0x3bf59a40	0.0074951947
5	0xbd568dec	-0.05238144
6	0xbd8a5a9a	-0.06755562
7	0x3d3b3cfd	0.04571246
8	0x3d3059fe	0.043054573
9	0x3ba3f616	0.005003701
10	0x3d76d372	0.060260244
11	0x3da829f3	0.08211126
12	0x3d0dcf1a	0.034621336
13	0x3cac37f9	0.021022784
14	0xbccef79d	-0.025264556
15	0xbcf29772	-0.02961323
16	0x3d57e163	0.05270518
17	0x3d2daa62	0.042398818
18	0xbced5811	-0.028972657
19	0x3c195def	0.009360774
20	0xbd998578	-0.0749616
21	0x3d90c7f5	0.07069389
22	0xbc02e406	-0.007988935
23	0x3d1a3796	0.037650667
24	0x3bd92175	0.006626303
25	0xbb4470bf	-0.0029974428
26	0x3d19e7ae	0.037574463
27	0x3d3135aa	0.04326407
28	0x3d36d93f	0.044640776
29	0x3d83a8b0	0.06428659
30	0xbdb899ad	-0.09013686
31	0x3d31b5a3	0.043386113
32	0xbdad4a83	-0.084614776
33	0x3dadbe12	0.08483519
34	0x3d0156a3	0.031576764
35	0x3cebf817	0.028804822
36	0xbd1be46d	-0.03805964
37	0xbcd0e12c	-0.025497995
38	0xbc2ef455	-0.0106783705
39	0x3d4db7e2	0.050224192
40	0x3d431462	0.04762686
41	0x3d9e947a	0.077431634
42	0x3d0ad6ac	0.033896133
43	0x3dafbabf	0.08580541
44	0x3d83a2d3	0.06427541
45	0x3d97ac66	0.07405929
46	0x3d54ff1d	0.052001107
47	0x3cbf308f	0.023338584
48	0x3d266e74	0.04063268
49	0x3d8e6c9d	0.0695431
50	0xbce97fa4	-0.028503247
51	0x3cb370ec	0.021904431
52	0x3c90f418	0.017694518
53	0x3c83cde6	0.016089391
54	0xbcd306e7	-0.025760127
55	0xbca936c1	-0.020655992
56	0xbd8d1f66	-0.068907544
57	0x3d4aa4da	0.04947362
58	0xbd71539d	-0.05891763
59	0xbd2a086c	-0.041511938
60	0xbda1504e	-0.07876645
61	0xbd345a1d	-0.04403125
62	0xbd16d544	-0.03682448
63	0x3d523868	0.051323324
64	0xbd9bd51b	-0.07609006
65	0x3d0f0905	0.03492071
66	0xbca1e429	-0.019762116
67	0xbc5da0b7	-0.013527087
68	0x3da1385f	0.0787208
69	0x3da7c976	0.081927225
70	0xbd5782d4	-0.052615
71	0xbd1540d3	-0.036438774
72	0x3d501f2e	0.050810985
73	0xbc1cb046	-0.009563511
74	0xbbdecbfd	-0.0067992196
75	0x3cd2c9c8	0.025730982
76	0x3d02e3ea	0.031955637
77	0xbd330d90	-0.043714106
78	0xbc8c9c56	-0.01716439
79	0x3b28d77f	0.0025763211
80	0xbdac24ca	-0.084054545
81	0xbcbfb0e8	-0.023399785
82	0xbd974ad9	-0.07387323
83	0x3d4b8f5d	0.04969727
84	0xbc595be3	-0.013266536
85	0xbd72b24a	-0.05925206
86	0x3cd15dd9	0.025557445
87	0xbccad602	-0.02476025
88	0xbc2cc2e8	-0.010544516
89	0x3c70eeb1	0.014705346
90	0x3d002c12	0.03129203
91	0xbb4820c2	-0.0030537103
92	0x3d0744dd	0.033024658
93	0x3da05d80	0.07830334
94	0x3c90c0cd	0.01767006
95	0xbd76bdfc	-0.060239777
96	0x3aa15f95	0.0012311811
97	0xbb401943	-0.0029311932
98	0x3d2c4f81	0.04206801
99	0x3cd6c519	0.02621703
100	0x3cc2a372	0.023759577
101	0xbd03d2c9	-0.032183442
102	0xbcb4f7c0	-0.022090793
103	0xbc253746	-0.010083979
104	0xbcd899a5	-0.02644045
105	0x3d9e8402	0.07740022
106	0x3d4ce523	0.05002321
107	0xbd7cfd4b	-0.061764996
108	0x3d5ecb6f	0.05439323
109	0xbd603dbc	-0.054746374
110	0xbbb8906e	-0.0056324517
111	0xbda023d7	-0.07819336
112	0xbd763cdc	-0.060116634
113	0xbd656b32	-0.056010433
114	0x3d7dc937	0.06195947
115	0xbd9bad5b	-0.07601424
116	0xbdad51cc	-0.08462867
117	0xbdac7aff	-0.08421897
118	0xbd536369	-0.051608477
119	0x3cf47ed3	0.02984563
120	0x3d096760	0.03354585
121	0xbd8416f0	-0.064496875
122	0x3cee83d9	0.029115604
123	0xbd03739c	-0.032092676
124	0x3d8d8b24	0.069113046
125	0xbd1c2250	-0.03811866
126	0xbd8e14ae	-0.06937538
127	0x3d808707	0.062757544
128	0x3c27ba30	0.010237262
129	0x3ca7de0a	0.020491619
130	0x3c781bb3	0.015143323
131	0x3c18d808	0.00932885
132	0xbd178d15	-0.03699978
133	0xbcd67024	-0.02617652
134	0x3cbd21ee	0.023087468
135	0x3b9edd3e	0.0048481515
136	0xbc2625f4	-0.010140885
137	0xbd4f7b7e	-0.05065488
138	0x3ca79bb5	0.02045999
139	0xbb944656	-0.0045249863
140	0xbabedfeb	-0.0014562582
141	0xbc73a5b0	-0.014871046
142	0x3d06bed6	0.03289684
143	0x3beac0a8	0.0071640797
144	0xbced6e16	-0.028983157
145	0x3cab0504	0.020876415
146	0x3af9d857	0.0019061667
147	0xbd5d97a3	-0.05409969
148	0x3c2566d0	0.010095313
149	0x3cfd4bb7	0.030919893
150	0x3c6d9b3d	0.014502344
151	0xbd80dba5	-0.06291894
152	0xbd72f519	-0.059315775
153	0x3d7fd307	0.06245711
154	0xbd204483	-0.039127838
155	0x3bdaf46f	0.006681971
156	0xbd8c0725	-0.068373
157	0xbd10b9ee	-0.035333566
158	0x3a263a2b	0.0006341065
159	0x3cdd50fb	0.027016154
160	0x3d3ec7b4	0.04657717
161	0x3cc6caa2	0.024266545
162	0xbc4a6b2d	-0.012354654
163	0xbd1cbebf	-0.038267847
164	0x3d7901df	0.0607928
165	0xbb62dff0	-0.003461834
166	0x3d026a8d	0.031839896
167	0xbd158afe	-0.036509506
168	0xbcce27c7	-0.025165452
169	0x3c9283b6	0.01788507
170	0x3d164a90	0.036692202
171	0xbd582fd3	-0.052779984
172	0x3d82de0c	0.06390008
173	0xbc2abaff	-0.01042056
174	0x3d321e68	0.04348603
175	0x3d453da4	0.04815449
176	0xbd3c1469	-0.045917902
177	0xbaa4f2e4	-0.0012584594
178	0x3d4f0268	0.050539404
179	0xbc957727	-0.018245293
180	0xbd85b9d2	-0.06529583
181	0x3c8b4450	0.017000347
182	0x3c2b4bdc	0.010455098
183	0xbd79d631	-0.060995284
184	0xbc5e44cf	-0.01356621
185	0xbcbb5c3f	-0.022871135
186	0xbd638f10	-0.055556357
187	0xbd8aa5a9	-0.067698784
188	0x3d52b207	0.05143931
189	0xbd88a241	-0.066715725
190	0xbd86d239	-0.065830655
191	0xbcd5122b	-0.02600964
192	0xbcb6bad3	-0.022305882
193	0xbc0dd84c	-0.008657526
194	0xbd69421e	-0.05694782
195	0x3c655bbc	0.013998922
196	0xbd6d497d	-0.057931412
197	0x3d275c32	0.04085941
198	0x3c04ce41	0.008105815
199	0xbd375fef	-0.044769224
200	0x3cb1c7b9	0.02170168
201	0xbccc1b7e	-0.024915453
202	0xbd48700b	-0.048934978
203	0x3c98249e	0.018572148
204	0xbd011f65	-0.03152408
205	0x3c2a5882	0.0103970785
206	0xbd48b2ce	-0.048998646
207	0xbce4d441	-0.027933242
208	0xbcbdff06	-0.023192894
209	0xbd816d6e	-0.063197
210	0xbd847d84	-0.06469253
211	0xbcee7ec6	-0.029113185
212	0x3d955e0f	0.07293331
213	0xbd36ea72	-0.04465718
214	0xbce4b4bf	-0.027918218
215	0xbc999f23	-0.01875264
216	0xbc7eaf27	-0.015544689
217	0xbd1286e2	-0.035773166
218	0x3d4b5bc3	0.049648058
219	0xbd0e84c4	-0.034794584
220	0xbd5d3c99	-0.05401287
221	0x3a9323d2	0.0011225885
222	0xbd48e97e	-0.0490508
223	0xbd0e6693	-0.03476579
224	0x3c2fe286	0.01073516
225	0xbcbc2500	-0.022966862
226	0xbd8e757c	-0.06956002
227	0x3be887d4	0.00709627
228	0xbbd6c967	-0.0065547707
229	0xbd71e9d4	-0.059060887
230	0xbd4cb4c4	-0.04997708
231	0xbd5565a2	-0.052098878
232	0x3b8edce8	0.00435983
233	0xbce60a57	-0.028081102
234	0x3d372241	0.0447104
235	0xbcd79e76	-0.026320677
236	0x3c87b660	0.016566455
237	0xbc2bca9b	-0.010485317
238	0x3d7cf2ce	0.061754994
239	0x3d95f051	0.07321227
240	0xbd35e480	-0.044407368
241	0x3daabf6a	0.083372906
242	0x3bdfb94e	0.00682751
243	0x3d54dd5e	0.051968925
244	0xbd17dfc3	-0.03707863
245	0x3d45bde6	0.048276804
246	0x3cfa7035	0.030571083
247	0xbd1fe419	-0.03903589
248	0x3d7816a2	0.06056846
249	0xbd0e66c7	-0.034765985
250	0xbd607c6f	-0.05480617
251	0x3bd56c79	0.006513175
252	0x3ce75dd0	0.028242975
253	0xbc4ff7e3	-0.012693378
254	0x3badf6b0	0.0053089485
255	0xbd8f5645	-0.069988765

b_classifier.q.0.bias f4 [32]
0	0xbcea7a90	-0.028622895
1	0xbce83ade	-0.028348383
2	0xbd96c805	-0.073623694
3	0xbd5f88a6	-0.054573677
4	0x3c4ca83e	0.012491284
5	0x3c44206b	0.01197062
6	0x3d811725	0.063032426
7	0xbd5d8908	-0.05408576
8	0x3c851608	0.016245857
9	0xbd6d1014	-0.05787666
10	0xbd3ba7bf	-0.045814272
11	0x3bc80482	0.006104053
12	0xbd928e5d	-0.0715606
13	0x3d7e7afe	0.062129013
14	0x3d483e9f	0.048887845
15	0xbceeed89	-0.029166
16	0x3cacda27	0.021100117
17	0xbcfdb009	-0.03096773
18	0x3cdaa2b0	0.026688904
19	0x3d98117e	0.07425211
20	0x3d511dfb	0.051053982
21	0x3d2020ba	0.03909371
22	0x3cbb91db	0.022896698
23	0xbd30cbbc	-0.043163046
24	0xbda0a01c	-0.078430384
25	0xbc4fbca5	-0.012679254
26	0x3d161e7a	0.03665016
27	0x3d6f3181	0.05839682
28	0xbd78d026	-0.06074538
29	0x3ccf41cb	0.025299927
30	0x3ce85bc3	0.028364068
31	0xbd60fb36	-0.054927073

b_classifier.q.2.weight f4 [32, 32]
0	0xbde4ddcd	-0.11175118
1	0xbda9cfa7	-0.0829156
2	0xbdaef515	-0.085428394
3	0xbe293f8f	-0.16528152
4	0xbe10d0ab	-0.141421
5	0x3db3f979	0.087878175
6	0x3c2c3f42	0.010513129
7	0x3de1c27b	0.11023422
8	0xbe3665ff	-0.17812346
9	0xbd949283	-0.072545074
10	0x3e2b1ea1	0.16710903
11	0x3ca061df	0.019577919
12	0xbdd4682d	-0.103714325
13	0xbba69135	-0.005083228
14	0xbc972e4c	-0.018454693
15	0xbcce689d	-0.025196368
16	0xbc10ba1f	-0.008833437
17	0xbe16fe78	-0.1474551
18	0xbd96f123	-0.07370212
19	0xbc81b169	-0.015831666
20	0xbdbc384d	-0.09190426
21	0xbdfd1f3e	-0.123594746
22	0x3d55c69d	0.052191366
23	0x3dc40d76	0.0957288
24	0xbd96802f	-0.07348668
25	0xbe1a4fc0	-0.15069485
26	0xbe0bd345	-0.13654812
27	0xbe1fc066	-0.15600738
28	0x3d2a3b3a	0.04156039
29	0xbe2924c9	-0.16517939
30	0xbdbe6656	-0.09296863
31	0x3e1270b7	0.1430081
32	0x3d878d4b	0.06618746
33	0x3d10ca79	0.035349343
34	0xbd8d5395	-0.06900708
35	0x3e05e90a	0.13077179
36	0x3d4f8133	0.050660323
37	0xbc425c1c	-0.011862781
38	0x3e241c32	0.1602638
39	0x3d2c3337	0.04204103
40	0x3dfe28b7	0.124101095
41	0x3e091866	0.13388214
42	0xbd95cd86	-0.07314591
43	0xbdf5f0dc	-0.12008831
44	0xbd3eba23	-0.046564233
45	0xbc16d4fb	-0.009206052
46	0x3d7cd850	0.06172973
47	0xbe22013b	-0.15820782
48	0x3dc326de	0.09528898
49	0xbe2876d0	-0.16451573
50	0x3e0107fe	0.12600705
51	0xbdd60633	-0.10450401
52	0x3bee1247	0.0072653624
53	0xbdc75752	-0.09733452
54	0xbca5bb11	-0.020230802
55	0x3baf5b62	0.00535147
56	0x3d1d38ab	0.03838412
57	0xbd75b949	-0.059991155
58	0x3e1d2d2c	0.15349263
59	0xbdeb6aec	-0.11495003
60	0xbe20704d	-0.1566784
61	0xbe35e4d3	-0.17763071
62	0xbe25d52d	-0.16194601
63	0xbdb0d3fb	-0.08634182
64	0xbd7c067e	-0.06152963
65	0x3de26393	0.110541485
66	0xbc36b23c	-0.011150893
67	0xbd425014	-0.04743965
68	0xbdad5e9e	-0.084653124
69	0x3dfa4f93	0.12222209
70	0x3de82c47	0.1133657
71	0x3d8068e0	0.06270003
72	0x3db84ff3	0.08999624
73	0x3dbf2896	0.09333913
74	0xbd5d5d0c	-0.054043815
75	0x3e253590	0.16133714
76	0x3d93d4b8	0.07218307
77	0xbe2265af	-0.15859102
78	0xbd1370e3	-0.03599633
79	0xbde7f1ea	-0.11325438
80	0xbe01bfac	-0.12670773
81	0xbdb79d0b	-0.089655004
82	0xbe1c3d7e	-0.15257832
83	0xbd69beda	-0.057066776
84	0xbdcab723	-0.09898212
85	0xbe22717a	-0.158636
86	0xbe0e6185	-0.13904388
87	0x3dfba2b0	0.122868896
88	0xbd9b0ddd	-0.075710036
89	0xbdef586c	-0.11686787
90	0x3d93a0bb	0.07208391
91	0xbe0ef959	-0.13962306
92	0xbd0c210d	-0.034211207
93	0x3e01eccd	0.12687989
94	0xbcc64912	-0.024204765
95	0x3cfd41e9	0.030915217
96	0x3c6105a3	0.013734254
97	0x3c35fdcc	0.011107873
98	0x3da0244a	0.078194216
99	0x3dbe62bc	0.09296176
100	0x3df2ac98	0.11849326
101	0xbddb247b	-0.107003175
102	0xbe2fb101	-0.17157365
103	0xbe2c0654	-0.16799289
104	0x3e1ec6ba	0.15505496
105	0x3c84936f	0.016183583
106	0x3c4f77fd	0.012662885
107	0xbe186b26	-0.14884624
108	0x3d59a7e5	0.053138632
109	0xbd8d81d8	-0.06909531
110	0xbc1feee1	-0.009761543
111	0xbd1a4502	-0.037663467
112	0x3c04057b	0.008057947
113	0xbe2e86d7	-0.17043625
114	0xbd0b0e18	-0.033948988
115	0x3dccab85	0.09993652
116	0x3ca9bf70	0.020721167
117	0x3c73eaaf	0.014887496
118	0x3e22fc11	0.15916468
119	0x3d1f2e56	0.03886255
120	0x3df88e26	0.12136488
121	0x3d8c429a	0.06848641
122	0xbdcc87d2	-0.09986843
123	0x3dc9f0fc	0.09860417
124	0xbbd88db4	-0.006608689
125	0xbe09ac4e	-0.13444635
126	0xbb87d6d8	-0.0041454844
127	0x3d6adddb	0.057340484
128	0x3e14d219	0.14533271
129	0x3e17d4b8	0.1482724
130	0x3c3bb713	0.0114572225
131	0xbd1caffa	-0.03825376
132	0xbdedad64	-0.11605337
133	0x3d0759de	0.03304469
134	0x3e0e4e2c	0.13897008
135	0x3cd3ee1b	0.025870373
136	0x3d9b97d1	0.07597316
137	0x3e07a309	0.13245787
138	0x3e2d2d80	0.16911888
139	0xbd3b64a7	-0.045750286
140	0xbdde327a	-0.108494714
141	0xbcb23cf9	-0.02175759
142	0xbd9d22a6	-0.07672624
143	0xbd08b41a	-0.033374883
144	0x3d8aab0b	0.06770905
145	0xbe2426f5	-0.16030486
146	0x3e0c886a	0.13723913
147	0xbdeafd78	-0.114741266
148	0xbbcdda99	-0.0062821624
149	0xbe32e615	-0.17470582
150	0xbe2cddd0	-0.1688149
151	0xbdde4e79	-0.10854811
152	0x3d9b77a9	0.07591183
153	0xbe0dd572	-0.13850954
154	0x3dc5a46d	0.09650502
155	0x3d3d79c2	0.046258695
156	0x3d656713	0.056006502
157	0xbd9c0e0b	-0.07619866
158	0xbaacb768	-0.0013177218
159	0xbe262115	-0.16223557
160	0x3e24cb74	0.16093236
161	0xbd8489aa	-0.0647157
162	0xbd98b4c5	-0.07456354
163	0x3dc5ff17	0.09667795
164	0xbdd3a0a4	-0.10333374
165	0xbcc5158a	-0.024058122
166	0xbe0f8d3a	-0.14018717
167	0xbe07098b	-0.13187234
168	0xbe30764d	-0.17232628
169	0xbe1ec73b	-0.15505688
170	0xbc3a45d8	-0.011369191
171	0x3d7afd58	0.061276764
172	0x3d47b2b3	0.048754405
173	0xbdb17639	-0.08665127
174	0xbe251295	-0.1612037
175	0xbd8c4bf9	-0.06850428
176	0xbd036233	-0.032076072
177	0xbde17860	-0.11009288
178	0xbddbd5b9	-0.10734124
179	0xbda35edf	-0.079770796
180	0xbd13aac5	-0.03605153
181	0x3d84f890	0.06492722
182	0x3d148665	0.03626098
183	0xbc0dcb3d	-0.008654413
184	0x3e1d239a	0.15345612
185	0x3d1707a5	0.036872525
186	0xbdb2519e	-0.087069735
187	0x3d377f6e	0.04479926
188	0xbd3fea0a	-0.046854056
189	0xbcd59c8e	-0.026075628
190	0xbd4051c4	-0.046952978
191	0x3d2b1b8b	0.041774314
192	0xbde65a09	-0.112476416
193	0xbd42f891	-0.047600333
194	0xbc9613e0	-0.018320024
195	0xbdf10577	-0.117686205
196	0x3dd2bb5e	0.10289644
197	0xbdef3249	-0.11679513
198	0x3e2d2beb	0.16911285
199	0x3d6f2f3c	0.058394656
200	0x3e035fbc	0.12829489
201	0xbd82add1	-0.06380809
202	0x3e34a57b	0.17641251
203	0x3cf48f3b	0.029853454
204	0x3e260583	0.1621304
205	0xbe02fe02	-0.12792209
206	0x3d5bf173	0.05369706
207	0xbca80eb2	-0.02051482
208	0x3df6c7e3	0.12049844
209	0x3e152979	0.14566602
210	0x3dd9d35b	0.10636016
211	0x3d59293d	0.053017844
212	0xbd9d6b31	-0.07686461
213	0x3d861cc4	0.06548455
214	0x3e16531d	0.14680143
215	0xbd28b9ee	-0.04119294
216	0x3cf76f1e	0.030204352
217	0xbe1ea426	-0.15492305
218	0x3d360158	0.044434875
219	0x3e3b5712	0.18294933
220	0xbb5f712f	-0.0034094562
221	0x3d91bf33	0.071165465
222	0xbdead549	-0.11466462
223	0x3ca01116	0.019539397
224	0x3e0d58e8	0.13803446
225	0x3d458ee6	0.04823198
226	0xbe250e7b	-0.16118805
227	0xbdfce8c6	-0.123490855
228	0xbd6a1737	-0.057151046
229	0xbe0fd55e	-0.14046237
230	0x3dab7410	0.083717465
231	0x3cf22cc9	0.02956237
232	0xbe0a6e43	-0.13518624
233	0x3e1f93a4	0.15583664
234	0xbcef04e3	-0.029177135
235	0xbd6f091e	-0.058358304
236	0x3de61567	0.11234551
237	0x3d2889d9	0.041147087
238	0xbd4d4533	-0.05011482
239	0xbdc9d045	-0.098541774
240	0x3dc4b7a3	0.096053384
241	0x3e1ef236	0.15522084
242	0x3b3969b4	0.0028291764
243	0xbd914772	-0.07093705
244	0x3cc2c2fd	0.023774618
245	0xbe25af3d	-0.1618013
246	0xbb8eeaf0	-0.004361503
247	0x3d7b8bf1	0.061412755
248	0xbd713afd	-0.058894146
249	0xbdeb8a34	-0.115009695
250	0xbe1f29aa	-0.15543237
251	0xbd1573a7	-0.036487248
252	0xbd27fc47	-0.041012075
253	0x3b78270d	0.0037865073
254	0x3e06cf71	0.1316507
255	0xbdb3018e	-0.08740531

b_classifier.q.2.bias f4 [32]
0	0xbd5c3d06	-0.053769134
1	0xbd8b08d4	-0.06788793
2	0x3dbe0054	0.09277406
3	0xbdcc60d8	-0.09979409
4	0x3c24dee8	0.010062911
5	0xbdff0445	-0.12451986
6	0x3df09f11	0.117490895
7	0xbd0c96be	-0.034323446
8	0xbded6ce6	-0.11593036
9	0x3b8b2396	0.0042461855
10	0xbe2e230a	-0.17005554
11	0xbd3733f8	-0.044727296
12	0x3d9dcced	0.07705102
13	0x3d3d28d1	0.046181504
14	0xbb98e240	-0.004665643
15	0x3c096919	0.008386874
16	0x3dde4727	0.10853415
17	0xbde789d9	-0.11305589
18	0xbd9ffa01	-0.07811356
19	0xbdd8e19f	-0.10589909
20	0x3bbf4aab	0.0058377585
21	0xbe0d952d	-0.13826437
22	0x3c0bb424	0.008526836
23	0x3da780c9	0.08178861
24	0xbdfe5333	-0.12418213
25	0x3dc6139e	0.096717104
26	0xbb1a758c	-0.0023568599
27	0x3d355d65	0.04427852
28	0x3d5b6d3c	0.05357097
29	0x3e068a2b	0.13138644
30	0xbdbc66c8	-0.091992915
31	0x3e1affc5	0.15136631

b_classifier.v.1.weight f4 [128, 128]
0	0x3c6ae56c	0.014336925
1	0xbda5ed6f	-0.081019275
2	0x3b4ea62b	0.003153215
3	0x3d132710	0.035925925
4	0xbc1da98b	-0.009622942
5	0xbd2c3828	-0.042045742
6	0xbd014b64	-0.03156604
7	0x3d8395f2	0.06425084
8	0xbd07b593	-0.033132147
9	0x3da4209e	0.08014034
10	0xbd0d1266	-0.034441374
11	0x3d53357d	0.051564682
12	0xbc2fed73	-0.010737765
13	0xbd7ad835	-0.061241347
14	0x3d584d4e	0.0528081
15	0x3d982657	0.07429188
16	0x3d86b27f	0.06577014
17	0xbd3415b1	-0.043966
18	0x3d1455fd	0.036214817
19	0xbd6d071e	-0.057868116
20	0xbd79885f	-0.06092107
21	0x3d86b88e	0.0657817
22	0x3d45caeb	0.04828922
23	0x3d2e3319	0.0425292
24	0xbd323b30	-0.043513477
25	0x3cbe25cf	0.023211388
26	0xbd91c1ad	-0.07117019
27	0x3d9e3197	0.07724302
28	0xbd8fe8e3	-0.070268415
29	0x3d0662e1	0.032809142
30	0x3d3a0000	0.045410156
31	0xbb721212	-0.003693704
32	0xbdb97704	-0.090559036
33	0x3d8f0878	0.06984037
34	0xbd3fb63d	-0.046804655
35	0xbd5a756c	-0.05333464
36	0xbca0d758	-0.019633934
37	0xbdc61ef2	-0.09673871
38	0xbdb98fef	-0.09060656
39	0xbdae9580	-0.085246086
40	0x3d54dddd	0.051969398
41	0x3c9bf4d3	0.01903764
42	0x3d8e351f	0.06943726
43	0x3d95e358	0.07318753
44	0x3d2078ac	0.03917758
45	0xbdbb0638	-0.091320455
46	0xbd518b5b	-0.05115829
47	0xbd3cd406	-0.04610064
48	0xbac0d502	-0.0014711919
49	0x3b91c498	0.0044484846
50	0x3cba839f	0.02276784
51	0x3d1c528e	0.038164668
52	0xbdb35f68	-0.08758432
53	0x3d826d18	0.06368464
54	0xbcec1a4d	-0.028821135
55	0xbcb028f2	-0.0215039
56	0xbd2ade2b	-0.041715782
57	0x3d40182e	0.04689806
58	0xbd2ebbc2	-0.04265953
59	0x3d32789d	0.043572057
60	0x3d45c3b2	0.048282333
61	0x3d4b8cc3	0.049694788
62	0x3d99454e	0.07483922
63	0x3d75850e	0.059941344
64	0xbdb03a73	-0.08604898
65	0x3d53d8f4	0.051720574
66	0xbc9226a3	-0.017840689
67	0x3d6aae2b	0.057295006
68	0x3d948b41	0.07253123
69	0xbd93e2d5	-0.07220999
70	0xbae6c6ea	-0.0017606888
71	0xbbe11990	-0.0068695024
72	0xbc536f11	-0.012904898
73	0x3ce4ccdd	0.027929718
74	0xbc3d11e7	-0.011539913
75	0x3d3bc464	0.04584159
76	0xbcc15ef7	-0.023604853
77	0xbbb5d1e0	-0.0055487007
78	0x3d77bec2	0.060484655
79	0xbb495146	-0.0030718609
80	0x39cce77a	0.00039082376
81	0x3d59e4e0	0.053196788
82	0xbbdf8fe7	-0.0068225744
83	0xbdb085a4	-0.0861924
84	0x3c51c012	0.012802141
85	0x3b09c750	0.002102334
86	0xbd1a91ff	-0.03773689
87	0x3d4a5b77	0.049403634
88	0x3ce2b7e4	0.027675577
89	0x3d8742da	0.06604548
90	0xbc7922cf	-0.015206053
91	0xbb6220ea	-0.0034504482
92	0xbd6b62ec	-0.057467386
93	0xbd7e4c42	-0.062084444
94	0x3d572e30	0.052534282
95	0xbd90d68a	-0.0707217
96	0xbc99d765	-0.018779466
97	0xbc9c40b6	-0.019073825
98	0xbc74150a	-0.014897594
99	0xbd88301e	-0.066498026
100	0x3d9ba576	0.075999185
101	0x3c9a8ac2	0.018864993
102	0x3cb59e04	0.022170074
103	0xbd0925c3	-0.033483278
104	0xbcee9e03	-0.02912808
105	0x3d83cb86	0.064353034
106	0xbdc177b1	-0.094466574
107	0x3cdbe680	0.02684331
108	0xbdb7e861	-0.0897987
109	0xbba7640e	-0.005108363
110	0x3d397013	0.045272898
111	0xbcc6492f	-0.024204819
112	0xbd1daee0	-0.038496852
113	0xbd92d338	-0.07169193
114	0x3b9f90c6	0.0048695533
115	0xbda89b3c	-0.082327336
116	0x3d0f9fcd	0.035064507
117	0xbd38bcd3	-0.04510195
118	0xbcd5fe72	-0.026122306
119	0x3cf53d8e	0.029936578
120	0xbc965b71	-0.01835415
121	0x3c0276e3	0.007962915
122	0x3d678253	0.05652077
123	0xbd875699	-0.06608314
124	0xbd6c3b87	-0.057673957
125	0xbd9b919a	-0.07596131
126	0x3d05b22b	0.032640617
127	0x3c80e055	0.01573197
128	0xbdbcde2d	-0.09222064
129	0xbc05876d	-0.008149964
130	0xbd1d0cea	-0.038342394
131	0x3d454359	0.04815993
132	0x3d388205	0.04504587
133	0xbdae696c	-0.085162014
134	0xbd8e8b30	-0.06960142
135	0x3cc16a1d	0.023610169
136	0xbda0b47a	-0.07846923
137	0x3d8f261d	0.069896914
138	0xbd66ed29	-0.056378517
139	0xbc974199	-0.018463897
140	0x3d4ba4f3	0.049717855
141	0xbc9cf6fb	-0.019160738
142	0x3d7db79f	0.061942693
143	0x3d408c57	0.04700884
144	0xbb6abce5	-0.0035818156
145	0xbd821a65	-0.063526906
146	0xbd6472f0	-0.055773675
147	0xbd892118	-0.06695765
148	0x3b8479dd	0.0040428475
149	0xbd86a03a	-0.065735295
150	0xbd9a22e4	-0.07526186
151	0xbd0328d9	-0.032021377
152	0x3d41b455	0.04729112
153	0x3c6d65b7	0.014489583
154	0x3d7c336f	0.06157249
155	0x3ca0c4dc	0.01962512
156	0x3d694bb2	0.056956954
157	0x3d4bfa29	0.04979912
158	0x3d93aa16	0.07210176
159	0xbd8063a8	-0.06269008
160	0x3d926875	0.0714883
161	0x3b77fc39	0.0037839545
162	0x3cc0085c	0.023441486
163	0x3d9d0667	0.07667237
164	0xb90cecd0	-0.0001343966
165	0x3c3e512e	0.011616034
166	0x3b09bcf2	0.0021017161
167	0x3b6f652f	0.0036528816
168	0x3d24b3c4	0.0402105
169	0xbda5a968	-0.08088952
170	0x3d038d65	0.032117266
171	0xbb23983e	-0.002496257
172	0xbdcaa480	-0.09894657
173	0xbd0a2ef7	-0.033736195
174	0xbce4f48f	-0.027948646
175	0xbcde8037	-0.027160747
176	0xbd07cc71	-0.033153955
177	0xbd6ed570	-0.05830902
178	0x3d729939	0.059228156
179	0x3ca16bfd	0.019704813
180	0x3d710ba4	0.058848992
181	0xbd7a0f4a	-0.061049737
182	0xbd9e5a9c	-0.07732126
183	0xbc70245d	-0.014657107
184	0x3d2cbebb	0.042174082
185	0x3b393671	0.002826121
186	0x3c8b522a	0.017006952
187	0xbd015d49	-0.031583104
188	0xbd914e17	-0.070949726
189	0x3cd15ad1	0.025556
190	0x3d6228a9	0.055214558
191	0xbdcd2613	-0.10017028
192	0xbd28da25	-0.041223664
193	0x3d814cf9	0.063135095
194	0xbcf630f9	-0.030052649
195	0xbdc8f0df	-0.098115675
196	0xbd9fd924	-0.07805088
197	0xbd82d9e0	-0.063892126
198	0x3c3e7b53	0.0116260825
199	0xbd97c7c9	-0.07411153
200	0x3d8da09f	0.06915402
201	0x3d85c001	0.065307625
202	0x3d14385c	0.03618656
203	0xbd6bb85f	-0.057548877
204	0x3a7f7cea	0.00097460917
205	0xbbf77bf3	-0.0075526177
206	0xbcd82f93	-0.026389873
207	0xbd87f17c	-0.06637856
208	0xbd5a6187	-0.053315666
209	0xbdb7db11	-0.089773305
210	0xbd995e7c	-0.074887246
211	0x3d827218	0.06369418
212	0xbb91199b	-0.0044281012
213	0x3d07caf6	0.033152543
214	0x3d2b0f4e	0.041762643
215	0xbc5a528b	-0.013325344
216	0x3d1d0f8d	0.03834491
217	0xbd18ad63	-0.03727473
218	0xbd14c599	-0.036321256
219	0xbc00049e	-0.007813601
220	0x3d22b911	0.039727274
221	0x3d2bd029	0.041946564
222	0xbda98a0b	-0.08278283
223	0xbda6682b	-0.08125337
224	0xbd86d960	-0.0658443
225	0x3b85c032	0.0040817494
226	0xbc930888	-0.017948404
227	0x3d182c26	0.03715148
228	0x3d665745	0.05623557
229	0xbcc60f27	-0.024177147
230	0x3d27f8d6	0.041008793
231	0x3c0cb0cd	0.0085870745
232	0xbdcc6ab4	-0.099812895
233	0xbd3895be	-0.04506468
234	0x3d2bf4d5	0.041981537
235	0x3d1454d2	0.036213703
236	0x3d82130e	0.06351291
237	0x3d0dcdf2	0.034620233
238	0x3d8abfca	0.06774862
239	0x3d6ed541	0.058308844
240	0xbd8aa53b	-0.067697965
241	0x3d094fc7	0.033523347
242	0xbc9097c9	-0.017650502
243	0x3d9261b3	0.07147541
244	0x3cad7e04	0.021178253
245	0xbcd98714	-0.026553668
246	0xbdaf543d	-0.08560989
247	0x3ca04ac7	0.019566907
248	0xbd026e9b	-0.031843763
249	0xbc98fbc0	-0.018674731
250	0xbca8c7e6	-0.020603132
251	0x3d432542	0.047642954
252	0xbd0a572e	-0.033774547
253	0xbd7fdd33	-0.06246681
254	0xbda8eca8	-0.082482636
255	0xbd789aa6	-0.06069436

b_classifier.v.1.bias f4 [128]
0	0x3cdf41f3	0.027253127
1	0xbd8e4b51	-0.06947959
2	0x3b37775b	0.0027994725
3	0xbcd395c8	-0.025828257
4	0xbbc39f8c	-0.005969947
5	0xbd0e1043	-0.034683477
6	0xbd9bd180	-0.07608318
7	0xbdbee97c	-0.09321877
8	0x3cb5878c	0.02215936
9	0x3d345c85	0.044033546
10	0x3af0e48c	0.0018378659
11	0xbdb17fc1	-0.08666945
12	0xba048f3f	-0.0005056746
13	0xbccbb309	-0.024865644
14	0x3d5a1a28	0.0532476
15	0xbd922893	-0.07136645
16	0x3d4b9fe3	0.049713027
17	0xbc6243d9	-0.013810121
18	0xbd65b286	-0.056078456
19	0xbd278297	-0.040896025
20	0xbdc85733	-0.09782257
21	0x3cbfb4e6	0.023401689
22	0x3c824438	0.01590167
23	0x3d4534e6	0.04814615
24	0x3dbfc950	0.09364569
25	0x3d221bab	0.039577167
26	0xbc9e5998	-0.019329831
27	0x3d8ba9d7	0.06819504
28	0x3c235f7e	0.009971498
29	0x3d4631e5	0.048387427
30	0xbbeda0c5	-0.0072518312
31	0x3b2fedf3	0.002684471
32	0xbbaef9c4	-0.005339833
33	0x3d5d4d14	0.054028586
34	0xbd26a45a	-0.04068408
35	0xbda43a0a	-0.080188826
36	0x3cfe0691	0.03100899
37	0xbd92ccf5	-0.07167999
38	0xbc312d83	-0.0108140735
39	0x3d5227d1	0.051307503
40	0xbc8aab13	-0.016927278
41	0x3d2867bc	0.041114554
42	0x3da69ecd	0.081357576
43	0xbd9af5ed	-0.07566438
44	0xbd5317a9	-0.051536236
45	0xbd4f3ba7	-0.050594
46	0xbdc2d0cf	-0.09512483
47	0xbd77df47	-0.06051567
48	0xbd638f1b	-0.055556398
49	0xbd1464ff	-0.03622913
50	0xbdc74c4e	-0.09731351
51	0x3c4cd4ef	0.012501939
52	0x3c77f0b9	0.015133076
53	0xbd326c45	-0.043560285
54	0xbc996a8c	-0.018727563
55	0x3c848659	0.016177343
56	0xbd35edd4	-0.044416264
57	0x3d9555ea	0.072917774
58	0xbc06e19b	-0.0082324995
59	0x3dc45d69	0.09588129
60	0x3baf5a4e	0.0053513413
61	0x3d6cc1a2	0.05780185
62	0x3d9fc05a	0.0780036
63	0x3caf3597	0.021387858
64	0xbdbc10ef	-0.09182917
65	0xbc87764d	-0.016535902
66	0x3d78ead5	0.06077083
67	0xbce8f696	-0.028437894
68	0xbd53f502	-0.05174733
69	0xbca4f8a3	-0.02013809
70	0xbacca73d	-0.0015613806
71	0xbd2c60e7	-0.0420846
72	0xbd7d553e	-0.06184887
73	0xbd2595eb	-0.040426176
74	0xbc803e38	-0.015654668
75	0xbc3d777e	-0.011564134
76	0x3adf88e3	0.0017054345
77	0xbb3342ff	-0.0027353165
78	0x3d336b69	0.043803606
79	0x3dbec1b0	0.09314287
80	0xbcf8a64d	-0.030352736
81	0xbdb9abe3	-0.09065988
82	0x3dad20dd	0.08453534
83	0x3d5bfad2	0.053705998
84	0x3dc52367	0.09625893
85	0xbd2434f5	-0.040089566
86	0x3cce8ccf	0.025213627
87	0xbd258f57	-0.040419903
88	0xbd95257f	-0.072825424
89	0xbdbcfbd8	-0.09227723
90	0x3d3c9c40	0.04604745
91	0xbd90a24e	-0.07062207
92	0xbd9fc188	-0.07800585
93	0xbdbeca5d	-0.093159415
94	0xbd186fe0	-0.037216067
95	0x3ca38955	0.019962946
96	0x3d9e8697	0.07740515
97	0xbda6d1bc	-0.081454724
98	0x3d1e11a3	0.03859104
99	0xbd57c731	-0.052680198
100	0xbd08d24b	-0.033403676
101	0xbc5b6068	-0.013389684
102	0x3d5cfcea	0.053952135
103	0x3da15539	0.07877583
104	0xbd9e7ecc	-0.07739028
105	0x3dcbb3b0	0.09946382
106	0x3a0403f5	0.000503599
107	0x3ca2facf	0.019894985
108	0x3d55ea18	0.052225202
109	0x3b98b35f	0.0046600546
110	0xbcd2b4ce	-0.02572098
111	0x3d392877	0.045204606
112	0x3d4758d0	0.048668683
113	0x3d472e5e	0.048628204
114	0x3d80ee26	0.06295423
115	0x3d8212f1	0.06351269
116	0x3da72bed	0.08162675
117	0xbc8163b9	-0.015794622
118	0x3b353a47	0.0027653144
119	0x3d9c376c	0.076277584
120	0x3daca9be	0.08430813
121	0xbdbf603e	-0.093445286
122	0x3cfe9d52	0.031080876
123	0xbb9842fc	-0.004646657
124	0x3c5e0013	0.013549822
125	0xbd41813b	-0.047242384
126	0x3daabd67	0.08336907
127	0x3caccaf6	0.021092873

b_classifier.fcc.weight f4 [1, 1, 128]
0	0x3a945dab	0.0011319419
1	0x3d5f614b	0.054536145
2	0x3d177659	0.0369781
3	0x3ca5813a	0.020203222
4	0xbdb40de6	-0.087917134
5	0xbd4df228	-0.050279766
6	0x3cdd5637	0.02701865
7	0x3ba07032	0.004896187
8	0xbd91be64	-0.07116392
9	0xbdbd3680	-0.09238911
10	0xbcc5fed9	-0.024169372
11	0x3c96f52a	0.01842745
12	0xbd4c13a1	-0.049823407
13	0x3c998cc0	0.018743873
14	0x3cf94a42	0.030430917
15	0x3bd37867	0.006453562
16	0xbd47732b	-0.048693817
17	0xbd91f321	-0.07126451
18	0x3d547c2a	0.051876225
19	0x3d364421	0.044498567
20	0x3d415007	0.04719546
21	0x3c8e110c	0.017342113
22	0xbc8c301d	-0.017112786
23	0x3d22a2e5	0.03970613
24	0xbdc74980	-0.09730816
25	0xbd7b4739	-0.06134722
26	0x3da0a618	0.0784418
27	0x3c952be1	0.0182094
28	0x3d164d67	0.03669491
29	0xbd807a80	-0.06273365
30	0xbd8cde0a	-0.06878288
31	0xbd285421	-0.041095857
32	0xbcb95f3b	-0.022628417
33	0x3c493403	0.012280467
34	0x3c726fdb	0.014797176
35	0x3c3a697a	0.011377687
36	0x3d9ef78c	0.077620596
37	0xbd414c6f	-0.047192033
38	0x3d2a6bec	0.04160683
39	0x3d8151ca	0.06314428
40	0x3c76a915	0.015054961
41	0xbcdb5d4a	-0.026777882
42	0xbcd07789	-0.025447624
43	0x3bb96f54	0.0056590233
44	0x3d0891db	0.033342224
45	0x3d8f5b46	0.06999831
46	0x3d01d458	0.031696647
47	0xbdc041b8	-0.09387535
48	0xbdae5cc2	-0.08513786
49	0xbdab4b99	-0.083640285
50	0x3d4837ca	0.04888133
51	0xbcaa9926	-0.02082498
52	0xbce39ab3	-0.027783727
53	0x3d337e50	0.043821633
54	0x3d940f2a	0.07229455
55	0xbd5c63fb	-0.053806286
56	0xbd12d4b6	-0.03584739
57	0x3c604061	0.013687224
58	0x3d79695f	0.060891505
59	0xbd8b7b8f	-0.06810676
60	0xbcfcfe75	-0.030883053
61	0xbd4bdd25	-0.049771447
62	0x3bd6235d	0.0065349774
63	0x3d33ed0f	0.04392725
64	0x3c80c844	0.015720494
65	0x3d694ab4	0.056956008
66	0x3d083110	0.033249915
67	0xbcb5fbc9	-0.022214787
68	0xbc76d317	-0.015064976
69	0xbd72b4ce	-0.05925446
70	0x3cad2f4c	0.021140717
71	0xbd274c74	-0.040844396
72	0x3be1be45	0.006889137
73	0xbd696e5c	-0.056990013
74	0x3c1532c1	0.009106339
75	0x3cdbf470	0.026849955
76	0xbcebaf78	-0.028770193
77	0x3d1ebdd6	0.03875526
78	0x3d6eadd9	0.058271263
79	0xbd902e7e	-0.07040118
80	0xbcec1a18	-0.028821036
81	0x3d9dbfe2	0.07702614
82	0xbd8ba94d	-0.06819401
83	0xbd034f6f	-0.032058176
84	0xbdc3689e	-0.095414385
85	0xbdae34bb	-0.08506151
86	0xbcac34a0	-0.021021187
87	0x3d025af1	0.03182501
88	0xbc354331	-0.011063383
89	0xb98b4048	-0.0002656004
90	0x3d40f8b7	0.047112193
91	0xbc37e226	-0.011223352
92	0x3d3a38e2	0.045464404
93	0x3d772d3f	0.060345884
94	0x3cdb7eb8	0.026793823
95	0xbd2d5891	-0.04232079
96	0xbdbec484	-0.09314826
97	0xbaa7781b	-0.0012776883
98	0xbda56e26	-0.0807765
99	0xbd24d603	-0.04024316
100	0x3d4ae84d	0.049537946
101	0x3d4689b0	0.048471153
102	0xbdc29d79	-0.09502692
103	0x3d9440ca	0.0723892
104	0x3d800be9	0.06252272
105	0xbcb9b111	-0.02266744
106	0xbc20f55c	-0.009824123
107	0xbdb366fd	-0.08759878
108	0x3cc2b2ee	0.023766961
109	0x3cdb4296	0.02676515
110	0xbda7c49a	-0.08191796
111	0xbd57349b	-0.052540403
112	0xbcd99d9b	-0.02656441
113	0x3bff1c50	0.0077853575
114	0xbd36deb8	-0.044645995
115	0xbcc6b6c0	-0.024257064
116	0xbdb57c72	-0.08861627
117	0xbd8b5ee5	-0.06805209
118	0xbd7e7e68	-0.06213227
119	0x3d563b00	0.05230236
120	0xbd9f6151	-0.077822335
121	0x3d65e2df	0.056124564
122	0x3d11190e	0.035424285
123	0x3d4823b9	0.048862193
124	0x3d208370	0.03918785
125	0x3cf3285b	0.029682329
126	0xbbe8cf87	-0.0071048173
127	0xbb75028e	-0.0037385556
