train/init/128/64.pth (torch, 119807 bytes, 8 tensors)

i_classifier.fc.0.weight f4 [1, 128]
0	0xbd804a6b	-0.06264194
1	0x3d37e554	0.04489644
2	0xbc9b2607	-0.018939031
3	0x3d469c06	0.04848864
4	0xbd70ff37	-0.05883714
5	0xbc00fcdd	-0.007872787
6	0xbd8ef166	-0.06979637
7	0xbaafd7c7	-0.0013415747
8	0x3c960e25	0.018317292
9	0xbd783958	-0.060601562
10	0xbc3bfb31	-0.011473463
11	0x3d90a5d7	0.070628814
12	0x3d3333f6	0.043750726
13	0x3baa1855	0.005190889
14	0xbc33d104	-0.010975126
15	0x3d3a694c	0.045510575
16	0x3d14bbf7	0.03631207
17	0xbc897a2d	-0.01678189
18	0xbc027c2e	-0.007964177
19	0x3c4a869a	0.012361193
20	0x3d265d2b	0.040616196
21	0xbcbd9564	-0.023142524
22	0xbdc3079f	-0.09522938
23	0x3bcbc8d0	0.006219007
24	0xbda48fee	-0.08035265
25	0x3b570b69	0.0032813197
26	0x3cae1f91	0.021255286
27	0x3d8f6bae	0.0700296
28	0xbd738bfa	-0.059459664
29	0x3c90a0c2	0.01765478
30	0xbd55499c	-0.052072152
31	0xbdb48e0b	-0.08816155
32	0x3d81e1c0	0.063418865
33	0x3d27b6b9	0.040945742
34	0xbb991ed2	-0.0046728635
35	0xbd25ac32	-0.04044742
36	0x3d5aadba	0.053388335
37	0x3d60360a	0.054739036
38	0xbccb76d8	-0.024836943
39	0xbd879934	-0.06621018
40	0xbdb694c0	-0.089150906
41	0xbdc651a3	-0.0968354
42	0xbd2dc44e	-0.04242354
43	0xbdc2f95b	-0.09520217
44	0xbdbb9031	-0.09158362
45	0xbd949d07	-0.07256513
46	0xbabe91de	-0.0014539321
47	0x3d714926	0.05890765
48	0xbc898284	-0.016785868
49	0x3d8a9584	0.06766799
50	0xbd473fe3	-0.04864491
51	0xbbbf23cb	-0.0058331243
52	0x3cd6e5b6	0.026232582
53	0xbda342e2	-0.07971741
54	0x3d5eae82	0.054365642
55	0xbd8d0df9	-0.06887431
56	0x3d203b34	0.03911896
57	0x3d29186a	0.04128305
58	0xbdd31c14	-0.1030809
59	0xbd682b59	-0.056681965
60	0x3d83dd18	0.06438655
61	0x3d233abc	0.039850935
62	0xbcb89282	-0.022530798
63	0xbd098e74	-0.03358312
64	0x3d0f8736	0.035041057
65	0xbc613c65	-0.013747309
66	0xbc97d7fd	-0.018535608
67	0xbdc5b82e	-0.0965427
68	0xbd9faa01	-0.077960975
69	0xbd9cff91	-0.07665933
70	0x3d58f2f7	0.052966084
71	0xbd4a9574	-0.049458936
72	0x3d244a69	0.040110026
73	0x3cf7dc2e	0.030256357
74	0xbdbe16e5	-0.092817105
75	0xbd8c0f93	-0.06838908
76	0xbc78443a	-0.015152985
77	0x3d07c5d1	0.033147637
78	0x3d6c6074	0.057709172
79	0x3bc765ad	0.0060851187
80	0xbc8c4c35	-0.017126182
81	0x3ca1e07d	0.019760365
82	0xbd56618b	-0.052339118
83	0xbd271e9e	-0.040800683
84	0xbcf62f82	-0.03005195
85	0xbd656df7	-0.056013074
86	0xbcde5ea3	-0.027144736
87	0x3d988348	0.07446915
88	0xbd07fdb6	-0.033200942
89	0x3d5d5c8a	0.05404333
90	0xbd505f4a	-0.050872125
91	0x3c7265de	0.014794795
92	0x3c885ba1	0.016645255
93	0xbd1b2d3d	-0.03788494
94	0xbd8a3b9b	-0.0674965
95	0xbd3ff825	-0.04686751
96	0xbd9df57e	-0.077128395
97	0xbc0f46e4	-0.008744929
98	0xbc6a88d3	-0.014314848
99	0x3d13991b	0.036034685
100	0xbd81aacc	-0.06331405
101	0x3d844e58	0.064602554
102	0xbda59a32	-0.08086051
103	0xbb6127aa	-0.0034355917
104	0x3d70d3bd	0.05879568
105	0xbd8ec764	-0.069716245
106	0xbcc7a8ee	-0.024372544
107	0xbd90c6c9	-0.07069165
108	0x3d847c04	0.064689666
109	0xbd80c342	-0.062872425
110	0xbc987e51	-0.01861492
111	0xbcaaa3a5	-0.020829985
112	0x3c82bc59	0.015958952
113	0x3c9af6a7	0.018916441
114	0xbc6422a8	-0.013924278
115	0x3b92a8df	0.0044756974
116	0xbdd76780	-0.10517788
117	0xbd494eca	-0.049147405
118	0xbc1ade6b	-0.009452443
119	0x3c8a52fa	0.01688527
120	0xbdb9a64f	-0.09064924
121	0xbdbf774c	-0.09348926
122	0x3d15d56b	0.036580484
123	0x3d5df07b	0.05418442
124	0x3d35cfbd	0.044387568
125	0xbd694eac	-0.056959793
126	0xbd20fa3f	-0.039301153
127	0xbd232829	-0.03983322

b_classifier.q.0.weight f4 [64, 128]
0	0xbdb02123	-0.0860007
1	0x3da6beb9	0.08141846
2	0xbce75c6c	-0.028242312
3	0x3d8c5613	0.06852355
4	0x3db5cfa5	0.08877496
5	0xbd84afb5	-0.06478826
6	0xbb998749	-0.0046853167
7	0xbd809e90	-0.062802434
8	0xbc950f53	-0.018195784
9	0xbd98d38f	-0.074622266
10	0x39ea1ce3	0.0004465348
11	0x3d5da7b2	0.054115005
12	0x3d5a3479	0.053272698
13	0xbd82679f	-0.063674204
14	0x3c48406f	0.012222393
15	0x3d229da9	0.039701138
16	0x3c7964e7	0.015221811
17	0xbcfd7dd8	-0.030943796
18	0xbd588581	-0.052861694
19	0x3ccee126	0.025253844
20	0x39e4af42	0.00043618126
21	0xbda3aa77	-0.07991498
22	0xbd27c81d	-0.040962327
23	0x3d623a00	0.055231094
24	0x3d8f7d4e	0.07006322
25	0x3d29992e	0.04140585
26	0xbd98d9d3	-0.07463422
27	0xbc240d40	-0.010012925
28	0x3c02a889	0.007974752
29	0xbd1d2918	-0.03836927
30	0xbb8cc253	-0.004295626
31	0xbcd056df	-0.025432048
32	0xbce95941	-0.028484942
33	0x3dacc27a	0.08435531
34	0xbd3a0a1c	-0.045419797
35	0x3b792279	0.0038014932
36	0x3d7d75fc	0.061880097
37	0xbb415dad	-0.0029505298
38	0xbd241788	-0.040061504
39	0x3bcbe8d9	0.006222826
40	0x3d8d4c29	0.06899292
41	0x3da47299	0.0802967
42	0x3d6ab42c	0.05730073
43	0xbcc95062	-0.024574462
44	0xbda39e84	-0.07989219
45	0xbd990b28	-0.07472831
46	0x3ca3b7e1	0.019985141
47	0x3dac20a1	0.08404661
48	0x3db12281	0.08649159
49	0x3d80f8bd	0.06297443
50	0x3ca42c5a	0.02004068
51	0xbd8d0518	-0.06885737
52	0xbcd45af1	-0.02592227
53	0x3d8d6529	0.069040604
54	0x3daadb99	0.08342666
55	0x3d9a8f7a	0.07546897
56	0xbd623f5c	-0.055236205
57	0x3cf3d4c4	0.02976454
58	0x3c080c62	0.008303734
59	0xbda436ea	-0.080182865
60	0xbd941e03	-0.07232287
61	0x3d6d731d	0.05797111
62	0xbd8a325d	-0.06747887
63	0xbd7686b4	-0.060187057
64	0x3c0e0672	0.008668529
65	0xbcafc92d	-0.021458233
66	0xbb81084c	-0.0039377566
67	0x3ce50964	0.02795858
68	0xbda27110	-0.07931721
69	0x3d98fba9	0.07469875
70	0xbcbce09f	-0.023056326
71	0xbc8c2d8e	-0.017111566
72	0xbb655f08	-0.003499927
73	0x3cdd2967	0.026997281
74	0x3da79a17	0.08183687
75	0x3d4a0741	0.049323324
76	0xbd583863	-0.05278815
77	0xbd7a1df4	-0.06106372
78	0xbc2ce830	-0.010553405
79	0x3bbf15b4	0.0058314446
80	0x3cce4c94	0.025183
81	0xbda6fb9e	-0.08153461
82	0x3cd7ea1e	0.026356753
83	0x3d843cda	0.06456919
84	0x3dad8508	0.08472639
85	0xbd90ed5c	-0.07076523
86	0xbc343992	-0.011000054
87	0x3da6bdad	0.081416465
88	0x3d1082cb	0.035280984
89	0x3d9aac56	0.07552402
90	0xbc21dbb3	-0.0098790405
91	0x3be15fce	0.006877876
92	0xbd6964b1	-0.056980792
93	0x3cf3ee76	0.029776793
94	0xbd74c3fd	-0.05975722
95	0x3da27465	0.07932357
96	0x3d8a1f3f	0.06744241
97	0xbda63687	-0.08115869
98	0x3d675f04	0.0564871
99	0xbd67d414	-0.056598738
100	0x3dade0dc	0.08490154
101	0xbda02273	-0.07819071
102	0x3d9d2ee5	0.0767496
103	0xbd8b2cb4	-0.06795636
104	0xbd1f8e92	-0.038954325
105	0x3cf5b456	0.029993217
106	0xbcaf565a	-0.02140348
107	0xbc300f56	-0.010745844
108	0x3cc798e9	0.024364905
109	0xbd8c2fd4	-0.0684506
110	0x3d4a29ff	0.049356457
111	0x3d2c40aa	0.042053856
112	0x3bb50dcc	0.0055253264
113	0x3d69876f	0.057013925
114	0xbd9a22af	-0.075261466
115	0xbd78359e	-0.06059801
116	0xbd683124	-0.05668749
117	0x3da8ac66	0.082360074
118	0xbd87c061	-0.0662849
119	0x3d2f9489	0.042866264
120	0x3d046cca	0.03233031
121	0x3d7f90cb	0.062393945
122	0x3d07d74d	0.03316431
123	0xbd20e758	-0.039283127
124	0xb9351956	-0.00017270943
125	0xbd850d28	-0.0649665
126	0x3d1076e0	0.035269618
127	0xbca45fde	-0.020065244
128	0x3c81f7d4	0.015865244
129	0xbb5c3c41	-0.003360525
130	0xbd6bb1cb	-0.057542603
131	0xbd57db3f	-0.052699324
132	0xbd757e28	-0.059934765
133	0x3d3cacd2	0.04606325
134	0x3d2166ce	0.039404683
135	0x3d9361e1	0.07196403
136	0x3dbce74f	0.09223806
137	0x3b161c5b	0.0022905085
138	0x3dab9b61	0.083792455
139	0xbcfa2957	-0.03053729
140	0x3da4210b	0.08014115
141	0x3d2b80e7	0.041870978
142	0x3d23c23e	0.039980166
143	0xbcf37f3e	-0.02972376
144	0x3ce0a176	0.02742074
145	0x3ce4c69c	0.027926736
146	0xbd6ac4db	-0.057316642
147	0xbc8f42c4	-0.017487891
148	0xbd06fbc5	-0.03295495
149	0xbcf370b3	-0.029716825
150	0xbd6e6937	-0.05820581
151	0x3d52c92e	0.05146139
152	0x3da2b6ff	0.0794506
153	0x3dbb64d2	0.09150089
154	0xbd3e2e2d	-0.046430755
155	0x3d64890a	0.055794753
156	0x3d16d4ce	0.03682404
157	0xbc7d11e1	-0.015446157
158	0xbbd5191d	-0.006503238
159	0x3d0c7590	0.034291804
160	0x3d88146f	0.066445224
161	0x3d802e6d	0.06258855
162	0xbd2e2677	-0.04251715
163	0x3d459714	0.048239782
164	0x3d52925a	0.051409103
165	0xbd047a1e	-0.032343023
166	0x3d45364d	0.04814749
167	0x3d34cb4e	0.0441392
168	0x3d848d36	0.06472246
169	0x3d72fa05	0.05932047
170	0xbc8cf709	-0.01720764
171	0xbd710c9b	-0.058849912
172	0xbd9ca5e9	-0.07648832
173	0x3dad65fe	0.08466719
174	0xbd5a9d7f	-0.053372856
175	0xbce20e19	-0.027594613
176	0x3c4c548d	0.01247133
177	0xbd99dd6f	-0.07512938
178	0xbd46e508	-0.048558265
179	0x3d8aecf6	0.06783478
180	0x3b60c99e	0.003429986
181	0x3d44c3b9	0.04803822
182	0xbd9efdba	-0.07763238
183	0xbd47dc73	-0.04879422
184	0xbd789b73	-0.060695123
185	0xbd24e35e	-0.040255897
186	0x3d88a6d3	0.06672444
187	0x3c8b63d4	0.017015375
188	0x3d499c6b	0.049221437
189	0x3d93b0a6	0.072114274
190	0xbd9d74aa	-0.076882675
191	0x3d582776	0.052772008
192	0xbd0141b6	-0.031556807
193	0xbd023e2a	-0.031797566
194	0x3d03adbe	0.032148115
195	0xbd737b04	-0.05944349
196	0x3cc1f3bb	0.02367579
197	0x3d10c9fa	0.03534887
198	0x3c76eebc	0.015071567
199	0x3da60b83	0.081076644
200	0x3c9cf2ca	0.01915874
201	0x3d89cea7	0.06728869
202	0x3bdd0b22	0.006745712
203	0xbcc11207	-0.023568166
204	0x3daa23a0	0.08307576
205	0xbd963b79	-0.07335562
206	0x3c03d62d	0.008046669
207	0xbd5bba1d	-0.05364429
208	0x3d91c24d	0.07117138
209	0xbd02d8dc	-0.031945094
210	0xbca6451f	-0.020296631
211	0xbd778911	-0.06043345
212	0x3d5ebaef	0.054377493
213	0x3db1484f	0.0865637
214	0x3d419d13	0.04726894
215	0x3ce90b27	0.0284477
216	0x3c43f360	0.011959881
217	0x3d825dc0	0.06365538
218	0x3d84ffaf	0.0649408
219	0x3cbe1d57	0.02320735
220	0xbd0531a0	-0.03251803
221	0x3d8b46a7	0.06800585
222	0x3d35d398	0.044391245
223	0xbd29472c	-0.04132764
224	0x38a63c12	7.926686e-05
225	0xbbd82793	-0.0065965145
226	0xbd4c9a9c	-0.049952134
227	0xbdac1c9a	-0.08403893
228	0xb9b82e88	-0.00035129883
229	0xbd5e1990	-0.054223597
230	0xbd870334	-0.06592408
231	0x3bbe4085	0.005806031
232	0x3c7978c8	0.01522655
233	0xbd38cd3c	-0.0451176
234	0x3da79201	0.08182145
235	0xbd0e1395	-0.034686644
236	0x3a003582	0.0004890786
237	0x3d539455	0.051655132
238	0x3dbc5d1c	0.09197447
239	0xbd08daf2	-0.033411928
240	0xbd433018	-0.047653288
241	0xbb4a56cd	-0.0030874491
242	0xbc79bedf	-0.015243261
243	0xbd2b4145	-0.041810293
244	0xbcff5134	-0.03116665
245	0x3da7afe7	0.081878476
246	0xbb841ab6	-0.0040315045
247	0x3c4e26d2	0.012582498
248	0x3dad311c	0.084566325
249	0x3d943a5c	0.07237694
250	0xbd2f8cff	-0.042859074
251	0x3d4a7bc9	0.049434457
252	0xbd401245	-0.046892423
253	0xbccf19e2	-0.025280897
254	0xbd977bb9	-0.07396645
255	0x3d4ebbe4	0.050472155

b_classifier.q.0.bias f4 [64]
0	0x3d9753bd	0.07389019
1	0x3d7c9ae0	0.061671138
2	0xbbfb7346	-0.007673654
3	0x3d8ef08e	0.06979476
4	0xbd5ffbc6	-0.05468347
5	0xbd810591	-0.0629989
6	0x3d9a2cc5	0.0752807
7	0xbcb392f3	-0.021920657
8	0x3d7ca17c	0.06167744
9	0xbad75221	-0.0016427675
10	0xbdb9f4f0	-0.09079921
11	0x3d1119d9	0.03542504
12	0x3d7922c9	0.06082419
13	0x3dabd9cb	0.0839115
14	0xbd883fc2	-0.06652786
15	0x3c17123b	0.009220655
16	0x3c8c2eca	0.017112155
17	0x3d3b1cd3	0.045681786
18	0x3da7f8b5	0.08201734
19	0xbd7eafaf	-0.062179264
20	0xbd873e73	-0.06603708
21	0x3c6db2a3	0.014507922
22	0xbd96847e	-0.0734949
23	0xbae9560b	-0.0017802132
24	0x3d28da98	0.041224092
25	0xbcaf1253	-0.021371042
26	0x3d517cf3	0.05114455
27	0x3d11769d	0.03551351
28	0x3cdaacd7	0.026693745
29	0xbd86fca6	-0.065911576
30	0x3d73ac45	0.05949046
31	0x3d679611	0.0565396
32	0x3cd597a7	0.02607329
33	0x3d4f99bd	0.050683726
34	0x3d438c6f	0.04774135
35	0x3c933c26	0.017973017
36	0x3d7e6dea	0.06211654
37	0xbd96627f	-0.073430054
38	0x3d7ddcf3	0.06197829
39	0x3c65a070	0.014015302
40	0x3d981291	0.07425416
41	0xbd9584e7	-0.0730074
42	0xbd55b62a	-0.05217568
43	0xbca8273c	-0.02052652
44	0x3ca5fca6	0.020262074
45	0xbd1572e5	-0.036486525
46	0xbcc30ff6	-0.023811322
47	0x3c1058dd	0.008810249
48	0xbc8a024f	-0.016846804
49	0xbd9c2eff	-0.07626151
50	0x3c983a31	0.018582435
51	0x3c0b526e	0.0085035395
52	0x3d40050e	0.04687982
53	0x3dabd7e2	0.08390786
54	0xbda5734a	-0.0807863
55	0xbd919207	-0.07107931
56	0x3b66b07c	0.0035200408
57	0x3d2ca386	0.042148136
58	0x3d1ef78a	0.03881029
59	0x3da9771d	0.08274672
60	0x3d0bff03	0.034178745
61	0x3d3eafd9	0.04655442
62	0x3d774c7d	0.06037568
63	0xbd9fca59	-0.07802267

b_classifier.q.2.weight f4 [64, 64]
0	0x3c31eae4	0.010859225
1	0x3ddaed07	0.10689741
2	0xbd32a1ed	-0.043611456
3	0x3dd6addb	0.10482379
4	0x3bd6ddd3	0.006557205
5	0x3d2d6a0d	0.042337466
6	0xbd3841ee	-0.04498475
7	0xbda3d6b8	-0.07999939
8	0x3dfb8c61	0.122826345
9	0x3c6fa935	0.014627744
10	0x3cd3a737	0.02583657
11	0xbd42543a	-0.047443606
12	0xbd992b27	-0.07478934
13	0xbb3e9f76	-0.0029086745
14	0xbdd3940c	-0.10330972
15	0xbdec4688	-0.1153689
16	0x3dc9902d	0.098419525
17	0x3dba3f9c	0.09094164
18	0x3da1382b	0.07872041
19	0xbce093a2	-0.027414147
20	0xbd0e3915	-0.034722406
21	0xbdcf061c	-0.10108587
22	0xbccbfef8	-0.024901852
23	0x3cf86d9b	0.030325701
24	0x3e05daba	0.13071719
25	0x3e010960	0.12601233
26	0x3d95fa7a	0.07323165
27	0x3de0151e	0.10941528
28	0xbc314f0d	-0.01082207
29	0xbc82e6fa	-0.015979279
30	0x3dac7e69	0.08422548
31	0x3d0d5fce	0.034515195
32	0xbdc01b6d	-0.09380231
33	0x3ded1112	0.115755215
34	0xb915e2e5	-0.00014294272
35	0xbd92b593	-0.07163539
36	0x3e05105b	0.1299452
37	0xbd24ced6	-0.040236317
38	0xbd6f551d	-0.05843078
39	0xbd039378	-0.03212306
40	0x3d500528	0.050786167
41	0x3d8805e2	0.06641747
42	0xbd98e083	-0.07464697
43	0x3d8b6912	0.0680715
44	0x3d231926	0.039818905
45	0xbdf0085a	-0.11720343
46	0x3dfd20bc	0.12359759
47	0xbd27c4b8	-0.04095909
48	0xbdaa6e75	-0.08321849
49	0x3dd9e004	0.10638431
50	0x3e02df95	0.12780602
51	0xbdc11995	-0.094287075
52	0xbdd94506	-0.10608868
53	0xbc7e1af4	-0.015509356
54	0xbd16b01c	-0.036789045
55	0x3d6ab5b2	0.057302184
56	0xbdc78075	-0.09741298
57	0x3cbbb208	0.02291204
58	0x3dceec58	0.10103673
59	0xbd37ceb2	-0.044874854
60	0x3b4e3d20	0.0031469539
61	0x3d127d20	0.03576386
62	0x3e01a298	0.12659681
63	0xbd63f4ce	-0.055653386
64	0xbda6e7c6	-0.08149676
65	0xbd20070c	-0.03906922
66	0xbdf32422	-0.11872126
67	0x3da11a76	0.07866375
68	0x3d9ff65d	0.07810662
69	0x3da2fda8	0.07958537
70	0xbd10d365	-0.03535785
71	0xbca9554c	-0.020670556
72	0xbd17803e	-0.036987536
73	0x3d2dc2a1	0.04242194
74	0x3da39f37	0.07989352
75	0xbda5ffbb	-0.08105417
76	0xbc905dd9	-0.017622875
77	0x3cf4b72d	0.029872501
78	0xbd5f5e2b	-0.054533165
79	0x3de1d7db	0.11027499
80	0xbc1c5985	-0.0095428275
81	0xbd75b4af	-0.059986766
82	0x3d3438dc	0.043999538
83	0xbc559b1c	-0.013037469
84	0xbd8cbb2d	-0.068716384
85	0xbca7b3f1	-0.020471545
86	0x3d6065c9	0.05478457
87	0xbdd04f5a	-0.10171385
88	0x3cc301c7	0.023804558
89	0x3ddbfd6c	0.10741696
90	0x3de2f466	0.110817716
91	0xbdaa2ea5	-0.08309678
92	0xbde0923e	-0.109653935
93	0xbcbc499f	-0.022984324
94	0xbdd3ec8b	-0.10347851
95	0x3dddb3de	0.108253226
96	0x3dd43b78	0.10362905
97	0x3dbad974	0.09123507
98	0x3dbffbd4	0.09374204
99	0x3dce313a	0.10067983
100	0xbdd794c4	-0.10526422
101	0xbcc47aee	-0.023984399
102	0xbdc2d7f7	-0.09513848
103	0x3dce451e	0.10071777
104	0x3de463f6	0.111518785
105	0xbdc638e7	-0.09678822
106	0xbcda249a	-0.026628781
107	0x3d19f085	0.037582893
108	0x3b2eacd8	0.0026653316
109	0x3db64977	0.08900731
110	0x3d9e2c86	0.07723336
111	0x3c6d6732	0.014489936
112	0x3df5d790	0.12004006
113	0x3d3478c6	0.04406049
114	0xbded0bee	-0.11574541
115	0xbdd5933b	-0.104284726
116	0xbcc4d0f7	-0.024025423
117	0x3d7847af	0.060615238
118	0xbc3689d7	-0.011141262
119	0x3d17eee9	0.037093077
120	0xbdf60066	-0.12011795
121	0x3c893d4b	0.01675286
122	0xbca4002c	-0.020019613
123	0xbcafecf3	-0.02147529
124	0xbd3fbce4	-0.046811
125	0xbdf6fadc	-0.120595664
126	0x3d856986	0.065142676
127	0xbde5354a	-0.11191805
128	0xbd908a0b	-0.070575796
129	0xbc99555a	-0.018717457
130	0xbd383039	-0.044967864
131	0x3db1b773	0.08677568
132	0x3dbedb16	0.09319131
133	0xbd944040	-0.07238817
134	0x3da218f4	0.07914916
135	0xbd1693b5	-0.03676196
136	0x3d090c44	0.033458963
137	0x3dee9a66	0.11650543
138	0xbc9af1f8	-0.018914208
139	0x3d12de07	0.035856273
140	0x3cf7c1f6	0.030243855
141	0xbdb912c1	-0.0903678
142	0x3c9d0c2c	0.019170843
143	0x3def2ef3	0.11678877
144	0xbcab1e1e	-0.020888384
145	0xbbeb1b61	-0.0071748947
146	0xbdb4b796	-0.08824079
147	0x3d454ae2	0.048167117
148	0x3c0140e3	0.007889005
149	0xbdafd7cc	-0.08586082
150	0x3c8d6d9a	0.017264176
151	0xbe0586fc	-0.13039774
152	0xbd20f2ad	-0.039293934
153	0x3d7977f3	0.060905408
154	0xbdad9b53	-0.08476891
155	0xbd6ea837	-0.05826589
156	0x3dd5868c	0.104260534
157	0x3d88f3c7	0.06687122
158	0x3c0692c7	0.008213705
159	0x3ccaaa60	0.024739444
160	0x3deab90c	0.11461076
161	0xbdb575c5	-0.088603534
162	0x3d8d175d	0.06889222
163	0xba310966	-0.00067534146
164	0xbd90c83e	-0.07069443
165	0xbbfdd24e	-0.0077460175
166	0x3b51cd94	0.0032013403
167	0xbd2ad1c6	-0.04170396
168	0x3da23c11	0.07921613
169	0xbc973828	-0.018459395
170	0xbded562b	-0.11588701
171	0x3d831d7a	0.064021066
172	0xbca14233	-0.019684887
173	0x3d09b5d9	0.03362069
174	0xbd920879	-0.07130522
175	0x3d25ce91	0.0404802
176	0xbd3b3480	-0.045704365
177	0x3dcd7914	0.100328594
178	0xbda79ed4	-0.08184591
179	0xbd294a07	-0.041330364
180	0xbccd8974	-0.025089957
181	0xbd9979c0	-0.07493925
182	0x3c3b873f	0.011445819
183	0x3c1db0ad	0.009624642
184	0xbda82bc0	-0.0821147
185	0x3d0c7295	0.03428896
186	0x3d996be1	0.074912794
187	0xbd1b4ffb	-0.037918072
188	0xbd495acf	-0.049158867
189	0xbd85b0c3	-0.06527855
190	0xbb09d06c	-0.002102877
191	0xbd85545b	-0.0651023
192	0x3d2b74c6	0.04185941
193	0x3de7aac0	0.11311865
194	0x3c9808cc	0.018558882
195	0x3d90d33c	0.0707154
196	0x3d174138	0.03692743
197	0x3c268d3d	0.01016551
198	0xbd4eaa3b	-0.050455313
199	0xbde5b3cc	-0.11215934
200	0x3c869627	0.01642902
201	0x3b7b0780	0.003830403
202	0xbd4da24f	-0.050203618
203	0xbc07b034	-0.008281756
204	0x3da4ce3c	0.080471486
205	0x3db9e515	0.09076897
206	0xbcd30ddb	-0.025763443
207	0xbc1f26dd	-0.009713856
208	0xba3a256d	-0.0007100914
209	0xbc9f7a05	-0.019467363
210	0xbdf65fe2	-0.12030007
211	0x3daeb4b5	0.08530561
212	0x3d2ad9a6	0.041711472
213	0x3d60bb27	0.054865982
214	0xb9df7c5a	-0.00042626524
215	0x3cbcbee6	0.023040246
216	0xbc4ea929	-0.012613573
217	0xbdc3136b	-0.09525188
218	0x3db2437c	0.08704278
219	0xbdfce469	-0.12348253
220	0x3dcf876c	0.101332515
221	0x3cbf4858	0.023349926
222	0x3dcf8323	0.10132434
223	0x3c268e26	0.010165727
224	0x3dd4ccd3	0.103906296
225	0xbd9db416	-0.07700364
226	0xbbfef733	-0.0077809333
227	0x3d45c274	0.048281148
228	0xbb959754	-0.004565159
229	0x3da8043c	0.08203933
230	0xbc010857	-0.0078755235
231	0xbca7c7d9	-0.020481037
232	0xbd470b66	-0.048594855
233	0xbcec3273	-0.02883265
234	0xbdd4e1a6	-0.103946015
235	0x3c58528c	0.013203274
236	0xbde86741	-0.11347819
237	0xbd7011e6	-0.05861082
238	0x3de49318	0.111608684
239	0xbd905552	-0.070475236
240	0xbdb2c0fb	-0.08728214
241	0xbc388ecc	-0.011264514
242	0x3e02f204	0.12787634
243	0xbd346c97	-0.04404887
244	0x3d14fe61	0.036375407
245	0x3d499c70	0.049221456
246	0xbd30f1e0	-0.04319942
247	0xbc284b11	-0.0102718035
248	0xbde4dda3	-0.11175086
249	0xbcc1ff21	-0.023681225
250	0x3bacd6ee	0.005274645
251	0xbd894814	-0.06703201
252	0x3dc9309e	0.09823726
253	0x3cad9cf3	0.021193003
254	0xbd599ff7	-0.05313107
255	0xbce0f9e1	-0.027462902

b_classifier.q.2.bias f4 [64]
0	0xbd2ef3a7	-0.042712834
1	0xbdaa3f0e	-0.08312808
2	0xbd5068c9	-0.05088118
3	0x3dcb1913	0.09916892
4	0xbd9d28c4	-0.07673791
5	0x3d1022b9	0.035189364
6	0xbd265553	-0.040608715
7	0x3c5a442e	0.013321919
8	0xbdd6e593	-0.104930066
9	0x3c2eaea4	0.010661755
10	0xbd4d26ed	-0.05008595
11	0xbdcf42ea	-0.10120185
12	0x3c9bbfff	0.01901245
13	0x3dd79b49	0.10527665
14	0xbcf4364f	-0.029811053
15	0x3db5f245	0.088841
16	0x3d9e88d2	0.0774094
17	0xbd8472e8	-0.06467229
18	0xbcd10179	-0.025513398
19	0xbca033db	-0.019555977
20	0x3d81d888	0.06340128
21	0xbd6e9ed6	-0.058256947
22	0xbcf7a56e	-0.03023025
23	0xbd7b776e	-0.061393194
24	0x3dd92d78	0.106043756
25	0xbd2e6b5d	-0.04258286
26	0x3c08e859	0.008356177
27	0x3df5f640	0.12009859
28	0x3c481e87	0.01221431
29	0xbb98d419	-0.004663956
30	0x3ddb47fc	0.10707089
31	0xbdc96764	-0.09834173
32	0x3d2a29e1	0.041543845
33	0xbd7b6079	-0.0613713
34	0x3db45252	0.08804764
35	0xbcc11848	-0.023571149
36	0x3d8dfdd7	0.06933182
37	0xbd345696	-0.044027887
38	0xbdb0436a	-0.08606608
39	0x3b077974	0.0020671757
40	0x3bc24679	0.005928811
41	0xbce637ac	-0.028102718
42	0xbbe3825c	-0.0069430303
43	0x3b9fd818	0.0048780553
44	0x3d10f9b5	0.03539439
45	0x3d9018f0	0.070360065
46	0xbc86d584	-0.016459234
47	0x3ddf7311	0.10910619
48	0xbc7e3f0b	-0.01551796
49	0xbdfbe043	-0.12298634
50	0x3d53889b	0.05164395
51	0x3d9c80b0	0.07641733
52	0x3d08c208	0.033388168
53	0xbda3719d	-0.079806544
54	0xbde1c31a	-0.11023541
55	0xbcb06156	-0.021530788
56	0xbcd22c11	-0.025655778
57	0xbd82bdf6	-0.063838884
58	0xbd3ecd7d	-0.046582688
59	0xbd85e357	-0.06537502
60	0x3dae0e4c	0.08498821
61	0x3da246e0	0.079236746
62	0xbc1ca31e	-0.009560375
63	0xbd7b520d	-0.061357547

b_classifier.v.1.weight f4 [128, 128]
0	0x3d886da6	0.06661539
1	0x3d1d5b0c	0.038416907
2	0x3c343ff8	0.011001579
3	0xbd7fc456	-0.0624431
4	0x3d8d2b64	0.06893042
5	0xbd995977	-0.07487767
6	0x3c8d0dcf	0.017218499
7	0xbd75b912	-0.05999095
8	0x3d4bb6b2	0.04973478
9	0x3ceea159	0.029129671
10	0x3da4a17b	0.080386125
11	0xb9d9b30d	-0.0004152287
12	0xbce8c16e	-0.028412547
13	0xbd924211	-0.071415074
14	0xbc3cf5ff	-0.011533259
15	0x3db60055	0.08886782
16	0xbc96438b	-0.018342754
17	0x3da47ea1	0.08031965
18	0x3c6e7eb4	0.014556576
19	0x3d437579	0.047719453
20	0x3b77bd4f	0.0037802046
21	0x3d58abfe	0.0528984
22	0x3d2f9b71	0.04287285
23	0x3db05b00	0.08611107
24	0xbcdc36c6	-0.026881587
25	0x3c6c3935	0.014417936
26	0xbd5c4f28	-0.053786427
27	0x3d5193ed	0.051166464
28	0xbda41653	-0.080120705
29	0x3b8c73b4	0.004286254
30	0x3d8fa804	0.07014468
31	0xbd590c36	-0.05299016
32	0xbd5514d5	-0.05202182
33	0xbd6ddabf	-0.05806994
34	0x3da5b6fe	0.080915436
35	0xbbfaa945	-0.007649573
36	0x3dbdbbd2	0.092643395
37	0x3dc122b2	0.09430446
38	0xbb635c30	-0.00346924
39	0xbd4219a4	-0.047387734
40	0xbccb48bf	-0.024814961
41	0xbd95a690	-0.0730716
42	0x3d40152e	0.0468952
43	0xbd026ca3	-0.031841885
44	0x3d0dbba9	0.034602795
45	0xbcda0366	-0.026612949
46	0xbd8c3338	-0.06845707
47	0x3bdb5cd4	0.0066944156
48	0xbd7ef5a8	-0.062245995
49	0x3ab99660	0.0014159195
50	0xbd31c0cb	-0.043396752
51	0x3d7fd3ce	0.062457852
52	0xbd942a41	-0.07234622
53	0x3c9c5951	0.019085558
54	0x3da0d27e	0.07852648
55	0x3cf742a3	0.030183142
56	0xbd9ac7b2	-0.0755762
57	0xbd8b6a0c	-0.06807336
58	0xbd884d11	-0.06655324
59	0x3dbc9891	0.09208787
60	0xbd48a7e6	-0.048988245
61	0xbcfcadd9	-0.030844616
62	0xbd459ddf	-0.04824626
63	0x3d8427f8	0.06452936
64	0x3daa8adf	0.08327269
65	0x3b97eb26	0.004636186
66	0xbd281a7b	-0.04104088
67	0x3db9fced	0.09081445
68	0x3c4dd20d	0.012562287
69	0xbcce6fc3	-0.025199777
70	0xbd3866dd	-0.045019973
71	0xbc9aa1f1	-0.018876048
72	0xbd8a3af5	-0.067495264
73	0xbd6261eb	-0.055269163
74	0x3c81d9e3	0.015850967
75	0x3d7e21f1	0.062044088
76	0xbd7e2324	-0.06204523
77	0x3d3d728d	0.046251822
78	0x3cb3b78d	0.02193811
79	0x3d13053f	0.035893675
80	0x3d82d14a	0.06387575
81	0xbca521f4	-0.020157792
82	0x3daf7b0a	0.0856839
83	0xbc5170d7	-0.012783251
84	0xbd722a49	-0.059122358
85	0xbd2b09c4	-0.04175736
86	0x3d0fce5d	0.035108913
87	0xbce824dc	-0.028337888
88	0xbce181f5	-0.027527789
89	0xbd962c86	-0.07332711
90	0xbd905ac4	-0.07048562
91	0x3d13afb1	0.036056224
92	0x3c5018d4	0.012701232
93	0x3b00b198	0.0019637104
94	0xbd971ba9	-0.07378323
95	0x3d7f9e60	0.062406898
96	0x3d0d969f	0.03456747
97	0x3ca08f81	0.019599678
98	0x3ce0ddb0	0.027449459
99	0x3ce70819	0.028202103
100	0x3d7e5b70	0.06209892
101	0xbd59ddf3	-0.053190183
102	0xbd807047	-0.06271415
103	0x3c0e0801	0.0086689005
104	0x3d9af03c	0.07565352
105	0x3cef1663	0.02918548
106	0xbd6b8494	-0.057499483
107	0xbd0894e8	-0.033345133
108	0xbd812cd9	-0.06307382
109	0xbd9729e9	-0.073810406
110	0x3c9b0009	0.018920915
111	0x3d8650dc	0.065583915
112	0x3db0c117	0.08630579
113	0x3db7abea	0.08968337
114	0x3d68c64d	0.05682974
115	0x3d3a6cb6	0.04551383
116	0xbd68558e	-0.056722216
117	0xbcc5756a	-0.024103839
118	0x3c01901b	0.007907893
119	0x3d2f21f6	0.042756997
120	0x3d591edd	0.05300795
121	0x3d09a47d	0.033604134
122	0x3db63383	0.08896544
123	0x3dba4879	0.09095854
124	0x3da16b5e	0.07881807
125	0xbd8d826e	-0.06909643
126	0x3d5f7292	0.054552622
127	0xbd1cb8ab	-0.03826205
128	0xbd49f65d	-0.049307216
129	0x3db5be21	0.08874155
130	0x3c639d58	0.013892494
131	0x3db4cb91	0.0882789
132	0x3c8be739	0.017078029
133	0x3d610ce1	0.054943923
134	0x3c4dc1bf	0.0125584
135	0xbc098074	-0.008392442
136	0x3cace082	0.021103147
137	0x3d81c7b0	0.063369155
138	0x3d6d109a	0.05787716
139	0x3d7eefc7	0.06224039
140	0xbcf04114	-0.029327907
141	0x3d8c1f31	0.06841887
142	0xbcf1d89e	-0.029522236
143	0x3d7b5730	0.061362445
144	0x3d8ae0d7	0.06781166
145	0xbd681c2a	-0.056667484
146	0x3cd5d3e3	0.026102012
147	0x3d7dd64f	0.06197196
148	0x3da072ec	0.078344196
149	0x3cc8e2d0	0.024522215
150	0x3ccbc6b6	0.024875026
151	0xbcbef4a6	-0.023310017
152	0xbd2816b7	-0.041037288
153	0xbd8a447a	-0.06751342
154	0x3db67ede	0.08910917
155	0xbd723c1e	-0.059139363
156	0xbb836050	-0.004009284
157	0x3dab86fc	0.083753556
158	0x3d845fae	0.06463562
159	0xbd34f356	-0.044177376
160	0xb94ea75b	-0.00019708036
161	0xbd6d8e69	-0.05799714
162	0x3da12a53	0.07869401
163	0xbbf46c76	-0.0074592186
164	0x3c04c71e	0.008104114
165	0xbd35c354	-0.044375733
166	0x3d89b965	0.06724814
167	0x3da5e6c4	0.08100656
168	0xbd70a3a2	-0.058749802
169	0x3b2cfeb5	0.0026396934
170	0xbd008a5a	-0.031381942
171	0x3d3de145	0.046357412
172	0x3db16b0e	0.08662997
173	0xbd61852c	-0.055058643
174	0xbd4e8788	-0.05042222
175	0x3db5b607	0.088726096
176	0x3d97f437	0.07419627
177	0xbb70b5a0	-0.003672935
178	0x3b90de59	0.004421037
179	0x3d9f8924	0.077898294
180	0x3d8c2003	0.06842043
181	0xbd47be25	-0.04876532
182	0xbd9f6d7d	-0.07784555
183	0xbc481e65	-0.012214278
184	0x3bb60bb2	0.0055555934
185	0xbce75cb3	-0.028242445
186	0x3d9ec823	0.07753017
187	0x3d967be5	0.0734785
188	0xbbfe09ac	-0.007752618
189	0x3db3ca60	0.08778834
190	0xbd98b86f	-0.07457053
191	0xbcc03da7	-0.023466898
192	0x3d5bae8c	0.053633258
193	0xbd8f0bbe	-0.069846615
194	0x3d963ca1	0.07335783
195	0x3dbbd54d	0.09171543
196	0x3dc48a41	0.09596682
197	0x3d95495b	0.07289382
198	0xbda5dbf7	-0.080985956
199	0x3da96213	0.08270659
200	0x3da77ca2	0.08178069
201	0xbd68c96d	-0.05683272
202	0xbd2dbe86	-0.042418025
203	0x3cefc139	0.02926694
204	0x3d1f80ba	0.038941123
205	0xbd72f8cd	-0.059319306
206	0xbd971342	-0.0737672
207	0x3a52b534	0.00080378656
208	0x3db2e9a6	0.08735971
209	0xbc4ac21c	-0.012375381
210	0xbd9efec1	-0.07763434
211	0x3d1733ac	0.036914513
212	0xbd824e3a	-0.06362577
213	0xbd73484e	-0.059395127
214	0xbcfbeeb8	-0.030753478
215	0x3d1835fa	0.03716085
216	0xbd30587b	-0.04305313
217	0x3d4e6bae	0.05039566
218	0xbd0b6ce7	-0.034039404
219	0x3da987ed	0.08277879
220	0xbd9a3211	-0.07529081
221	0xbbe08360	-0.0068515986
222	0xbcc0bfa4	-0.023528881
223	0xbd30f688	-0.04320386
224	0x3dbbaffd	0.091644265
225	0x3d0d4d58	0.03449759
226	0x3d9a0816	0.075210735
227	0xbd39853b	-0.045293074
228	0x3c20cb4f	0.009814098
229	0xbc4e7905	-0.0126020955
230	0xbd6a8e61	-0.05726469
231	0xbd93507a	-0.07193084
232	0xbd889781	-0.06669522
233	0x3da7b45e	0.08188699
234	0xbd44dbeb	-0.048061293
235	0x3da2600b	0.07928475
236	0x3d92b571	0.071635135
237	0x3d32ebd8	0.04368195
238	0x3cb276a0	0.02178508
239	0xbc0703cd	-0.008240652
240	0x3d18b410	0.037281096
241	0x3c0399e7	0.008032299
242	0xbce0ca98	-0.027440354
243	0x3d08ea58	0.033426613
244	0x3cb73025	0.022361824
245	0xbc809ac1	-0.015698792
246	0xbca8032b	-0.020509323
247	0xbd906be7	-0.07051831
248	0x3d7c9eef	0.06167501
249	0x3da03269	0.07822115
250	0x3d8e69f2	0.06953801
251	0x3d91360d	0.070903875
252	0xbd9394b3	-0.072060965
253	0x3cf8e2e7	0.030381633
254	0xbd360eed	-0.044447828
255	0xbd25dc3c	-0.040493235

b_classifier.v.1.bias f4 [128]
0	0xbd7ecae6	-0.062205218
1	0x3d8541af	0.06506669
2	0x3c7ff717	0.015622876
3	0x3d287ee9	0.041136656
4	0xbd5f3c48	-0.054500848
5	0xbd402fd8	-0.046920627
6	0xbdbe8db6	-0.09304373
7	0x3d512ed6	0.051070057
8	0x3dc12b73	0.094321154
9	0xbb9f99df	-0.004870638
10	0x3d7f160c	0.062276885
11	0xba3ed8af	-0.0007280213
12	0xbd1c940f	-0.038227137
13	0xbbf30680	-0.0074165463
14	0x3d04ef70	0.032454908
15	0xbd7edf2b	-0.06222455
16	0xbbe915a9	-0.007113178
17	0xbce4393b	-0.02785932
18	0xbc6a38c4	-0.014295761
19	0xbc58d863	-0.013235184
20	0xbcbd5581	-0.02311206
21	0xbca5904d	-0.02021041
22	0x3c842d71	0.01613495
23	0xbc5ae745	-0.013360803
24	0x3daadf4f	0.08343374
25	0x3db738f1	0.089464076
26	0x3d508caa	0.050915398
27	0xbd8f8b01	-0.07008935
28	0x3c9ff095	0.019523898
29	0xbd246f25	-0.04014506
30	0x3d12fff3	0.035888623
31	0xbd906e26	-0.07052259
32	0x3d858a42	0.06520511
33	0x3d9b1eb1	0.07574213
34	0x3cb007fc	0.021488182
35	0xbd6adac5	-0.05733754
36	0xbbf33de9	-0.0074231518
37	0xbb75ff59	-0.0037536232
38	0x3dc1f65f	0.0947082
39	0xbd6cae99	-0.057783697
40	0xbd2aaa61	-0.041666392
41	0x3d90b7ac	0.07066283
42	0x3d9143c2	0.07093002
43	0x3dbae7b6	0.091262266
44	0xbd4e4a29	-0.050363693
45	0xbd384900	-0.044991493
46	0x3d3abeb7	0.045592036
47	0xbd073143	-0.033005964
48	0xbca27b73	-0.019834256
49	0x3d8f35cb	0.06992682
50	0xbd9e3d04	-0.077264816
51	0xbbcf52e2	-0.006327019
52	0xbd517742	-0.051139124
53	0x3c11c84b	0.008897851
54	0x3d54eb35	0.051982123
55	0xbd5d1e9d	-0.053984273
56	0x3d66e5e5	0.05637159
57	0x3d119ea0	0.035551667
58	0x3be44af9	0.0069669452
59	0x3da38179	0.07983679
60	0x3d984da2	0.07436682
61	0x3c21746b	0.009854416
62	0xbd9cfcae	-0.07665382
63	0xbcb2bbe9	-0.021818118
64	0xbd5d1f22	-0.05398477
65	0x3dafca38	0.08583492
66	0xbd606e6d	-0.05479281
67	0xbc0f1162	-0.008732172
68	0xbdb6eed5	-0.08932272
69	0x3d32a313	0.04361255
70	0x3b48eb68	0.0030657891
71	0xbc8abcc5	-0.016935715
72	0x3d1a3649	0.037649427
73	0xbcde5372	-0.0271394
74	0x3d823ba6	0.06359033
75	0x3d931ec8	0.071836054
76	0xbb01f7d0	-0.0019831546
77	0x3d504897	0.050850477
78	0xbd9d8527	-0.076914124
79	0x3d0417f3	0.032249402
80	0xbd89e861	-0.06733776
81	0xbd9931f0	-0.07480228
82	0x3d1a8141	0.037720922
83	0xbdcd331a	-0.100195125
84	0x3c92e57d	0.017931694
85	0xbc3157c5	-0.010824149
86	0x3d22d0f0	0.03975004
87	0xbd925e27	-0.071468644
88	0xbd9c8e2e	-0.07644306
89	0x3c5cb8c5	0.013471787
90	0x3c2331a4	0.009960566
91	0xbca2dd4e	-0.019880917
92	0xbd66b5c9	-0.056325708
93	0xbd4918f1	-0.04909605
94	0xbba8f4a8	-0.0051561184
95	0x3d0f5080	0.03498888
96	0x3d31cc8b	0.043407958
97	0xbceb2b4e	-0.028707173
98	0x3d5b7b91	0.05358464
99	0xbd03c776	-0.032172643
100	0xb9ec2d93	-0.00045047383
101	0x3d5e5b7f	0.054286476
102	0xbd347fed	-0.044067312
103	0xbd4e5c70	-0.050381124
104	0x3d4e0cda	0.050305225
105	0x3d5b8698	0.053595155
106	0x3ce05b7b	0.027387371
107	0xbccacdb3	-0.024756288
108	0x3d95f639	0.07322354
109	0xbb5944ba	-0.0033152536
110	0x3dad98b3	0.08476391
111	0x3c02cce6	0.007983422
112	0x3d8bdb08	0.06828886
113	0xbce6a536	-0.02815495
114	0x3d98926b	0.07449802
115	0xbd9d6291	-0.07684816
116	0xbd9b6cbc	-0.07589099
117	0xbd343b49	-0.04400185
118	0x3d8ea8fe	0.069658265
119	0xbd8ff44b	-0.07029017
120	0x3cefc17e	0.029267069
121	0xbd9b16b1	-0.075726874
122	0x3c3de035	0.0115891
123	0x3ca22a54	0.019795574
124	0x3d6a28fc	0.057167992
125	0xbd7164ce	-0.058934025
126	0xbd99d45f	-0.0751121
127	0x3c2642f7	0.010147802

b_classifier.fcc.weight f4 [1, 1, 128]
0	0xbd7b647c	-0.061375126
1	0xbc39deb0	-0.011344597
2	0x3d09c8a3	0.033638608
3	0xbd3b4eb6	-0.04572936
4	0x3c8f0f85	0.017463455
5	0xbc32f6b4	-0.010923076
6	0x3bc10dc6	0.0058915345
7	0x3cb61782	0.022228006
8	0xbd31adcb	-0.043378633
9	0x3d31bf5a	0.043395378
10	0xbd6aee97	-0.057356443
11	0x3d9e08ed	0.07716546
12	0x3d92165a	0.071331695
13	0xbd81cc3c	-0.06337783
14	0xbd910b1f	-0.07082199
15	0x3ceb78a9	0.028744059
16	0xbd2c0cd2	-0.042004414
17	0x3cf2d9b7	0.02964483
18	0xbae33715	-0.0017335141
19	0xbd8f2045	-0.06988577
20	0x3c3823ed	0.011239034
21	0x3d6ae463	0.057346713
22	0xbb82bb42	-0.003989608
23	0xbcee0f7c	-0.029060118
24	0xbd8ada0f	-0.067798726
25	0xbbf4e5b3	-0.0074736713
26	0x3d784cc0	0.06062007
27	0xbdb26570	-0.08710754
28	0xbb7e289f	-0.0038781536
29	0xbdae8b3e	-0.08522652
30	0x3c020670	0.007936105
31	0xbdc7425d	-0.09729455
32	0x3cd78ded	0.026312793
33	0xbc89e711	-0.016833814
34	0x3c07996d	0.008276326
35	0x3d1a1643	0.037618887
36	0xbd348e21	-0.044080857
37	0x3d6747be	0.056464903
38	0xbdbc44fd	-0.09192846
39	0xbcefdbc0	-0.02927959
40	0x3da0018a	0.078127936
41	0xbd88fecc	-0.06689224
42	0xbd2c19f8	-0.042016953
43	0xbcd737d2	-0.026271734
44	0x3d8eda94	0.06975284
45	0xbdb4d911	-0.08830465
46	0xbd6a36b4	-0.057181075
47	0x3d822309	0.06354339
48	0xbc8cd6ed	-0.017192328
49	0xbd6cae79	-0.057783578
50	0xbda42f31	-0.080168135
51	0x3d83efc4	0.06442216
52	0xbc581579	-0.013188713
53	0xbd3253e3	-0.04353703
54	0xbb05d5ef	-0.0020421704
55	0xbd9b730d	-0.075903036
56	0xbd2e7d84	-0.04260017
57	0x3cd7f62f	0.026362507
58	0x3ca86062	0.020553771
59	0x3d2eca5a	0.042673446
60	0x3c03aafb	0.00803637
61	0xbd7d92ac	-0.061907455
62	0xbdc171d2	-0.094455376
63	0x3d2f38c7	0.042778756
64	0xbc9a3654	-0.018824734
65	0xbdbaf531	-0.09128798
66	0x3cbcf131	0.023064228
67	0x3d8c197c	0.06840798
68	0x3b54977e	0.003243893
69	0x3d58f173	0.05296464
70	0xbca37e05	-0.019957552
71	0xbda466e0	-0.08027434
72	0x3ce44e26	0.027869295
73	0xbd2f1462	-0.042744048
74	0xbc8c06b4	-0.01709304
75	0x3d2d56fa	0.042319275
76	0x39ece5c7	0.00045184625
77	0x3d8372a4	0.0641835
78	0xbcb4938f	-0.022043018
79	0x3d5efe95	0.054442007
80	0x3d2b42f0	0.041811883
81	0xbcb196f3	-0.021678424
82	0x3d2aee40	0.04173112
83	0x3d611ac2	0.05495716
84	0x3cbdfd4d	0.023192072
85	0xbdb10c29	-0.086448975
86	0x3d212244	0.03933932
87	0xbd3d2faa	-0.046188034
88	0xbdc0a4a4	-0.09406403
89	0xbb071eb4	-0.0020617666
90	0xbd3d0b54	-0.04615338
91	0xbd24d900	-0.04024601
92	0x3d8aa0cf	0.06768953
93	0x3d910a90	0.07082093
94	0x3d770429	0.0603067
95	0x3d617aea	0.05504886
96	0xbd09e982	-0.033669956
97	0x3d44b6ad	0.048025776
98	0x3d71224b	0.058870595
99	0xbda48adf	-0.080343
100	0xbc824937	-0.015904052
101	0x3d4ecc63	0.050487887
102	0xbbb01c93	-0.0053745
103	0xbd36a7fa	-0.04459379
104	0xbcc62cf1	-0.024191352
105	0xbc69ef34	-0.014278222
106	0x3c94beec	0.018157445
107	0xbd5b8800	-0.053596497
108	0x3c82ed59	0.015982317
109	0xbda024fd	-0.07819555
110	0xbb97c974	-0.0046321694
111	0xbdac92d8	-0.08426446
112	0xbd91b8d2	-0.0711533
113	0x3d826ccd	0.06368408
114	0x3c946cfd	0.018118376
115	0xbdcb974c	-0.09940967
116	0xbd18ae5d	-0.03727566
117	0xbd07d6fc	-0.03316401
118	0xbc49fd02	-0.012328388
119	0x3d3f48d6	0.04670032
120	0xbd44ef78	-0.048079938
121	0xbdbaaf00	-0.0911541
122	0x3d20fc62	0.03930319
123	0x3d4788a0	0.04871428
124	0xbd525427	-0.051349785
125	0x3d2fcf5e	0.04292237
126	0x3d7cf162	0.061753638
127	0xbdc9a47e	-0.098458275
